HW4/Q3/mnist_hu_int8.tflite (tflite, 19968 bytes, 3 tensors)

tfl.pseudo_qconst1 i1 [10, 100]
00000000: f8f1 f502 ec06 0008 fb01 49f7 ff03 040e
00000010: 12dd 01ff 0105 d70d f7e6 0505 0643 0cf0
00000020: e10b 03a3 fdf8 b2f9 d203 fe27 1828 03fa
00000030: 6515 1312 040b 11d1 12fa fffa 0dd5 7301
00000040: d0d6 81f1 0dfe bd16 2b01 0e09 2609 fcd1
00000050: 0101 0936 5cca 1ec0 1b19 dcd3 01ff 0213
00000060: ef1c 09fd 04ee f8fc de03 e309 fe1e 49e2
00000070: 2bfd 1f17 ea0d 00ff fd03 0d08 ee04 fcff
00000080: 04e1 2a0c 1f06 0802 dadd e512 0842 0997
00000090: f501 edfe fde9 d1ee 00f3 f708 ea11 ff03
000000a0: e808 ed01 fc1d 12ff eae8 1500 e800 bb05
000000b0: 3bfe 0208 0002 ea23 4203 7fc6 04e5 f0f0
000000c0: 0200 01ef 10c5 e3e6 fb0b 2efb 0204 0a0a
000000d0: fd13 5710 81fc 28ff 11fd 0203 02fb fc08
000000e0: 0cfc 0105 02fe 02ea f0fa 11fd 060d 19f0
000000f0: f326 07e3 01e8 02fe 0b02 fd05 fa16 f0fc
-8 -15 -11 2 -20 6 0 8
-5 1 73 -9 -1 3 4 14
18 -35 1 -1 1 5 -41 13
-9 -26 5 5 6 67 12 -16
-31 11 3 -93 -3 -8 -78 -7
-46 3 -2 39 24 40 3 -6
101 21 19 18 4 11 17 -47
18 -6 -1 -6 13 -43 115 1
-48 -42 -127 -15 13 -2 -67 22
43 1 14 9 38 9 -4 -47
1 1 9 54 92 -54 30 -64
27 25 -36 -45 1 -1 2 19
-17 28 9 -3 4 -18 -8 -4
-34 3 -29 9 -2 30 73 -30
43 -3 31 23 -22 13 0 -1
-3 3 13 8 -18 4 -4 -1
4 -31 42 12 31 6 8 2
-38 -35 -27 18 8 66 9 -105
-11 1 -19 -2 -3 -23 -47 -18
0 -13 -9 8 -22 17 -1 3
-24 8 -19 1 -4 29 18 -1
-22 -24 21 0 -24 0 -69 5
59 -2 2 8 0 2 -22 35
66 3 127 -58 4 -27 -16 -16
2 0 1 -17 16 -59 -29 -26
-5 11 46 -5 2 4 10 10
-3 19 87 16 -127 -4 40 -1
17 -3 2 3 2 -5 -4 8
12 -4 1 5 2 -2 2 -22
-16 -6 17 -3 6 13 25 -16
-13 38 7 -29 1 -24 2 -2
11 2 -3 5 -6 22 -16 -4

tfl.pseudo_qconst3 i1 [100, 100]
00000000: 1a13 0218 1d16 05f9 f5f0 2708 064b f6eb
00000010: 0104 e108 fae2 cb11 0216 15fa 81f6 01f9
00000020: f8ff 033b 0302 0b06 e30a 31f8 10ed f115
00000030: 0201 2000 fa08 25fe 0bfe 1bf9 d240 080d
00000040: 1ffd 04db e901 270b 19eb ff0a 0305 f805
00000050: 0312 0f2e 040b fd1b ff0e e01b fdf9 17fc
00000060: 0305 2c02 e7fd fe2a 0300 fff6 0722 07f6
00000070: 0ab5 04fe 0010 e7a1 fd24 ce16 0700 c404
00000080: 9701 0681 050d 0638 f800 fefc ef01 0dfb
00000090: 1510 1808 ff0b f3f5 fc02 f20f 0afd 1304
000000a0: dcea 080f 1505 0716 e500 c1f6 0ea8 0002
000000b0: 0501 f806 07f3 e2ff 02f7 090b f710 d912
000000c0: 3c0f 1202 fbf5 fc03 0d0f fab6 0817 0401
000000d0: ff14 fc04 f481 fc10 050b 31fb 031b eb0b
000000e0: ff05 fffc 2405 12e4 fdf9 fffb fdfb 0901
000000f0: 25fb f802 0234 36e9 fb06 14fe fefb 090c
26 19 2 24 29 22 5 -7
-11 -16 39 8 6 75 -10 -21
1 4 -31 8 -6 -30 -53 17
2 22 21 -6 -127 -10 1 -7
-8 -1 3 59 3 2 11 6
-29 10 49 -8 16 -19 -15 21
2 1 32 0 -6 8 37 -2
11 -2 27 -7 -46 64 8 13
31 -3 4 -37 -23 1 39 11
25 -21 -1 10 3 5 -8 5
3 18 15 46 4 11 -3 27
-1 14 -32 27 -3 -7 23 -4
3 5 44 2 -25 -3 -2 42
3 0 -1 -10 7 34 7 -10
10 -75 4 -2 0 16 -25 -95
-3 36 -50 22 7 0 -60 4
-105 1 6 -127 5 13 6 56
-8 0 -2 -4 -17 1 13 -5
21 16 24 8 -1 11 -13 -11
-4 2 -14 15 10 -3 19 4
-36 -22 8 15 21 5 7 22
-27 0 -63 -10 14 -88 0 2
5 1 -8 6 7 -13 -30 -1
2 -9 9 11 -9 16 -39 18
60 15 18 2 -5 -11 -4 3
13 15 -6 -74 8 23 4 1
-1 20 -4 4 -12 -127 -4 16
5 11 49 -5 3 27 -21 11
-1 5 -1 -4 36 5 18 -28
-3 -7 -1 -5 -3 -5 9 1
37 -5 -8 2 2 52 54 -23
-5 6 20 -2 -2 -5 9 12

tfl.pseudo_qconst5 i1 [100, 7]
00000000: 0001 fee2 0ae6 7f01 050a 47db 9a81 818c
00000010: 7ba6 8682 09fd 0420 8fb2 7f5a 000d 22d6
00000020: 26ce 7fff 050a 3503 8191 9672 2fec 815c
00000030: 40b6 d71c 7f55 5a3e b725 7c4b 814c e120
00000040: 210c 05cb 815a 03ff 09eb ff25 7fae 8139
00000050: 69e3 3a4e 08f4 05e4 a692 8100 0102 b42a
00000060: 637f dbda 1e7f b70b 4b02 fdfa ef1d e87f
00000070: 81d4 2473 0b7c eb06 fbfb 7f8f 96c4 02fe
00000080: f7e2 fa81 4c00 00fe a5b8 fc7f abcd 7fd8
00000090: 7875 6e19 2226 31d1 811c 03fc 0306 fcbc
000000a0: 8100 0210 08d8 8f81 e801 94b1 9310 8102
000000b0: 030e f609 197f ff01 01c2 eee0 7faa dca0
000000c0: 7ff8 58d2 f512 d481 d4ca 61c8 8ea5 8fd4
000000d0: 7f4f 0205 0a53 f481 acff 01f8 81ad f95f
000000e0: 8161 bf95 4404 4801 f6e4 220e 7f51 adf7
000000f0: c57f 781a 6701 fec8 cf11 6c7f cb14 68e1
0 1 -2 -30 10 -26 127 1
5 10 71 -37 -102 -127 -127 -116
123 -90 -122 -126 9 -3 4 32
-113 -78 127 90 0 13 34 -42
38 -50 127 -1 5 10 53 3
-127 -111 -106 114 47 -20 -127 92
64 -74 -41 28 127 85 90 62
-73 37 124 75 -127 76 -31 32
33 12 5 -53 -127 90 3 -1
9 -21 -1 37 127 -82 -127 57
105 -29 58 78 8 -12 5 -28
-90 -110 -127 0 1 2 -76 42
99 127 -37 -38 30 127 -73 11
75 2 -3 -6 -17 29 -24 127
-127 -44 36 115 11 124 -21 6
-5 -5 127 -113 -106 -60 2 -2
-9 -30 -6 -127 76 0 0 -2
-91 -72 -4 127 -85 -51 127 -40
120 117 110 25 34 38 49 -47
-127 28 3 -4 3 6 -4 -68
-127 0 2 16 8 -40 -113 -127
-24 1 -108 -79 -109 16 -127 2
3 14 -10 9 25 127 -1 1
1 -62 -18 -32 127 -86 -36 -96
127 -8 88 -46 -11 18 -44 -127
-44 -54 97 -56 -114 -91 -113 -44
127 79 2 5 10 83 -12 -127
-84 -1 1 -8 -127 -83 -7 95
-127 97 -65 -107 68 4 72 1
-10 -28 34 14 127 81 -83 -9
-59 127 120 26 103 1 -2 -56
-49 17 108 127 -53 20 104 -31
