HW4/Q1/mlp_har_float32.tflite (tflite, 49324 bytes, 6 tensors)

arith.constant f4 [100]
-0.23934618 -0.2813083 -0.023178795 0.09738227 -0.1531167 -0.0027321721 -0.074870676 -0.26634002
0.21931486 -0.09099411 -0.024866648 -0.21442248 -0.02883812 0.09992982 -0.010898278 -0.19021915
-0.026918836 -0.10403488 -0.11877224 -0.055482477 0.19443682 -0.08228406 -0.098173395 -0.038741406
-0.024983788 0.11132573 -0.25744057 0.10188251 -0.45846874 0.094841234 -0.25279254 -0.18394765
-0.37040135 0.022961939 -0.0777581 0.028605655 0.09698971 0.07942984 -0.055562936 -0.091547675
0.16163756 -0.05996001 -0.0078046927 -0.03837932 0.21819021 0.039201185 -0.14900954 -0.08868957
-0.1732839 -0.31119287 0.023890812 0.13196827 -0.0748676 -0.41295496 -0.08974181 -0.18273963
-0.09911443 -0.20905794 -0.08268579 0.35823345 0.3483427 -0.29507205 0.015231769 0.22774126
-0.05827072 -0.20879418 -0.06228044 0.21589358 -0.12532958 0.0015150394 -0.012666704 -0.16600233
-0.08078315 -0.001338949 0.05428956 -0.29072917 -0.1029451 0.036295064 -0.121843904 -0.062438793
0.056051947 -0.113079615 -0.11186245 -0.007292271 -0.098328896 -0.056950737 -0.09593054 -0.019457316
-0.095347345 -0.18409027 -0.0938722 -0.09611735 -0.07602294 -0.1899305 -0.01360133 -0.11682591
0.10867236 0.11405177 0.1162551 -0.05565251
00000000: 2a17 75be a407 90be 75e1 bdbc 5b70 c73d
00000010: a0ca 1cbe 3e0e 33bb cc55 99bd b85d 88be
00000020: 1394 603e 1f5b babd 24b5 cbbc 9191 5bbe
00000030: ec3d ecbc 01a8 cc3d b18e 32bc cfc8 42be
00000040: e484 dcbc 3d10 d5bd dc3e f3bd 9841 63bd
00000050: 721a 473e 8c84 a8bd 220f c9bd 4faf 1ebd
00000060: cdaa ccbc bffe e33d 40cf 83be c7a7 d03d
00000070: 6abc eabe 1f3c c23d 066e 81be c65c 3cbe
00000080: 3fa5 bdbe ad1a bc3c a43f 9fbd 6856 ea3c
00000090: 8ba2 c63d 1dac a23d f695 63bd 597d bbbd
000000a0: 5184 253e a198 75bd 82be ffbb a233 1dbd
000000b0: 416d 5f3e 6c91 203d f595 18be e1a2 b5bd
000000c0: 5671 31be ac54 9fbe aab6 c33c b122 073e
000000d0: 2f54 99bd d56e d3be 8eca b7bd 1920 3bbe
000000e0: 82fc cabd 4913 56be 2b57 a9bd 606a b73e
000000f0: f959 b23e af13 97be ab8e 793c 0135 693e
00000100: 47ad 6ebd 24ce 55be c619 7fbd 3513 5d3e
00000110: 6656 00be 4994 c63a 0288 4fbc 84fc 29be
00000120: a371 a5bd ac7f afba bb5e 5e3d 74da 94be
00000130: e1d4 d2bd 22aa 143d 4c89 f9bd d2bf 7fbd
00000140: ba96 653d 4996 e7bd 2418 e5bd 01f4 eebb
00000150: a960 c9bd 2d45 69bd 3b77 c4bd f364 9fbc
00000160: 7845 c3bd 2982 3cbe 1140 c0bd 2cd9 c4bd
00000170: eab1 9bbd 247d 42be 1dd8 5ebc 6c42 efbd
00000180: 9d8f de3d f993 e93d 2717 ee3d e3f3 63bd

arith.constant1 f4 [6]
-0.10799233 -0.41029817 -0.12350403 -0.05434997 0.15958805 0.19012932
00000000: 152b ddbd 9a12 d2be aeef fcbd 139e 5ebd
00000010: 0d6b 233e 43b1 423e

arith.constant2 f4 [6, 100]
-0.109485015 -0.12914018 -0.3108432 -0.3592042 0.34100115 0.13100749 -0.2356189 0.14690197
0.023929952 -0.059264302 -0.15879211 0.32038295 0.14103226 0.122844525 0.33788806 0.095996365
-0.06657581 0.18270159 0.037227307 0.44588512 -0.09804866 0.19999719 0.061627585 -0.4379579
0.10444815 0.19135906 0.0052554016 -0.35520226 -0.49342364 -0.04569631 -0.106980756 0.062625445
0.2451678 0.113094874 0.08085256 0.2791152 0.12632452 -0.0093236575 0.02835038 -0.08224187
-0.56019086 -0.40923464 -0.10047451 -0.12973313 0.08698417 0.2683322 -0.6014687 -0.20823063
0.016650567 -0.24986218 0.001999545 -0.13519396 -0.46593556 -0.29848766 -0.054217596 -0.7666329
-0.030031111 -0.082233384 -0.09428691 0.077250406 -0.14037608 0.052728336 -0.3853467 -0.2478879
-0.336253 -0.28161964 -0.053786084 -0.02186952 0.13011992 0.45242786 -0.49160376 -0.401617
-0.32837617 -0.27758983 -0.24235208 -0.47779328 -0.12732147 0.09739278 0.030235924 0.031641014
-0.40492323 0.21854556 0.13133886 0.44400176 -0.06605152 0.091167904 -0.17182699 -0.21761128
0.26564074 0.39104953 -0.7160457 -0.31921813 -0.08433291 -0.5074152 -0.4340036 0.22010635
0.13027506 0.06687834 0.14359324 0.037049025 0.110518515 0.16039981 -0.2571722 -0.07263136
-0.2300718 -0.20996611 0.07019202 -0.6009396 0.016261227 0.19730303 -0.30914977 0.3766744
-0.5726582 -0.06047593 -0.3839367 -0.62319666 0.17096032 -0.43839833 -0.3530234 -0.25781077
0.27839968 -0.37877476 0.18458606 -0.14970122 -0.15189174 -0.30169472 0.09266832 0.10886885
0.015531728 -0.62072027 0.28037283 0.14156175 0.29105505 0.13682164 0.12278842 -0.13633575
-0.10547737 -0.2873609 0.06745095 0.1028818 0.12207921 -0.5711736 -0.3278504 -0.17776488
-0.21457396 -0.4596903 -0.3147275 0.20802101 0.12274614 0.4632054 -0.8533026 -0.39218992
-0.29701862 0.16394566 0.16885981 0.18648411 0.08548152 -0.20862515 0.050300695 -0.37278083
-0.18214515 0.06824649 -0.016619086 -0.2723237 -0.05968469 -0.15930247 -0.604137 -0.45650175
-0.4056744 -0.031367235 0.29925302 0.28273433 -0.5817856 -0.46777672 0.24435744 -0.070803724
-0.18794186 0.09157859 -1.0657402 -0.089553386 0.17126018 0.021379158 0.10986405 -0.89642483
-0.1577423 -0.4816494 -0.18963704 0.21039997 -0.24801275 -0.31427214 -0.13061115 0.3317504
-0.24240436 -0.7567894 -0.35422823 0.08576012 0.032441635 -0.12185293 -0.13347085 0.15043424
-0.5145422 -0.20472696 -0.58692026 -0.8721032 0.22531673 -0.059842322 -0.2349708 0.32763958
-0.16111384 -0.9003186 0.28697395 -0.20956916 0.070417665 -0.2625641 -0.75871706 -0.08449288
-0.038085915 -0.856497 0.2837962 -0.5476474 0.038152307 0.153005 0.07628283 0.5749769
-0.20790705 -0.16729046 -0.22912918 -0.68746746 0.21570705 -0.119310506 -0.42125282 -0.10985982
0.015796233 0.04827491 -0.44774485 -0.37543553 -0.1621946 -0.35116538 -0.33056363 -0.14117333
-0.26815256 0.049755678 -0.4315473 0.060191635 -0.21904239 -0.027488409 0.5595955 -0.28086832
-0.00199475 -0.19908956 0.17746031 -1.1099291 -0.7060273 0.3436641 -0.18527488 0.06897891
00000000: ae39 e0bd 533d 04be d726 9fbe 9de9 b7be
00000010: b497 ae3e d426 063e 1546 71be 786d 163e
00000020: bf08 c43c 20bf 72bd 669a 22be 3c09 a43e
00000030: c36a 103e e995 fb3d aaff ac3e be99 c43d
00000040: e658 88bd 2016 3b3e a97b 183d 0e4b e43e
00000050: bccd c8bd 10cc 4c3e 356d 7c3d 053c e0be
00000060: e9e8 d53d a1f3 433e 8135 ac3b 12dd b5be
00000070: 06a2 fcbe 0e2c 3bbd ba18 dbbd c541 803d
00000080: 450d 7b3e 499e e73d 0796 a53d 30e8 8e3e
00000090: 375b 013e 41c2 18bc 0e3f e83c 6d6e a8bd
000000a0: ab68 0fbf 3487 d1be 94c5 cdbd c3d8 04be
000000b0: c224 b23d d762 893e daf9 19bf 693a 55be
000000c0: c566 883c dfdb 7fbe cc0a 033b 4970 0abe
000000d0: 1b8f eebe 60d3 98be 4513 5ebd 0e42 44bf
000000e0: ce03 f6bc fa69 a8bd 7f19 c1bd 7635 9e3d
000000f0: bfbe 0fbe abf9 573d 2a4c c5be 53d6 7dbe
00000100: 5a29 acbe 7330 90be cc4e 5cbd b527 b3bc
00000110: 283e 053e a0a4 e73e 7db3 fbbe bea0 cdbe
00000120: ec20 a8be 4120 8ebe 252b 78be 52a1 f4be
00000130: 8f60 02be de75 c73d 54b1 f73c 029a 013d
00000140: 1952 cfbe 68ca 5f3e b27d 063e 3354 e33e
00000150: 0546 87bd 3db6 ba3d 6af3 2fbe 7ed5 5ebe
00000160: 1002 883e a537 c83e c54e 37bf 8f70 a3be
00000170: bcb6 acbd f6e5 01bf b835 debe 8f63 613e
00000180: d366 053e 83f7 883d 1b0a 133e b8c0 173d
00000190: 8857 e23d d93f 243e 13ac 83be c0bf 94bd
000001a0: f197 6bbe 5b01 57be d5c0 8f3d 2dd7 19bf
000001b0: 4436 853c ce09 4a3e e148 9ebe 78db c03e
000001c0: ba99 12bf 9cb5 77bd 5a93 c4be d189 1fbf
000001d0: 3910 2f3e bf75 e0be 7cbf b4be c6ff 83be
000001e0: 678a 8e3e c4ee c1be 2104 3d3e 474b 19be
000001f0: 8289 1bbe bb77 9abe e3c8 bd3d a2f6 de3d
00000200: ca78 7e3c 86e7 1ebf 078d 8f3e 90f5 103e
00000210: 2b05 953e f91a 0c3e 7f78 fb3d 999b 0bbe
00000220: 8504 d8bd f820 93be b923 8a3d b1b3 d23d
00000230: aa04 fa3d 6f38 12bf 02dc a7be ff07 36be
00000240: 47b9 5bbe 875c ebbe f623 a1be 7603 553e
00000250: 5462 fb3d 4229 ed3e 0a72 5abf 1ecd c8be
00000260: d312 98be 5fe1 273e 96e9 2c3e b1f5 3e3e
00000270: ef10 af3d d5a1 55be 1a08 4e3d 21dd bebe
00000280: 4284 3abe d1c4 8b3d c024 88bc 036e 8bbe
00000290: ef77 74bd 3020 23be b9a8 1abf 99ba e9be
000002a0: 8eb4 cfbe ee7a 00bd b137 993e 8ec2 903e
000002b0: e7ef 14bf 6e80 efbe d638 7a3e 8b01 91bd
000002c0: d573 40be 8e8d bb3d 2d6a 88bf c467 b7bd
000002d0: d45e 2f3e 5823 af3c 6700 e13d 197c 65bf
000002e0: 3387 21be c09a f6be 3630 42be 1773 573e
000002f0: 0ef7 7dbe 47e8 a0be eebe 05be 30db a93e
00000300: d938 78be f3bc 41bf 675d b5be 00a3 af3d
00000310: 85e1 043d 078e f9bd 95ac 08be 6f0b 1a3e
00000320: 0ab9 03bf f2a3 51be 6840 16bf 2842 5fbf
00000330: 6eb9 663e 391d 75bd 2f9c 70be 60c0 a73e
00000340: 07fb 24be 487b 66bf 40ee 923e 4c99 56be
00000350: 2337 903d cd6e 86be 483b 42bf 9a0a adbd
00000360: faff 1bbd 6343 5bbf bc4d 913e 9f32 0cbf
00000370: 9845 1c3d 58ad 1c3e 2c3a 9c3d b031 133f
00000380: 96e5 54be 314e 2bbe d7a0 6abe defd 2fbf
00000390: 4fe2 5c3e 1159 f4bd 73ae d7be 2ffe e0bd
000003a0: 1a67 813c e9bb 453d d03e e5be 1639 c0be
000003b0: 5716 26be f3cb b3be a33f a9be be8f 10be
000003c0: 4b4b 89be 9ccc 4b3d c5f3 dcbe 818b 763d
000003d0: a64c 60be 5f2f e1bc a741 0f3f f9cd 8fbe
000003e0: 5aba 02bb 22de 4bbe 28b8 353e 2812 8ebf
000003f0: 35be 34bf bef4 af3e b3b8 3dbe d144 8d3d

arith.constant3 f4 [100, 100]
0.18790875 0.33518928 -0.0119491005 -0.1115453 -0.06956251 0.1356747 0.011896077 0.12037855
-0.15559652 -0.09001447 0.02056397 -0.07795472 -0.0071032606 0.021720393 -0.08126383 0.14062546
0.08397599 0.021365633 -0.052179556 0.11320791 -0.05426864 0.14948225 -0.027752351 -0.07431103
-0.08435198 -0.11173428 0.036280498 -0.015322235 -0.15432127 -0.39677623 0.03926266 0.28360093
0.059292633 0.14201312 -0.13411507 -0.19657809 0.24102 -0.05787449 0.160297 0.25785786
-0.10039158 0.4790796 0.059982073 -0.04029101 0.083565064 0.16089648 -0.376274 0.40479705
0.12776074 0.09301101 0.016805464 0.040036254 -0.02458824 -0.4463337 0.016015701 -0.079546094
0.043548193 -0.0872325 0.0006808835 -0.10261294 -0.18117051 0.056847036 0.08189314 0.13132674
0.09053908 0.14748085 -0.028299108 -0.13548017 0.07651086 0.05902341 -0.13365905 0.066013634
-0.0053583584 0.04856766 -0.40581587 -0.06317547 0.08284501 -0.0035238564 -0.47695452 -0.7371672
-0.5021949 -0.0320798 -0.09143785 0.039943784 -0.15613116 0.50054455 -0.16725704 0.15082516
-0.17275378 0.11070376 0.23653843 0.06352653 -0.05945298 0.10515458 -0.3242481 0.091468416
-0.01077067 -0.2823968 0.38295573 0.6042754 0.25811574 -0.005081984 0.3170241 0.3725814
0.14785656 -0.24893653 0.07690516 0.13305104 0.029939711 0.42566705 0.08483759 -0.36823308
0.36568585 0.048853476 0.13987358 0.111199275 -0.06913959 0.22230622 0.016041873 0.09862065
-0.18628095 -0.22973396 -0.002949625 0.20129162 -0.05520915 -0.05092259 -0.09425991 -0.46433017
-0.40828252 -0.20173822 -0.22233489 -0.03410852 0.04908893 0.15519883 -0.25999212 0.006614907
-0.4308568 -0.107673526 -0.18809114 -0.073827274 0.058942962 0.31217828 -0.045681275 -0.021521345
-0.33477655 -0.5838192 -0.0037916526 -0.061992288 -0.03804275 0.0143818455 0.02869325 -0.15419605
-0.18754543 0.09012721 -0.22606085 -0.17878053 -0.2614698 0.32869577 0.093112685 0.18978232
-0.08550801 -0.07509932 0.13168862 -0.37505725 -0.12433673 0.07407152 0.013334798 -0.09031701
0.53537786 0.026253132 -0.1982891 0.18651046 -0.37386578 -0.012011517 0.09178163 0.09892369
-0.09340361 -0.15140711 -0.06542179 -0.42686626 -0.65372205 0.13839765 -0.18974015 -0.2434678
-0.0009929389 0.04596268 -0.03508316 -0.13406499 -0.110261686 0.18622462 0.095015764 -0.13142331
0.03164534 0.19192052 0.1421232 0.082517065 -0.09347779 -0.1117762 -0.5089764 0.070292585
-0.030127008 0.047010094 -0.051470354 -0.22353902 0.025003918 -0.052334405 0.06330644 0.09039393
0.017365083 -0.7670502 -0.16298114 -0.121761255 -0.24113256 -0.069444455 -0.024123732 0.11036966
-0.16829075 0.049589686 -0.110483035 -0.07035453 -0.0109192915 -0.018648338 -0.22401823 0.2054576
0.04680169 -0.13070379 -0.18577707 0.013587129 -0.055908266 -0.05551241 0.04153271 0.1566646
0.023877293 -0.21632013 -0.09914459 -0.28846297 -0.16989435 -0.11394737 -0.03892685 -0.16218284
-0.27472985 0.3780181 -0.04565492 0.011145398 0.017567296 -0.21113408 0.13375375 0.13042915
-0.094175145 -0.0065686433 0.26618314 -0.25344977 -0.23770711 -0.657344 -0.1568398 -0.04725107
00000000: 276b 403e ee9d ab3e 29c6 43bc dd71 e4bd
00000010: ca76 8ebd 4fee 0a3e c3e7 423c 0789 f63d
00000020: b254 1fbe 8259 b8bd c575 a83c b9a6 9fbd
00000030: 78c2 e8bb f7ee b13c a76d a6bd 1f00 103e
00000040: 9bfb ab3d fb06 af3c 3bba 55bd 8cd9 e73d
00000050: cb48 5ebd e011 193e e658 e3bc 6230 98bd
00000060: bbc0 acbd f1d4 e4bd dc9a 143d 1d0a 7bbc
00000070: 6506 1ebe 4126 cbbe e2d1 203d 2434 913e
00000080: d5dc 723d e36b 113e 7655 09be c44b 49be
00000090: f2cd 763e cd0d 6dbd e624 243e f205 843e
000000a0: 1a9a cdbd ec49 f53e c3af 753d 3008 25bd
000000b0: 2924 ab3d 0cc2 243e fca6 c0be 8f41 cf3e
000000c0: b6d3 023e 8e7c be3d 9dab 893c 0efd 233d
000000d0: 476d c9bc da85 e4be 5c33 833c 10e9 a2bd
000000e0: 975f 323d f4a6 b2bd 517d 323a bc26 d2bd
000000f0: c384 39be 70d8 683d 97b7 a73d 847a 063e
00000100: 8e6c b93d 3805 173e 88d3 e7bc 50bb 0abe
00000110: bab1 9c3d 88c2 713d ebdd 08be 2832 873d
00000120: 2b95 afbb e2ee 463d 19c7 cfbe 2462 81bd
00000130: a5aa a93d 80f0 66bb 6233 f4be fdb6 3cbf
00000140: d88f 00bf 1c66 03bd c443 bbbd 189c 233d
00000150: d9e0 1fbe b023 003f 6e45 2bbe e971 1a3e
00000160: 5ee6 30be a7b8 e23d 2137 723e 331a 823d
00000170: f884 73bd 495b d73d d903 a6be cb53 bb3d
00000180: 7777 30bc 5096 90be c612 c43e cbb1 1a3f
00000190: bf27 843e c686 a6bb fc50 a23e fdc2 be3e
000001a0: b667 173e 38e9 7ebe 7480 9d3d 883e 083e
000001b0: 2044 f53c 08f1 d93e 55bf ad3d 0c89 bcbe
000001c0: 2d3b bb3e 951a 483d 053b 0f3e 72bc e33d
000001d0: 0f99 8dbd 3ea4 633e 3f6a 833c a0f9 c93d
000001e0: 6fc0 3ebe 613f 6bbe 7f4e 41bb 641f 4e3e
000001f0: fd22 62bd 3594 50bd 570b c1bd afbc edbe
00000200: 680a d1be 7794 4ebe c2ab 63be 60b5 0bbd
00000210: 7911 493d 71ec 1e3e b01d 85be ddc1 d83b
00000220: 4399 dcbe f083 dcbd f79a 40be c132 97bd
00000230: 2d6e 713d d5d5 9f3e 4a1c 3bbd 884d b0bc
00000240: d567 abbe 2d75 15bf 607d 78bb a0eb 7dbd
00000250: b7d2 1bbd d5a1 6b3c 1b0e eb3c 92e5 1dbe
00000260: e90b 40be 9d94 b83d 7f7c 67be 3e12 37be
00000270: 5fdf 85be d04a a83e ddb1 be3d 4c56 423e
00000280: d31e afbd accd 99bd 62d9 063e 8107 c0be
00000290: 41a4 febd cfb2 973d 327a 5a3c 20f8 b8bd
000002a0: 860e 093f cf10 d73c 4c0c 4bbe 99fc 3e3e
000002b0: 566b bfbe f4cb 44bc 02f8 bb3d 8198 ca3d
000002c0: 644a bfbd 770a 1bbe dcfb 85bd 378e dabe
000002d0: 545a 27bf 1db8 0d3e 3e4b 42be 9f4f 79be
000002e0: 8025 82ba 5d43 3c3d 5cb3 0fbd 5548 09be
000002f0: e1d0 e1bd abb1 3e3e a097 c23d d593 06be
00000300: 8b9e 013d d086 443e bf88 113e b5fe a83d
00000310: 4971 bfbd ecea e4bd 474c 02bf 8ff5 8f3d
00000320: eacc f6bc a88d 403d 94d2 52bd 6ae7 64be
00000330: 04d5 cc3c 9a5c 56bd cfa6 813d 7420 b93d
00000340: 3841 8e3c 675d 44bf 87e4 26be f75d f9bd
00000350: 74eb 76be e538 8ebd 229f c5bc 7d09 e23d
00000360: 6954 2cbe 8e1e 4b3d ee44 e2bd 0916 90bd
00000370: d4e6 32bc 66c4 98bc 0965 65be 7a63 523e
00000380: 21b3 3f3d 37d7 05be 583c 3ebe 8d9c 5e3c
00000390: 1100 65bd fb60 63bd 341e 2a3d af6c 203e
000003a0: 509a c33c 0683 5dbe 520c cbbd 6bb1 93be
000003b0: c9f8 2dbe 3d5d e9bd c371 1fbd 4213 26be
000003c0: 64a9 8cbe 978b c13e a700 3bbd 309b 363c
000003d0: 4ae9 8f3c 8833 58be bef6 083e 388f 053e
000003e0: e6de c0bd c63d d7bb 2849 883e 2bc4 81be
000003f0: 7e69 73be b247 28bf 9d9a 20be 578a 41bd

sequential_1/dense_1/MatMul f4 [100, 10]
0.9314032 0.3163015 0.32037255 -0.06560059 -0.13963519 0.07946168 0.38587758 -0.16586941
0.20855002 0.0014638357 -1.2820011 0.0020581612 0.42025456 0.050684467 0.10162491 0.25355065
-0.684605 -0.11757343 -0.078845076 -0.29612622 0.3510826 -0.44368616 0.04421886 0.1858433
-0.26985815 -0.14723699 -0.1509952 -0.10051581 0.12665206 0.1844245 0.20915799 -0.59328055
0.55773354 0.23072612 -0.20881723 -0.11277537 0.2639529 0.25546563 -0.29565784 -0.005394163
0.14984311 0.30339032 -1.562746 -0.007454061 0.029795421 0.026676103 0.065284796 -0.498379
0.15515293 0.048246738 0.39349446 0.4171871 -0.10520104 -0.19046926 -0.10911222 0.094678715
-0.256947 0.14554977 0.26604965 -0.012939768 0.27978432 0.32052 1.0503892 0.0028963776
-0.25277627 0.19686522 0.32769805 -0.1927409 0.09689722 0.11215366 0.25246963 0.014932097
-1.2009035 -0.17903116 0.044254083 -0.33921018 -0.11956512 0.11425575 0.29313532 0.17201865
-0.013287634 -0.054650906 0.09687617 -0.05855386 -0.14775229 -0.013636664 -0.21932267 0.017720075
-0.08436636 -0.04962872 -0.6597746 -0.62449044 1.4148414 0.06961794 -0.118772596 -0.06310254
0.36823526 0.047740407 -0.3022595 0.11593848 -0.46591154 0.32928488 -1.4181113 -0.24894631
0.08699583 0.1613522 -0.37014598 -0.26641244 0.13968237 0.045543984 0.16135837 0.03873818
0.9812375 -0.16204499 -0.11937129 0.031856906 -0.13060616 0.4520244 0.011053564 -0.00073109096
-0.5741254 -0.35892332 0.61009157 -0.6059336 -0.0036524022 0.018481592 0.21923515 0.09312846
-0.445881 0.15430571 0.48996332 -0.04422512 -1.2665095 0.17679666 0.114754215 -0.37779048
0.20865676 -0.0718865 -0.13506678 -0.15938175 -0.3750577 -0.6228947 -0.24971218 -0.2875564
-0.14994082 -0.16352384 -0.13042353 -0.024204945 0.15899034 0.0559569 0.17891274 -0.12587775
-0.0750575 0.020654786 -0.03465402 -0.03458388 0.0066792523 -0.09118116 -0.16170153 0.012408179
0.19384348 0.16180198 0.759248 -0.21942005 -0.12429833 0.16036765 -0.03413193 0.4524555
-0.3739528 0.045794163 -0.15495709 -0.01968815 -1.4917592 -0.065538004 0.01360609 0.23099047
0.37560862 -0.2653717 -0.28854606 -0.014074752 -0.23661163 -0.38905874 -0.48460302 -0.1258112
-0.25497487 -0.22656271 0.25107658 -0.073951595 0.20280874 -0.026209356 0.0926427 -0.104983136
-0.5575658 0.3793236 -0.21195161 -0.4338378 0.023892146 0.15794297 -0.25636986 0.012384945
0.23395282 -0.07956006 -0.11852884 0.09852617 0.15411586 -0.49882427 0.10026237 -0.38041925
0.11182428 -0.30861375 -0.48604408 -0.86284703 -0.2738931 -0.3819012 -0.26189014 0.14403076
0.10557651 0.2483617 0.22170155 0.013157775 -0.6497327 -0.024440639 0.45063406 0.0765577
0.011081038 -0.062122196 0.12878685 -0.35293764 -0.14317277 0.024147576 -0.21924287 -0.3266346
0.7027393 -0.50296855 -0.18941502 0.16378444 0.19996485 -0.2203736 0.35318312 0.06904781
-0.9624466 -0.0137217445 -0.8429407 -0.09082322 -0.0001177699 0.27429292 0.017124524 -0.042726137
0.05897394 -0.057954125 0.015220371 -0.31758633 0.7564052 -0.08352652 -0.0042061815 -0.07648164
00000000: 7170 6e3f 45f2 a13e df07 a43e 9a59 86bd
00000010: 87fc 0ebe cebc a23d bf91 c53e acd9 29be
00000020: 238e 553e 2dde bf3a 9d18 a4bf 37e2 063b
00000030: 9b2b d73e 849a 4f3d b920 d03d 64d1 813e
00000040: 4642 2fbf 57ca f0bd 8779 a1bd db9d 97be
00000050: 19c1 b33e d52a e3be d61e 353d b54d 3e3e
00000060: d92a 8abe 4bc5 16be 7c9e 1abe 3cdb cdbd
00000070: 14b1 013e c7d9 3c3e 832d 563e 3ce1 17bf
00000080: a0c7 0e3f 7843 6c3e 2fd4 55be c6f6 e6bd
00000090: d624 873e 64cc 823e 7760 97be 85c1 b0bb
000000a0: 7970 193e fa55 9b3e 1008 c8bf 3241 f4bb
000000b0: 8715 f43c d887 da3c 09b4 853d 882b ffbe
000000c0: 69e0 1e3e 5f9e 453d 1b78 c93e 8c99 d53e
000000d0: a573 d7bd 600a 43be 3a76 dfbd eae6 c13d
000000e0: 8f8e 83be 000b 153e a937 883e 5201 54bc
000000f0: e43f 8f3e 331b a43e 2773 863f 27d1 3d3b
00000100: e46b 81be 0997 493e 0ac8 a73e df5d 45be
00000110: 0d72 c63d d1b0 e53d b343 813e c1a5 743c
00000120: 35b7 99bf f253 37be c543 353d f5ac adbe
00000130: 8fde f4bd ebfe e93d d515 963e a825 303e
00000140: 60b4 59bc a1d9 5fbd 0367 c63d 2cd6 6fbd
00000150: 604c 17be 506c 5fbc 1f96 60be b129 913c
00000160: 45c8 acbd 7c47 4bbd fde6 28bf 9bde 1fbf
00000170: 8619 b53f da93 8e3d 0c3f f3bd e83b 81bd
00000180: 5589 bc3e 728b 433d c2c1 9abe 2771 ed3d
00000190: f58b eebe 0798 a83e ac84 b5bf c8eb 7ebe
000001a0: df2a b23d 8339 253e c683 bdbe 3667 88be
000001b0: e508 0f3e 548c 3a3d 213b 253e edab 1e3d
000001c0: 6132 7b3f 1fef 25be ef78 f4bd 637c 023d
000001d0: 9fbd 05be be6f e73e 021a 353c afa6 3fba
000001e0: e2f9 12bf ccc4 b7be f62e 1c3f 771e 1bbf
000001f0: 245d 6fbb b566 973c 2e7f 603e 22ba be3d
00000200: 844a e4be 5102 1e3e 79dc fa3e 6625 35bd
00000210: fc1c a2bf 2f0a 353e 4204 eb3d c16d c1be
00000220: 1eaa 553e 3b39 93bd f24e 0abe f834 23be
00000230: 9007 c0be 0776 1fbf 8db4 7fbe 983a 93be
00000240: 168a 19be cb72 27be bf8d 05be 7349 c6bc
00000250: 5dce 223e 1033 653d e734 373e 19e6 00be
00000260: bfb7 99bd 3a34 a93c 60f1 0dbd d4a7 0dbd
00000270: a1dd da3b 30bd babd 1695 25be ad4b 4b3c
00000280: e87e 463e 6baf 253e 145e 423f a6af 60be
00000290: 1f90 febd 6b37 243e eccd 0bbd 3fa8 e73e
000002a0: be76 bfbe a992 3b3d 12ad 1ebe 0b49 a1bc
000002b0: f7f1 bebf ca38 86bd 14ec 5e3c c488 6c3e
000002c0: c64f c03e cdde 87be 4fbc 93be ca99 66bc
000002d0: 524a 72be b532 c7be e31d f8be a7d4 00be
000002e0: 118c 82be 0e00 68be 1c8d 803e ef73 97bd
000002f0: 18ad 4f3e 01b5 d6bc 75bb bd3d 6601 d7bd
00000300: a2bc 0ebf b436 c23e d809 59be fd1f debe
00000310: 76b9 c33c cdbb 213e e942 83be 39ea 4a3c
00000320: 5491 6f3e 62f0 a2bd 40bf f2bd 17c8 c93d
00000330: 8cd0 1d3e e565 ffbe 5c56 cd3d 50c6 c2be
00000340: 2104 e53d 9f02 9ebe c5da f8be 8be3 5cbf
00000350: b73b 8cbe 8e88 c3be 7716 86be cd7c 133e
00000360: 7f38 d83d 8852 7e3e bb05 633e b593 573c
00000370: e254 26bf bc37 c8bc 82b9 e63e 49ca 9c3d
00000380: 3e8d 353c d873 7ebd b3e0 033e 3eb4 b4be
00000390: e29b 12be 23d1 c53c 3481 60be a63c a7be
000003a0: b9e6 333f 8cc2 00bf 03f6 41be 1cb7 273e
000003b0: 96c3 4c3e 9ea9 61be 6bd4 b43e f068 8d3d
000003c0: e662 76bf 2bd1 60bc f6ca 57bf 8601 babd
000003d0: 3cfb f6b8 1f70 8c3e bb48 8c3c 9a01 2fbd
000003e0: a88e 713d 4e61 6dbd dd5e 793c ad9a a2be
000003f0: c5a3 413f f40f abbd 02d4 89bb 68a2 9cbd

sequential_1/dense_1/Relu;sequential_1/dense_1/BiasAdd f4 [100]
-0.16929053 0.13397165 0.037093095 0.110408895 -0.11800882 -0.15545233 -0.21164447 -0.106333144
-0.011779418 0.28136384 0.11756686 -0.1040757 0.1481143 0.20600851 0.18033221 -0.17456491
-0.05947834 -0.083424404 0.10699867 0.037015654 0.096890725 0.1047111 0.024246989 -0.067867264
0.034163453 -0.11122858 -0.07586379 -0.044077408 0.058789145 -0.013682127 0.06092116 0.006401
-0.013371901 0.10158405 -0.04998807 0.013555313 0.039376523 -0.016938888 0.05818958 -0.16732092
-0.051750198 0.05945092 -0.12578437 0.0 -0.22486186 -0.10963361 -0.073584326 -0.045617048
-0.00957093 0.039177395 0.09874235 -0.052378364 0.04406333 0.06298328 -0.15952073 0.020907355
-0.4131307 0.17970486 -0.040758114 0.075049 -0.0049641402 0.0 -0.11751566 -0.12501897
-0.0059939465 0.024876146 -0.013844735 0.0 0.056304596 -0.25181004 -0.103395835 -0.015345199
-0.05135916 -0.059283108 0.0117880115 0.08481027 -0.06831102 0.0 0.05954773 0.03204597
-0.059768304 -0.01966125 0.034259547 -0.11694341 0.0 0.058787458 -0.051429093 -0.023381572
-0.09969585 -0.12178046 0.04306664 0.0018732867 -0.0016057618 -0.16439636 -0.054140367 0.03562632
-0.0033440273 0.011602775 -0.1743287 0.026708437
00000000: 7f5a 2dbe dd2f 093e eeee 173d 0f1e e23d
00000010: 9cae f1bd e52e 1fbe 54b9 58be 31c5 d9bd
00000020: 76fe 40bc ec0e 903e e5c6 f03d a425 d5bd
00000030: 46ab 173e e5f3 523e 02a9 383e 25c1 32be
00000040: 8f9f 73bd 6ada aabd 1e22 db3d ba9d 173d
00000050: a56e c63d c672 d63d 9fa1 c63c fefd 8abd
00000060: faee 0b3d cfcb e3bd 7a5e 9bbd 838a 34bd
00000070: e3cc 703d 002b 60bc 7788 793d 7bbf d13b
00000080: d115 5bbc 4c0b d03d 4ac0 4cbd 1b17 5e3c
00000090: 4749 213d 6cc3 8abc 3258 6e3d 2d56 2bbe
000000a0: 04f8 53bd cf82 733d 9ecd 00be 0000 0000
000000b0: 3042 66be 9687 e0bd 61b3 96bd f1d8 3abd
000000c0: 64cf 1cbc 7a78 203d 6e39 ca3d b28a 56bd
000000d0: c07b 343d 61fd 803d 6759 23be e745 ab3c
000000e0: de85 d3be 8d04 383e fbf1 26bd 4ab3 993d
000000f0: 3aaa a2bb 0000 0000 0dac f0bd f904 00be
00000100: de68 c4bb 0fc9 cb3c 07d5 62bc 0000 0000
00000110: a69f 663d 3fed 80be 32c1 d3bd 6e6a 7bbc
00000120: fc5d 52bd d8d2 72bd 8122 413c 02b1 ad3d
00000130: a6e6 8bbd 0000 0000 52e8 733d a342 033d
00000140: 9ccf 74bd a110 a1bc bd53 0c3d 0780 efbd
00000150: 0000 0000 1ecb 703d 50a7 52bd b68a bfbc
00000160: 562d ccbd 0968 f9bd a566 303d 1289 f53a
00000170: 6d78 d2ba 8557 28be 4ac2 5dbd e7ec 113d
00000180: 7827 5bbb 9119 3e3c 3983 32be a7cb da3c
