HW4/Q1/mlp_har_int8.tflite (tflite, 19760 bytes, 3 tensors)

tfl.pseudo_qconst1 i1 [6, 100]
-18 -21 -51 -60 56 22 -39 24
4 -10 -26 53 23 20 56 16
-11 30 6 74 -16 33 10 -73
17 32 1 -59 -82 -8 -18 10
41 19 13 46 21 -2 5 -14
-93 -68 -17 -21 14 44 -100 -34
3 -41 0 -22 -77 -49 -9 -127
-5 -14 -16 13 -23 9 -64 -41
-56 -47 -9 -4 22 75 -81 -67
-54 -46 -40 -79 -21 16 5 5
-67 36 22 74 -11 15 -28 -36
44 65 -119 -53 -14 -84 -72 36
22 11 24 6 13 19 -31 -9
-27 -25 8 -72 2 24 -37 45
-68 -7 -46 -74 20 -52 -42 -31
33 -45 22 -18 -18 -36 11 13
2 -74 33 17 35 16 15 -16
-13 -34 8 12 15 -68 -39 -21
-26 -55 -38 25 15 55 -102 -47
-35 20 20 22 10 -25 6 -44
-22 8 -2 -32 -7 -19 -72 -54
-48 -4 36 34 -69 -56 29 -8
-22 11 -127 -11 20 3 13 -107
-19 -57 -23 25 -30 -37 -16 40
-29 -90 -42 10 4 -15 -16 18
-59 -23 -67 -100 26 -7 -27 37
-18 -103 33 -24 8 -30 -87 -10
-4 -98 32 -63 4 18 9 66
-24 -19 -26 -79 25 -14 -48 -13
2 6 -51 -43 -19 -40 -38 -16
-31 6 -49 7 -25 -3 64 -32
0 -23 20 -127 -81 39 -21 8
00000000: eeeb cdc4 3816 d918 04f6 e635 1714 3810
00000010: f51e 064a f021 0ab7 1120 01c5 aef8 ee0a
00000020: 2913 0d2e 15fe 05f2 a3bc efeb 0e2c 9cde
00000030: 03d7 00ea b3cf f781 fbf2 f00d e909 c0d7
00000040: c8d1 f7fc 164b afbd cad2 d8b1 eb10 0505
00000050: bd24 164a f50f e4dc 2c41 89cb f2ac b824
00000060: 160b 1806 0d13 e1f7 e5e7 08b8 0218 db2d
00000070: bcf9 d2b6 14cc d6e1 21d3 16ee eedc 0b0d
00000080: 02b6 2111 2310 0ff0 f3de 080c 0fbc d9eb
00000090: e6c9 da19 0f37 9ad1 dd14 1416 0ae7 06d4
000000a0: ea08 fee0 f9ed b8ca d0fc 2422 bbc8 1df8
000000b0: ea0b 81f5 1403 0d95 edc7 e919 e2db f028
000000c0: e3a6 d60a 04f1 f012 c5e9 bd9c 1af9 e525
000000d0: ee99 21e8 08e2 a9f6 fc9e 20c1 0412 0942
000000e0: e8ed e6b1 19f2 d0f3 0206 cdd5 edd8 daf0
000000f0: e106 cf07 e7fd 40e0 00e9 1481 af27 eb08

tfl.pseudo_qconst3 i1 [100, 100]
32 58 -2 -19 -12 23 2 21
-27 -16 4 -13 -1 4 -14 24
14 4 -9 20 -9 26 -5 -13
-15 -19 6 -3 -27 -68 7 49
10 24 -23 -34 42 -10 28 44
-17 83 10 -7 14 28 -65 70
22 16 3 7 -4 -77 3 -14
8 -15 0 -18 -31 10 14 23
16 25 -5 -23 13 10 -23 11
-1 8 -70 -11 14 -1 -82 -127
-87 -6 -16 7 -27 86 -29 26
-30 19 41 11 -10 18 -56 16
-2 -49 66 104 50 -1 62 72
29 -48 15 26 6 83 16 -72
71 9 27 22 -13 43 3 19
-36 -45 -1 39 -11 -10 -18 -90
-79 -39 -43 -7 10 30 -51 1
-84 -21 -37 -14 11 61 -9 -4
-65 -113 -1 -12 -7 3 6 -30
-36 18 -44 -35 -51 64 18 37
-17 -15 26 -73 -24 14 3 -18
104 5 -39 36 -73 -2 18 19
-18 -29 -13 -83 -127 27 -37 -47
0 9 -7 -26 -21 36 18 -26
6 37 28 16 -18 -22 -99 14
-5 8 -9 -37 4 -9 10 15
3 -127 -27 -20 -40 -11 -4 18
-28 8 -18 -12 -2 -3 -37 34
8 -22 -31 2 -9 -9 7 26
4 -36 -16 -48 -28 -19 -6 -27
-45 63 -8 2 3 -35 22 22
-16 -1 44 -42 -39 -109 -26 -8
00000000: 203a feed f417 0215 e5f0 04f3 ff04 f218
00000010: 0e04 f714 f71a fbf3 f1ed 06fd e5bc 0731
00000020: 0a18 e9de 2af6 1c2c ef53 0af9 0e1c bf46
00000030: 1610 0307 fcb3 03f2 08f1 00ee e10a 0e17
00000040: 1019 fbe9 0d0a e90b ff08 baf5 0eff ae81
00000050: a9fa f007 e556 e31a e213 290b f612 c810
00000060: fecf 4268 32ff 3e48 1dd0 0f1a 0653 10b8
00000070: 4709 1b16 f32b 0313 dcd3 ff27 f5f6 eea6
00000080: b1d9 d5f9 0a1e cd01 aceb dbf2 0b3d f7fc
00000090: bf8f fff4 f903 06e2 dc12 d4dd cd40 1225
000000a0: eff1 1ab7 e80e 03ee 6805 d924 b7fe 1213
000000b0: eee3 f3ad 811b dbd1 0009 f9e6 eb24 12e6
000000c0: 0625 1c10 eeea 9d0e fb08 f7db 04f7 0a0f
000000d0: 0381 e5ec d8f5 fc12 e408 eef4 fefd db22
000000e0: 08ea e102 f7f7 071a 04dc f0d0 e4ed fae5
000000f0: d33f f802 03dd 1616 f0ff 2cd6 d993 e6f8

tfl.pseudo_qconst5 i1 [100, 10]
127 43 44 -9 -19 11 53 -23
28 0 -127 0 42 5 10 25
-68 -12 -8 -29 100 -127 13 53
-77 -42 -43 -29 36 53 45 -127
119 49 -45 -24 57 55 -63 -1
12 25 -127 -1 2 2 5 -41
13 4 120 127 -32 -58 -33 29
-78 44 81 -4 34 39 127 0
-31 24 40 -23 12 14 27 2
-127 -19 5 -36 -13 12 31 18
-8 -32 56 -34 -86 -8 -127 10
-49 -29 -59 -56 127 6 -11 -6
33 4 -27 10 -42 29 -127 -22
8 14 -33 -24 13 4 21 5
127 -21 -15 4 -17 59 1 0
-120 -75 127 -126 -1 4 46 19
-93 32 49 -4 -127 18 12 -38
21 -7 -14 -16 -76 -127 -51 -59
-31 -33 -27 -5 32 11 127 -89
-53 15 -25 -25 5 -65 -115 9
32 27 127 -37 -21 27 -6 76
-63 8 -13 -2 -127 -6 1 20
32 -23 -25 -1 -62 -102 -127 -33
-67 -59 66 -19 53 -7 21 -24
-127 86 -48 -99 5 36 -58 3
60 -20 -30 25 39 -127 26 -97
28 -79 -72 -127 -40 -56 -39 21
16 37 33 2 -127 -5 88 15
2 -12 25 -69 -28 5 -40 -59
127 -91 -34 30 36 -40 64 12
-127 -2 -111 -12 0 36 2 -6
8 -8 3 -53 127 -14 -1 -13
00000000: 7f2b 2cf7 ed0b 35e9 1c00 8100 2a05 0a19
00000010: bcf4 f8e3 6481 0d35 b3d6 d5e3 2435 2d81
00000020: 7731 d3e8 3937 c1ff 0c19 81ff 0202 05d7
00000030: 0d04 787f e0c6 df1d b22c 51fc 2227 7f00
00000040: e118 28e9 0c0e 1b02 81ed 05dc f30c 1f12
00000050: f8e0 38de aaf8 810a cfe3 c5c8 7f06 f5fa
00000060: 2104 e50a d61d 81ea 080e dfe8 0d04 1505
00000070: 7feb f104 ef3b 0100 88b5 7f82 ff04 2e13
00000080: a320 31fc 8112 0cda 15f9 f2f0 b481 cdc5
00000090: e1df e5fb 200b 7fa7 cb0f e7e7 05bf 8d09
000000a0: 201b 7fdb eb1b fa4c c108 f3fe 81fa 0114
000000b0: 20e9 e7ff c29a 81df bdc5 42ed 35f9 15e8
000000c0: 8156 d09d 0524 c603 3cec e219 2781 1a9f
000000d0: 1cb1 b881 d8c8 d915 1025 2102 81fb 580f
000000e0: 02f4 19bb e405 d8c5 7fa5 de1e 24d8 400c
000000f0: 81fe 91f4 0024 02fa 08f8 03cb 7ff2 fff3
