HW5/Q4/temperature_model_int8.tflite (tflite, 2872 bytes, 3 tensors)

tfl.pseudo_qconst1 i1 [1, 10] scale=0.017905418 zero_point=0
1.7368256 0.5908788 0.26858127 -0.17905417 -0.5192571 -0.68040586 0.07162167 2.273988
0.84155464 -0.5908788
00000000: 6121 0ff6 e3da 047f 2fdf

tfl.pseudo_qconst3 i1 [10, 10]
15 27 60 40 22 -22 92 127
-44 -39 -21 55 127 61 -68 76
4 -30 -77 24 -27 -117 -83 -62
-35 15 -11 127 52 -16 84 38
-5 -95 95 119 -127 -29 -60 -101
38 -120 74 51 39 -98 127 -64
47 -29 55 -93 85 96 -127 78
108 60 -107 -87 -2 -39 105 8
127 -127 88 -19 56 -38 -19 103
66 122 -60 -7 127 66 -87 11
98 -58 -46 -73 -104 -35 107 127
14 108 -36 -60 -57 12 7 68
-16 53 127 -11
00000000: 0f1b 3c28 16ea 5c7f d4d9 eb37 7f3d bc4c
00000010: 04e2 b318 e58b adc2 dd0f f57f 34f0 5426
00000020: fba1 5f77 81e3 c49b 2688 4a33 279e 7fc0
00000030: 2fe3 37a3 5560 814e 6c3c 95a9 fed9 6908
00000040: 7f81 58ed 38da ed67 427a c4f9 7f42 a90b
00000050: 62c6 d2b7 98dd 6b7f 0e6c dcc4 c70c 0744
00000060: f035 7ff5

tfl.pseudo_qconst5 i1 [10, 5]
81 -98 126 64 -127 -30 21 90
-87 127 117 -65 -10 -116 127 127
-1 -36 -93 42 -113 -127 109 -29
-2 2 62 -49 103 -127 -19 30
-32 -24 127 -62 32 -96 8 127
36 17 60 -26 -127 -112 122 42
-127 -56
00000000: 519e 7e40 81e2 155a a97f 75bf f68c 7f7f
00000010: ffdc a32a 8f81 6de3 fe02 3ecf 6781 ed1e
00000020: e0e8 7fc2 20a0 087f 2411 3ce6 8190 7a2a
00000030: 81c8
