HW6/efficientNet/tiny_efficientnet_mnist_int8.tflite (tflite, 34576 bytes, 20 tensors)

tfl.pseudo_qconst1 i1 [10, 32]
000000 d4 a8 8d 49 31 cc ec df ed f5 b6 23 b8 7a f4 ee
       -44 -88 -115 73 49 -52 -20 -33 -19 -11 -74 35 -72 122 -12 -18
000010 2a 6d c1 d5 0a ab 7f ea 98 f5 e6 b3 2f cc 5d 0f
       42 109 -63 -43 10 -85 127 -22 -104 -11 -26 -77 47 -52 93 15
000020 5c 18 4e 8a ca 06 e0 b4 e1 d1 34 8e 03 c2 72 7d
       92 24 78 -118 -54 6 -32 -76 -31 -47 52 -114 3 -62 114 125
000030 22 ea ea 50 f1 d8 1d 28 41 01 55 0a 81 c3 16 76
       34 -22 -22 80 -15 -40 29 40 65 1 85 10 -127 -61 22 118
000040 f0 4b 4c ea ba 13 11 25 d5 05 c8 12 7f 52 15 d5
       -16 75 76 -22 -70 19 17 37 -43 5 -56 18 127 82 21 -43
000050 a4 95 16 a7 18 5e 1d 44 b6 b4 c4 cb 2f ea 43 a8
       -92 -107 22 -89 24 94 29 68 -74 -76 -60 -53 47 -22 67 -88
000060 fc eb f7 dc 90 bf 48 d6 66 52 00 af 02 d7 f8 da
       -4 -21 -9 -36 -112 -65 72 -42 102 82 0 -81 2 -41 -8 -38
000070 a7 b9 e2 0c 27 6f 98 f0 16 13 f8 7f e6 15 bb 51
       -89 -71 -30 12 39 111 -104 -16 22 19 -8 127 -26 21 -69 81
000080 12 4d 0d 78 16 37 8f a3 a0 d7 27 bd 86 97 f7 b6
       18 77 13 120 22 55 -113 -93 -96 -41 39 -67 -122 -105 -9 -74
000090 7f d9 9c 1f ad bd 90 68 e2 56 55 92 49 c0 fb de
       127 -39 -100 31 -83 -67 -112 104 -30 86 85 -110 73 -64 -5 -34
0000a0 5a 7f b8 a8 c3 dd 53 c3 32 c4 b8 f4 d2 9e b6 e4
       90 127 -72 -88 -61 -35 83 -61 50 -60 -72 -12 -46 -98 -74 -28
0000b0 ba a4 38 cf 03 eb 7d c4 ca 16 f1 f4 b0 23 a6 d4
       -70 -92 56 -49 3 -21 125 -60 -54 22 -15 -12 -80 35 -90 -44
0000c0 02 43 b8 01 2a c5 d4 b3 37 c6 10 3f b8 39 f7 63
       2 67 -72 1 42 -59 -44 -77 55 -58 16 63 -72 57 -9 99
0000d0 9c 20 8f e3 24 bc 48 79 75 c1 1c 18 81 90 fe 93
       -100 32 -113 -29 36 -68 72 121 117 -63 28 24 -127 -112 -2 -109
0000e0 fc 81 d7 e4 a2 0b d2 38 8c 20 1e 02 6a b0 dd 37
       -4 -127 -41 -28 -94 11 -46 56 -116 32 30 2 106 -80 -35 55
0000f0 4a eb 43 52 f5 f2 4f 05 a2 5b d2 b1 1e a7 61 5a
       74 -21 67 82 -11 -14 79 5 -94 91 -46 -79 30 -89 97 90

tfl.pseudo_qconst3 i1 [32, 16]
000000 77 8d 99 31 a7 81 76 37 8d 55 78 26 de 57 f4 ff
       119 -115 -103 49 -89 -127 118 55 -115 85 120 38 -34 87 -12 -1
000010 ce 05 a9 c8 01 9c fa ca dc 63 33 35 4d 7f 2c 59
       -50 5 -87 -56 1 -100 -6 -54 -36 99 51 53 77 127 44 89
000020 02 58 20 f0 1a b2 c4 0c 9c 45 81 7b 0c 14 2c 7d
       2 88 32 -16 26 -78 -60 12 -100 69 -127 123 12 20 44 125
000030 20 bf 5c 8d 7a b8 bf 81 48 ce b1 fd 72 45 57 f1
       32 -65 92 -115 122 -72 -65 -127 72 -50 -79 -3 114 69 87 -15
000040 ca 8d 76 0b 6a dd 83 bb 6d ef 02 f7 7f 6f 04 54
       -54 -115 118 11 106 -35 -125 -69 109 -17 2 -9 127 111 4 84
000050 54 7b 2a 0f 3b ac 1a bd 3a 28 81 6a e9 be 46 70
       84 123 42 15 59 -84 26 -67 58 40 -127 106 -23 -66 70 112
000060 f1 bc fa 91 9b fb a3 3e 86 63 d1 bd f6 7f cb bb
       -15 -68 -6 -111 -101 -5 -93 62 -122 99 -47 -67 -10 127 -53 -69
000070 c1 7f 2d c0 53 c6 ed 54 d3 4e c5 d5 d5 2c 56 48
       -63 127 45 -64 83 -58 -19 84 -45 78 -59 -43 -43 44 86 72
000080 9a 81 a4 20 e5 d7 f8 50 99 ea 56 a1 a4 50 04 d6
       -102 -127 -92 32 -27 -41 -8 80 -103 -22 86 -95 -92 80 4 -42
000090 e8 29 28 fd bc 6b c3 4a d7 1e 81 cb b0 1c dd f2
       -24 41 40 -3 -68 107 -61 74 -41 30 -127 -53 -80 28 -35 -14
0000a0 45 57 ef 51 fe 81 78 b2 1e c2 e1 32 55 da 33 5c
       69 87 -17 81 -2 -127 120 -78 30 -62 -31 50 85 -38 51 92
0000b0 b5 e0 e3 a3 fe 4a 81 8e 20 a5 59 bd 57 39 b5 39
       -75 -32 -29 -93 -2 74 -127 -114 32 -91 89 -67 87 57 -75 57
0000c0 d9 15 2b 14 87 b1 96 6b ab e2 99 24 10 be 7f f9
       -39 21 43 20 -121 -79 -106 107 -85 -30 -103 36 16 -66 127 -7
0000d0 04 b7 4f ed f4 05 81 07 ef a2 f7 cb 8f 21 60 64
       4 -73 79 -19 -12 5 -127 7 -17 -94 -9 -53 -113 33 96 100
0000e0 40 3c 22 3d 4e 38 40 12 a3 c1 63 39 7f ba 36 09
       64 60 34 61 78 56 64 18 -93 -63 99 57 127 -70 54 9
0000f0 d4 23 28 71 0e e5 dd 26 b1 f9 4c 1f c8 8b e8 7f
       -44 35 40 113 14 -27 -35 38 -79 -7 76 31 -56 -117 -24 127

tfl.pseudo_qconst5 i1 [16, 1, 1, 32]
000000 28 99 32 c2 ae c1 ca e9 22 7f c6 84 c8 c4 e7 ac
       40 -103 50 -62 -82 -63 -54 -23 34 127 -58 -124 -56 -60 -25 -84
000010 e1 4f 2f 08 2a e2 f8 1a 47 aa 4f 34 5a 1f e7 87
       -31 79 47 8 42 -30 -8 26 71 -86 79 52 90 31 -25 -121
000020 14 a3 d8 19 03 35 d4 2a e2 c1 f8 b7 e3 09 5d cd
       20 -93 -40 25 3 53 -44 42 -30 -63 -8 -73 -29 9 93 -51
000030 32 0c 25 4c e2 b6 ed fa 26 1c 7f ff 07 41 1b ef
       50 12 37 76 -30 -74 -19 -6 38 28 127 -1 7 65 27 -17
000040 2c 7f 2e 0b 08 d8 cf ed 4b 03 ec eb 05 c8 3a de
       44 127 46 11 8 -40 -49 -19 75 3 -20 -21 5 -56 58 -34
000050 02 ae 4a 52 d4 ca d6 ec 48 d1 58 33 32 47 28 49
       2 -82 74 82 -44 -54 -42 -20 72 -47 88 51 50 71 40 73
000060 7a 29 19 49 b5 7d f6 0a 3b 70 a4 f9 b8 29 b4 24
       122 41 25 73 -75 125 -10 10 59 112 -92 -7 -72 41 -76 36
000070 c4 35 a8 08 86 6e 4e 7f 63 ad 9f 75 ed ba 0f ae
       -60 53 -88 8 -122 110 78 127 99 -83 -97 117 -19 -70 15 -82
000080 ef 0a 1c fe 91 c6 67 a5 4f f7 21 35 3a 0c 06 da
       -17 10 28 -2 -111 -58 103 -91 79 -9 33 53 58 12 6 -38
000090 db da 0c 23 4f 2f a1 03 29 99 5a 7f 2c ca d1 b9
       -37 -38 12 35 79 47 -95 3 41 -103 90 127 44 -54 -47 -71
0000a0 e7 13 e6 11 3b 0c 52 cd bc d8 b8 2f 3b b8 bd d9
       -25 19 -26 17 59 12 82 -51 -68 -40 -72 47 59 -72 -67 -39
0000b0 11 d8 04 e4 cb 2f 0a e8 4d 2b d7 e8 f6 14 54 7f
       17 -40 4 -28 -53 47 10 -24 77 43 -41 -24 -10 20 84 127
0000c0 5b 36 9d 4a ed 7f 26 9a 4e 34 84 d6 d1 b0 65 dd
       91 54 -99 74 -19 127 38 -102 78 52 -124 -42 -47 -80 101 -35
0000d0 07 f8 a7 17 19 5e 45 d2 f6 23 dc 0a b2 cf ca c2
       7 -8 -89 23 25 94 69 -46 -10 35 -36 10 -78 -49 -54 -62
0000e0 2c 9d 1e b6 0d 27 fe 46 18 1a fa 1a 43 44 c9 f7
       44 -99 30 -74 13 39 -2 70 24 26 -6 26 67 68 -55 -9
0000f0 64 36 ff 95 bb 81 5b d7 39 47 22 ab 32 c6 e9 34
       100 54 -1 -107 -69 -127 91 -41 57 71 34 -85 50 -58 -23 52

tfl.pseudo_qconst7 i1 [1, 3, 3, 32]
000000 7f 90 1a 7f 39 24 81 28 c8 aa 59 39 19 8d 81 29
       127 -112 26 127 57 36 -127 40 -56 -86 89 57 25 -115 -127 41
000010 2b 9d 4c 81 74 81 50 79 ab b7 66 d8 43 81 8b 98
       43 -99 76 -127 116 -127 80 121 -85 -73 102 -40 67 -127 -117 -104
000020 4c 2f 10 2b 51 30 be f6 fe cd 2c 60 1e b7 d2 15
       76 47 16 43 81 48 -66 -10 -2 -51 44 96 30 -73 -46 21
000030 05 c8 0b 2a 39 c2 66 35 e0 81 43 ea 3a aa e3 26
       5 -56 11 42 57 -62 102 53 -32 -127 67 -22 58 -86 -29 38
000040 e6 16 1d 29 ff 6c d3 3f b0 ce 3b 7f 0b 81 a5 13
       -26 22 29 41 -1 108 -45 63 -80 -50 59 127 11 -127 -91 19
000050 81 94 7f 89 49 a3 57 4c e2 e7 7f 88 57 c2 ee 57
       -127 -108 127 -119 73 -93 87 76 -30 -25 127 -120 87 -62 -18 87
000060 1e f4 da 5b 2b 24 9f 1a e0 f7 47 41 1f f6 95 09
       30 -12 -38 91 43 36 -97 26 -32 -9 71 65 31 -10 -107 9
000070 1e 46 4f 02 7f e4 7f 63 aa b0 4f 81 31 b0 e9 81
       30 70 79 2 127 -28 127 99 -86 -80 79 -127 49 -80 -23 -127
000080 4d f1 f5 fd 49 06 b2 18 2b eb 3f 5d fd 0d f5 01
       77 -15 -11 -3 73 6 -78 24 43 -21 63 93 -3 13 -11 1
000090 fe 7f eb d2 35 f5 f3 44 f2 ba 33 e6 23 20 fc 0f
       -2 127 -21 -46 53 -11 -13 68 -14 -70 51 -26 35 32 -4 15
0000a0 0c 0c df 47 f0 12 bd 16 c4 06 51 52 ee 0c be 81
       12 12 -33 71 -16 18 -67 22 -60 6 81 82 -18 12 -66 -127
0000b0 b9 46 4e a7 47 ce 5a 4e eb 01 78 c5 39 22 ea 65
       -71 70 78 -89 71 -50 90 78 -21 1 120 -59 57 34 -22 101
0000c0 56 81 e3 56 3c 39 8f a1 f5 87 7f 43 54 74 db 39
       86 -127 -29 86 60 57 -113 -95 -11 -121 127 67 84 116 -37 57
0000d0 21 b4 5a 1d 71 eb 1d 7f e2 9f 5d 06 40 22 1e a1
       33 -76 90 29 113 -21 29 127 -30 -97 93 6 64 34 30 -95
0000e0 77 c2 de 49 7f 3e b6 81 f5 d0 46 59 7f 34 02 8a
       119 -62 -34 73 127 62 -74 -127 -11 -48 70 89 127 52 2 -118
0000f0 c7 90 df 4e 44 00 1e 57 02 ca 2f 53 32 0c 02 cd
       -57 -112 -33 78 68 0 30 87 2 -54 47 83 50 12 2 -51

tfl.pseudo_qconst9 i1 [32, 1, 1, 16]
000000 a6 ae 0d ef fc ff c8 51 b5 7f 0c a4 b8 05 14 34
       -90 -82 13 -17 -4 -1 -56 81 -75 127 12 -92 -72 5 20 52
000010 16 ff aa 81 d2 cb 41 51 4e fd 78 ee 00 1d 7a d1
       22 -1 -86 -127 -46 -53 65 81 78 -3 120 -18 0 29 122 -47
000020 fe ef d0 1f 6c de ca 16 19 f5 09 02 7f ee 4d 22
       -2 -17 -48 31 108 -34 -54 22 25 -11 9 2 127 -18 77 34
000030 c0 10 c1 eb 2f cc 81 9b 33 bb 1a c9 06 5d b3 a4
       -64 16 -63 -21 47 -52 -127 -101 51 -69 26 -55 6 93 -77 -92
000040 51 f2 9f 97 0c df b7 81 17 92 bd 96 aa b3 d3 b1
       81 -14 -97 -105 12 -33 -73 -127 23 -110 -67 -106 -86 -77 -45 -79
000050 16 09 1a 30 70 b0 c0 3b 06 2e 81 5a 6e 11 31 18
       22 9 26 48 112 -80 -64 59 6 46 -127 90 110 17 49 24
000060 3f 4d 91 16 ef 3c a2 bf 3c df 0f 6e 7f ec 5e c2
       63 77 -111 22 -17 60 -94 -65 60 -33 15 110 127 -20 94 -62
000070 f5 81 d1 ba d5 1a 03 d3 c9 fc 7c c0 20 da 58 4b
       -11 -127 -47 -70 -43 26 3 -45 -55 -4 124 -64 32 -38 88 75
000080 db c0 08 9f 81 2b 77 1d 56 b2 8b 79 ad 07 e9 d9
       -37 -64 8 -97 -127 43 119 29 86 -78 -117 121 -83 7 -23 -39
000090 41 d5 04 39 23 bb 50 cc ef 3e 29 7f da 31 10 5f
       65 -43 4 57 35 -69 80 -52 -17 62 41 127 -38 49 16 95
0000a0 5d 36 9d a9 98 b3 a4 11 6a e2 a0 7f a6 f6 f8 30
       93 54 -99 -87 -104 -77 -92 17 106 -30 -96 127 -90 -10 -8 48
0000b0 b5 7f 8e 02 6c 45 7d d7 e4 dc 2b ad 37 e0 ad a0
       -75 127 -114 2 108 69 125 -41 -28 -36 43 -83 55 -32 -83 -96
0000c0 0c 3d 5f 38 93 35 26 cd 81 9c f5 1f 3f fe 0e fe
       12 61 95 56 -109 53 38 -51 -127 -100 -11 31 63 -2 14 -2
0000d0 dc 81 30 a5 3b ce 13 d5 b6 4f 03 15 3d ef fd 25
       -36 -127 48 -91 59 -50 19 -43 -74 79 3 21 61 -17 -3 37
0000e0 11 f1 19 81 af 64 9a e5 10 f5 02 ef dd 01 dc c1
       17 -15 25 -127 -81 100 -102 -27 16 -11 2 -17 -35 1 -36 -63
0000f0 93 06 e9 93 b2 7f 53 ad ff 30 d4 db 55 e6 94 4d
       -109 6 -23 -109 -78 127 83 -83 -1 48 -44 -37 85 -26 -108 77

tfl.pseudo_qconst11 i1 [16, 1, 1, 24]
000000 c8 21 1e b9 31 f3 d2 e4 bf 37 2f bb 62 55 f6 b0
       -56 33 30 -71 49 -13 -46 -28 -65 55 47 -69 98 85 -10 -80
000010 9c 12 d0 81 e9 4d d1 cf 05 48 9b ed 41 b5 d4 cb
       -100 18 -48 -127 -23 77 -47 -49 5 72 -101 -19 65 -75 -44 -53
000020 49 bf de 13 d2 f9 01 c0 16 bd 02 96 ea e3 81 ba
       73 -65 -34 19 -46 -7 1 -64 22 -67 2 -106 -22 -29 -127 -70
000030 d0 10 53 f8 79 6b ed 63 0e 09 ff 55 eb 29 0a 18
       -48 16 83 -8 121 107 -19 99 14 9 -1 85 -21 41 10 24
000040 b6 e2 04 d8 81 f1 fe b1 1f 7f 4a fe c2 96 a0 6b
       -74 -30 4 -40 -127 -15 -2 -79 31 127 74 -2 -62 -106 -96 107
000050 fa d7 8c ad 3a 3b 42 b6 4a ef 8e e7 0f 16 bd cd
       -6 -41 -116 -83 58 59 66 -74 74 -17 -114 -25 15 22 -67 -51
000060 4f 30 27 fc 64 ea d0 5f d2 44 e3 ec b5 de b7 fe
       79 48 39 -4 100 -22 -48 95 -46 68 -29 -20 -75 -34 -73 -2
000070 c5 28 fa 0f da 20 f1 81 e0 fa bb c7 51 e8 34 b0
       -59 40 -6 15 -38 32 -15 -127 -32 -6 -69 -57 81 -24 52 -80
000080 1a 2f d5 7f 4e c8 c8 b0 f7 c7 1a f5 31 c4 00 cf
       26 47 -43 127 78 -56 -56 -80 -9 -57 26 -11 49 -60 0 -49
000090 51 7f bb c1 a3 b2 90 33 b5 31 c4 cb 5b 55 05 03
       81 127 -69 -63 -93 -78 -112 51 -75 49 -60 -53 91 85 5 3
0000a0 00 5e a7 64 fd 47 e1 e7 36 4e 9a a3 19 3d 07 43
       0 94 -89 100 -3 71 -31 -25 54 78 -102 -93 25 61 7 67
0000b0 36 03 ce 08 7f 04 0e 02 dd c8 f0 f0 d9 13 e8 e6
       54 3 -50 8 127 4 14 2 -35 -56 -16 -16 -39 19 -24 -26
0000c0 6f b7 56 30 69 d5 0d 51 df 0a 16 5f c7 81 d9 0c
       111 -73 86 48 105 -43 13 81 -33 10 22 95 -57 -127 -39 12
0000d0 36 36 45 b2 9f 15 b2 67 de b6 fd ce f2 e9 fb fc
       54 54 69 -78 -97 21 -78 103 -34 -74 -3 -50 -14 -23 -5 -4
0000e0 21 4c 61 bd 7f e4 d7 af 16 e0 fa 47 ce 5f ad 23
       33 76 97 -67 127 -28 -41 -81 22 -32 -6 71 -50 95 -83 35
0000f0 d9 11 65 3f ac 0d ca df 27 48 2f 10 45 16 65 34
       -39 17 101 63 -84 13 -54 -33 39 72 47 16 69 22 101 52

tfl.pseudo_qconst13 i1 [1, 3, 3, 24]
000000 fa 51 7f 42 05 06 7f 22 20 81 0a 1b 59 f6 fe c9
       -6 81 127 66 5 6 127 34 32 -127 10 27 89 -10 -2 -55
000010 04 81 99 12 7d 35 16 b6 0a 7f 6e 63 a1 62 3d 3a
       4 -127 -103 18 125 53 22 -74 10 127 110 99 -95 98 61 58
000020 7f 16 b2 32 7f e7 10 bf fa 87 24 60 60 ad 35 81
       127 22 -78 50 127 -25 16 -65 -6 -121 36 96 96 -83 53 -127
000030 0a 5f 4b 7e ae 6f 75 a5 42 14 e4 d7 40 f5 47 27
       10 95 75 126 -82 111 117 -91 66 20 -28 -41 64 -11 71 39
000040 15 a2 81 66 7f e5 f3 b0 cc 46 4e 38 f4 7f 6a 23
       21 -94 -127 102 127 -27 -13 -80 -52 70 78 56 -12 127 106 35
000050 64 03 c0 26 4d 02 81 c4 29 89 e8 3e 64 65 6d e1
       100 3 -64 38 77 2 -127 -60 41 -119 -24 62 100 101 109 -31
000060 ee 39 15 3b 81 45 32 22 67 b8 10 2b 4b eb 9e 82
       -18 57 21 59 -127 69 50 34 103 -72 16 43 75 -21 -98 -126
000070 d2 2a 93 7f 79 3a 7f c4 f3 24 23 61 bc 2e 62 81
       -46 42 -109 127 121 58 127 -60 -13 36 35 97 -68 46 98 -127
000080 dc 33 bb 26 34 dc bf e0 1a c1 2e 6f 62 d6 28 89
       -36 51 -69 38 52 -36 -65 -32 26 -63 46 111 98 -42 40 -119
000090 81 15 2b 4e b0 5d f2 e3 7d ac aa 7f 28 e5 0f ef
       -127 21 43 78 -80 93 -14 -29 125 -84 -86 127 40 -27 15 -17
0000a0 ed 04 1b 0b 02 2f 3f 1a ba fb 1a 7f c9 65 3a c4
       -19 4 27 11 2 47 63 26 -70 -5 26 127 -55 101 58 -60
0000b0 66 c0 81 32 2e 81 00 70 81 1a 1f 44 13 08 69 30
       102 -64 -127 50 46 -127 0 112 -127 26 31 68 19 8 105 48
0000c0 03 1c 18 25 ea 40 22 98 12 f9 9d 25 30 cf b7 7f
       3 28 24 37 -22 64 34 -104 18 -7 -99 37 48 -49 -73 127
0000d0 b8 2e 69 5a c9 81 6d 11
       -72 46 105 90 -55 -127 109 17

tfl.pseudo_qconst15 i1 [24, 1, 1, 12]
000000 a9 6b 66 c5 18 1b 5d 4b 4e d0 ab 81 77 a5 7f 63
       -87 107 102 -59 24 27 93 75 78 -48 -85 -127 119 -91 127 99
000010 2d b8 67 b0 a4 f3 15 04 93 ca 65 5d 08 91 7f 14
       45 -72 103 -80 -92 -13 21 4 -109 -54 101 93 8 -111 127 20
000020 86 1f b1 6f 08 bc d9 06 81 86 0e b9 c5 bb 2c 42
       -122 31 -79 111 8 -68 -39 6 -127 -122 14 -71 -59 -69 44 66
000030 c8 f2 76 e8 07 f7 cf f8 7f 58 9c 17 61 81 3b 5f
       -56 -14 118 -24 7 -9 -49 -8 127 88 -100 23 97 -127 59 95
000040 67 af 16 bf 40 9b 10 d2 f2 be 63 5c 27 35 3e de
       103 -81 22 -65 64 -101 16 -46 -14 -66 99 92 39 53 62 -34
000050 db 7f 66 20 4b a0 a4 7f 93 c3 cc 03 04 d3 dc a4
       -37 127 102 32 75 -96 -92 127 -109 -61 -52 3 4 -45 -36 -92
000060 87 39 73 b9 0e ec e8 1b 7f e5 49 46 e9 49 0d 5a
       -121 57 115 -71 14 -20 -24 27 127 -27 73 70 -23 73 13 90
000070 81 bd 8e d2 20 b5 86 49 1e 04 fd 43 1f ed 7f 30
       -127 -67 -114 -46 32 -75 -122 73 30 4 -3 67 31 -19 127 48
000080 f0 48 cd d0 08 0a 4c c0 7f 06 93 76 d3 8e 24 1b
       -16 72 -51 -48 8 10 76 -64 127 6 -109 118 -45 -114 36 27
000090 8a 7f bf 57 86 cf 3b fd 70 1c 93 ac 0d fc 81 ff
       -118 127 -65 87 -122 -49 59 -3 112 28 -109 -84 13 -4 -127 -1
0000a0 ae 8e 8c 3b 4a df 18 da 94 f1 be 36 23 5f 37 ba
       -82 -114 -116 59 74 -33 24 -38 -108 -15 -66 54 35 95 55 -70
0000b0 0c 18 7f 5f 34 cd a7 e4 21 2b 81 d6 f3 25 32 06
       12 24 127 95 52 -51 -89 -28 33 43 -127 -42 -13 37 50 6
0000c0 27 be 81 ae e4 ed 12 aa 97 32 f5 c8 9e de 2f 85
       39 -66 -127 -82 -28 -19 18 -86 -105 50 -11 -56 -98 -34 47 -123
0000d0 d1 24 ba b7 dc 9f 20 7f 70 8c 82 7f ed a1 de 76
       -47 36 -70 -73 -36 -97 32 127 112 -116 -126 127 -19 -95 -34 118
0000e0 e5 4c a6 d4 f9 7f d6 b1 ac d3 49 b5 0d e6 16 32
       -27 76 -90 -44 -7 127 -42 -79 -84 -45 73 -75 13 -26 22 50
0000f0 ab 0d 72 81 54 ea 62 46 10 f3 e6 d1 4c 0e f8 d7
       -85 13 114 -127 84 -22 98 70 16 -13 -26 -47 76 14 -8 -41

tfl.pseudo_qconst17 i1 [12, 1, 1, 24]
000000 a5 42 a6 11 68 14 3a 48 81 bf 08 46 70 b5 b6 fb
       -91 66 -90 17 104 20 58 72 -127 -65 8 70 112 -75 -74 -5
000010 1a e5 d2 b8 14 c0 24 48 03 11 81 b8 d0 20 bb e3
       26 -27 -46 -72 20 -64 36 72 3 17 -127 -72 -48 32 -69 -29
000020 cf 8f 18 c3 a4 ee 29 fd 59 73 b3 d4 bd 90 7b a8
       -49 -113 24 -61 -92 -18 41 -3 89 115 -77 -44 -67 -112 123 -88
000030 22 a1 f4 4f 2a 03 c5 cb 81 5d ed 4c ea ad b6 28
       34 -95 -12 79 42 3 -59 -53 -127 93 -19 76 -22 -83 -74 40
000040 0d ac d5 15 db 03 86 0e b5 be 2a c6 e9 84 05 ad
       13 -84 -43 21 -37 3 -122 14 -75 -66 42 -58 -23 -124 5 -83
000050 26 c2 24 a2 7f 25 2a 1c 6d 2e 9e 9a e1 ba 0a 09
       38 -62 36 -94 127 37 42 28 109 46 -98 -102 -31 -70 10 9
000060 da 19 49 00 49 7f 3a cb 9c 26 e6 d3 65 c0 10 4b
       -38 25 73 0 73 127 58 -53 -100 38 -26 -45 101 -64 16 75
000070 57 3e ee 2c c1 51 a4 34 30 78 06 d0 4f 6c f2 19
       87 62 -18 44 -63 81 -92 52 48 120 6 -48 79 108 -14 25
000080 f0 f3 5d 34 81 20 f3 30 c9 f6 03 fd ac 3b c5 17
       -16 -13 93 52 -127 32 -13 48 -55 -10 3 -3 -84 59 -59 23
000090 cb 1b b5 0b f8 c7 aa 9e 1c 6a 1b 8f b7 23 b2 ef
       -53 27 -75 11 -8 -57 -86 -98 28 106 27 -113 -73 35 -78 -17
0000a0 b4 a2 d5 81 52 02 bb d6 74 0e f7 28 50 de bc 11
       -76 -94 -43 -127 82 2 -69 -42 116 14 -9 40 80 -34 -68 17
0000b0 4e ac af a6 5c 0b bb 7f 22 a7 f1 34 1f e0 4c d1
       78 -84 -81 -90 92 11 -69 127 34 -89 -15 52 31 -32 76 -47
0000c0 ff dd cb 22 10 df 00 ad 4d a2 dc 7a 38 b7 55 f5
       -1 -35 -53 34 16 -33 0 -83 77 -94 -36 122 56 -73 85 -11
0000d0 08 d1 32 51 7f 61 3a f1 3f bf 9c 5d 99 2c b3 91
       8 -47 50 81 127 97 58 -15 63 -65 -100 93 -103 44 -77 -111
0000e0 9c 44 96 dc c4 59 e8 25 a7 2f 07 d1 5f ba ba 7f
       -100 68 -106 -36 -60 89 -24 37 -89 47 7 -47 95 -70 -70 127
0000f0 e5 d5 99 a1 7d 0f 13 c5 d1 2d 5f 44 95 3a a0 ce
       -27 -43 -103 -95 125 15 19 -59 -47 45 95 68 -107 58 -96 -50

tfl.pseudo_qconst19 i1 [1, 3, 3, 24]
000000 2c ec ba 58 81 3d c7 40 f0 e2 da 0a e1 ca 41 35
       44 -20 -70 88 -127 61 -57 64 -16 -30 -38 10 -31 -54 65 53
000010 7f 13 c2 71 2e 7f bd ce ff 1b d2 2b 38 d8 0d 30
       127 19 -62 113 46 127 -67 -50 -1 27 -46 43 56 -40 13 48
000020 7f 81 4c f4 ec 45 c9 23 47 60 25 18 89 0e fc ab
       127 -127 76 -12 -20 69 -55 35 71 96 37 24 -119 14 -4 -85
000030 81 34 81 d6 d1 c1 a9 07 6f 0b 2f fb 81 e8 7f 7f
       -127 52 -127 -42 -47 -63 -87 7 111 11 47 -5 -127 -24 127 127
000040 f9 b1 60 81 30 2c 1c 55 05 81 ab 5d 49 14 3a 7c
       -7 -79 96 -127 48 44 28 85 5 -127 -85 93 73 20 58 124
000050 be e5 b4 47 eb 20 28 3c 7c 17 02 04 f3 24 d6 81
       -66 -27 -76 71 -21 32 40 60 124 23 2 4 -13 36 -42 -127
000060 40 46 28 ae c1 a6 83 b1 0c f9 03 de ef 99 b8 5a
       64 70 40 -82 -63 -90 -125 -79 12 -7 3 -34 -17 -103 -72 90
000070 34 dc dd 45 fb 22 85 a7 06 05 15 3d bd ac d1 16
       52 -36 -35 69 -5 34 -123 -89 6 5 21 61 -67 -84 -47 22
000080 8f fa af fa d3 17 1b e7 ec 55 f5 11 2e 14 15 27
       -113 -6 -81 -6 -45 23 27 -25 -20 85 -11 17 46 20 21 39
000090 18 23 08 b2 c9 59 d3 7f 4c 11 57 7f f8 7f c1 0c
       24 35 8 -78 -55 89 -45 127 76 17 87 127 -8 127 -63 12
0000a0 48 7f 1b 28 e1 22 f0 ad 79 c3 06 81 cd fa bc 05
       72 127 27 40 -31 34 -16 -83 121 -61 6 -127 -51 -6 -68 5
0000b0 3f 06 aa f4 d8 01 22 15 75 ec f0 2e 9b 16 16 27
       63 6 -86 -12 -40 1 34 21 117 -20 -16 46 -101 22 22 39
0000c0 1a dc f7 cb bb 81 81 01 c7 04 81 29 df 75 f4 f6
       26 -36 -9 -53 -69 -127 -127 1 -57 4 -127 41 -33 117 -12 -10
0000d0 7f 50 7f 48 7f c6 7f 0e
       127 80 127 72 127 -58 127 14

tfl.pseudo_qconst21 i1 [24, 1, 1, 12]
000000 b2 b2 18 81 f9 99 ed 12 33 06 d1 b0 a4 2e 7f 3d
       -78 -78 24 -127 -7 -103 -19 18 51 6 -47 -80 -92 46 127 61
000010 f2 ff c5 fb e4 c9 d0 f6 53 19 3d 8f 1e 56 3b bb
       -14 -1 -59 -5 -28 -55 -48 -10 83 25 61 -113 30 86 59 -69
000020 29 44 7f 34 b6 06 db 77 e6 17 27 7f 1b 0b 1a c0
       41 68 127 52 -74 6 -37 119 -26 23 39 127 27 11 26 -64
000030 6a eb 28 7f be 9d a1 b8 73 34 79 fe 40 19 a8 95
       106 -21 40 127 -66 -99 -95 -72 115 52 121 -2 64 25 -88 -107
000040 be 91 7f 4e b2 0c 7a 70 f4 6f 42 da aa 0a f7 cd
       -66 -111 127 78 -78 12 122 112 -12 111 66 -38 -86 10 -9 -51
000050 72 81 d0 a5 7f 83 84 c0 8c 28 b9 44 c9 54 e1 03
       114 -127 -48 -91 127 -125 -124 -64 -116 40 -71 68 -55 84 -31 3
000060 04 c9 3e 4c 06 55 0b 81 18 e0 c4 f4 77 ad 22 e7
       4 -55 62 76 6 85 11 -127 24 -32 -60 -12 119 -83 34 -25
000070 7e 7c 47 ac 81 5b af 7e ac ef 9e 2b 7e 19 e0 72
       126 124 71 -84 -127 91 -81 126 -84 -17 -98 43 126 25 -32 114
000080 27 9e 7f d7 df da f6 5a 7f 2e 3e 6a 23 4b f7 5f
       39 -98 127 -41 -33 -38 -10 90 127 46 62 106 35 75 -9 95
000090 f0 d9 d8 ac 98 7d 81 b4 1c 1e 6c 1d 16 e6 b1 81
       -16 -39 -40 -84 -104 125 -127 -76 28 30 108 29 22 -26 -79 -127
0000a0 8c 8d 69 74 a8 54 ca 8f 7f c7 1d 5a af e0 57 89
       -116 -115 105 116 -88 84 -54 -113 127 -57 29 90 -81 -32 87 -119
0000b0 74 7d 74 c4 2d d4 05 f4 a2 c1 de cf 66 7f 56 9c
       116 125 116 -60 45 -44 5 -12 -94 -63 -34 -49 102 127 86 -100
0000c0 b6 36 65 33 3a 81 eb d8 9f 9b 44 1b 08 34 63 d0
       -74 54 101 51 58 -127 -21 -40 -97 -101 68 27 8 52 99 -48
0000d0 8f 49 7f 37 eb 45 42 e0 1f 81 de e8 1b 4b 08 59
       -113 73 127 55 -21 69 66 -32 31 -127 -34 -24 27 75 8 89
0000e0 cb f6 67 f6 52 ce 41 9e 7f 04 9b 26 a4 9f 2b 06
       -53 -10 103 -10 82 -50 65 -98 127 4 -101 38 -92 -97 43 6
0000f0 2b f8 3b ab ba f9 a7 a3 60 57 7f 8a cd 81 54 35
       43 -8 59 -85 -70 -7 -89 -93 96 87 127 -118 -51 -127 84 53

tfl.pseudo_qconst23 i1 [12, 1, 1, 16]
000000 e4 f8 4f fb 0b a8 12 0a 25 4a 06 aa aa 7f 4e 2b
       -28 -8 79 -5 11 -88 18 10 37 74 6 -86 -86 127 78 43
000010 b6 96 28 e1 fc 52 ec 2a 8e 38 cc 65 81 3f 5b 0d
       -74 -106 40 -31 -4 82 -20 42 -114 56 -52 101 -127 63 91 13
000020 de 81 a4 00 54 d9 a7 3c d2 29 c0 cc 37 b1 fa e6
       -34 -127 -92 0 84 -39 -89 60 -46 41 -64 -52 55 -79 -6 -26
000030 41 81 d5 c9 2f da e8 2b ae 0d 77 6c a7 95 72 10
       65 -127 -43 -55 47 -38 -24 43 -82 13 119 108 -89 -107 114 16
000040 ba 36 a9 52 f1 9b b0 dd aa 12 cf 81 b3 67 f3 26
       -70 54 -87 82 -15 -101 -80 -35 -86 18 -49 -127 -77 103 -13 38
000050 5d 37 da 81 d9 ab 50 cd fe cf c5 29 02 1c 30 09
       93 55 -38 -127 -39 -85 80 -51 -2 -49 -59 41 2 28 48 9
000060 00 c8 e0 d0 66 1d c6 01 64 f8 d8 81 fe fa 38 1e
       0 -56 -32 -48 102 29 -58 1 100 -8 -40 -127 -2 -6 56 30
000070 29 d4 60 45 3e b4 3d ba 09 04 61 12 a1 a5 66 7f
       41 -44 96 69 62 -76 61 -70 9 4 97 18 -95 -91 102 127
000080 ba 5a c1 ea c1 8c 84 3f 6c 0b b8 bf 2f cd 7f f8
       -70 90 -63 -22 -63 -116 -124 63 108 11 -72 -65 47 -51 127 -8
000090 42 1d 02 0d bd 2d 50 34 b4 c7 2e e6 7f 18 f2 16
       66 29 2 13 -67 45 80 52 -76 -57 46 -26 127 24 -14 22
0000a0 b4 73 e5 59 7f 09 d1 bb 48 cf ff f9 0a d7 5c 77
       -76 115 -27 89 127 9 -47 -69 72 -49 -1 -7 10 -41 92 119
0000b0 fa 27 60 db 14 07 77 0e 21 0f ac 91 81 54 4d 3c
       -6 39 96 -37 20 7 119 14 33 15 -84 -111 -127 84 77 60

tfl.pseudo_qconst25 i1 [1, 3, 3, 16]
000000 28 81 03 14 1f a1 ff e0 42 d4 42 43 56 5e 14 81
       40 -127 3 20 31 -95 -1 -32 66 -44 66 67 86 94 20 -127
000010 b7 95 fe 4f a2 06 7f f1 05 66 50 59 42 7f de af
       -73 -107 -2 79 -94 6 127 -15 5 102 80 89 66 127 -34 -81
000020 81 e1 b4 3c ba f3 61 28 64 f7 04 2c 3d 38 04 06
       -127 -31 -76 60 -70 -13 97 40 100 -9 4 44 61 56 4 6
000030 cb da f8 4e 06 e1 49 db e1 6f 12 6d 3d 01 25 1f
       -53 -38 -8 78 6 -31 73 -37 -31 111 18 109 61 1 37 31
000040 32 d3 0e 76 81 9b 23 ce 18 22 60 59 66 5f 4a b4
       50 -45 14 118 -127 -101 35 -50 24 34 96 89 102 95 74 -76
000050 d9 06 f2 33 d8 fc e5 28 0a f7 7f d4 7f 60 26 32
       -39 6 -14 51 -40 -4 -27 40 10 -9 127 -44 127 96 38 50
000060 ad 4d 7f 08 03 81 f9 81 cf 7f 44 7f 05 35 7f 5b
       -83 77 127 8 3 -127 -7 -127 -49 127 68 127 5 53 127 91
000070 f6 43 24 67 88 bd d6 b3 6b 02 4d 59 3a fa fd 50
       -10 67 36 103 -120 -67 -42 -77 107 2 77 89 58 -6 -3 80
000080 38 fa 50 7f 10 2c b9 ff 7f a9 3e 67 68 e5 34 0b
       56 -6 80 127 16 44 -71 -1 127 -87 62 103 104 -27 52 11

tfl.pseudo_qconst27 i1 [16, 1, 1, 8]
000000 81 03 92 99 1c c8 d5 ab 34 a8 fd ba 1d 7f 4a 7e
       -127 3 -110 -103 28 -56 -43 -85 52 -88 -3 -70 29 127 74 126
000010 f4 d0 d7 66 47 45 7f 43 01 7a ce 3c 2d 7f f8 88
       -12 -48 -41 102 71 69 127 67 1 122 -50 60 45 127 -8 -120
000020 04 e8 7c 7f 9f 1d a1 c7 7f 1e 50 31 b7 2d f4 d7
       4 -24 124 127 -97 29 -95 -57 127 30 80 49 -73 45 -12 -41
000030 6f 7f 1b 2d 09 ba 15 d5 ea 81 0f 8c 0e ee 5d 37
       111 127 27 45 9 -70 21 -43 -22 -127 15 -116 14 -18 93 55
000040 d4 19 ec 1e 4e 81 6d 0d 2b 7f 38 02 f6 be fa 36
       -44 25 -20 30 78 -127 109 13 43 127 56 2 -10 -66 -6 54
000050 dd 2f 7f 0b b6 eb 07 5e 77 7f 3f 6d 98 ec 45 5c
       -35 47 127 11 -74 -21 7 94 119 127 63 109 -104 -20 69 92
000060 eb d3 81 c4 dc 56 4e f7 ae 7f 1c f0 c5 43 1d 86
       -21 -45 -127 -60 -36 86 78 -9 -82 127 28 -16 -59 67 29 -122
000070 bf ad d5 2e 66 81 51 23 e8 a9 d3 9b 81 2f ed f1
       -65 -83 -43 46 102 -127 81 35 -24 -87 -45 -101 -127 47 -19 -15

tfl.pseudo_qconst29 i1 [8, 1, 1, 16]
000000 27 b6 82 8f 22 1c f1 b1 48 a7 00 0c ce 7e 81 20
       39 -74 -126 -113 34 28 -15 -79 72 -89 0 12 -50 126 -127 32
000010 50 20 59 34 ab 57 dd 71 fe 0f 4a 0b 01 cb fe 81
       80 32 89 52 -85 87 -35 113 -2 15 74 11 1 -53 -2 -127
000020 eb f5 23 41 f0 00 d9 7f 0d b4 72 9a 9a d1 12 70
       -21 -11 35 65 -16 0 -39 127 13 -76 114 -102 -102 -47 18 112
000030 3d 23 dc 61 28 5c 59 6e 2d d5 7f 53 15 5d c9 b3
       61 35 -36 97 40 92 89 110 45 -43 127 83 21 93 -55 -77
000040 47 18 d3 17 3a 7f 53 a9 ca e5 dc 3c dd b8 38 02
       71 24 -45 23 58 127 83 -87 -54 -27 -36 60 -35 -72 56 2
000050 12 bf 56 5b 87 fe cb 8c 2d 3d 3a e9 5a a2 81 d3
       18 -65 86 91 -121 -2 -53 -116 45 61 58 -23 90 -94 -127 -45
000060 b1 a0 62 2f 16 7f 6f 96 bf 1d 87 e7 2d 57 25 c6
       -79 -96 98 47 22 127 111 -106 -65 29 -121 -25 45 87 37 -58
000070 9d 81 92 6b cb 3a 10 b3 81 53 0e de d6 02 f3 01
       -99 -127 -110 107 -53 58 16 -77 -127 83 14 -34 -42 2 -13 1

tfl.pseudo_qconst31 i1 [1, 3, 3, 16]
000000 7d 28 37 1b 8e 65 af 7f 1e c6 ef 3a bc 46 13 81
       125 40 55 27 -114 101 -81 127 30 -58 -17 58 -68 70 19 -127
000010 81 01 28 03 b1 27 e0 25 50 40 5f 81 cd 60 3d be
       -127 1 40 3 -79 39 -32 37 80 64 95 -127 -51 96 61 -66
000020 9d 7f d9 b0 7f d5 91 cb 68 ee de 4a f4 fa 06 8d
       -99 127 -39 -80 127 -43 -111 -53 104 -18 -34 74 -12 -6 6 -115
000030 56 2c 62 dc 7c 33 e9 11 ca 60 4b 4d 15 01 04 33
       86 44 98 -36 124 51 -23 17 -54 96 75 77 21 1 4 51
000040 3c 04 b8 23 14 68 e9 31 e8 01 2f cd e0 fc 32 e6
       60 4 -72 35 20 104 -23 49 -24 1 47 -51 -32 -4 50 -26
000050 7b 50 d6 ac 02 15 1e bf 6b 5a 71 e5 04 81 7f d4
       123 80 -42 -84 2 21 30 -65 107 90 113 -27 4 -127 127 -44
000060 d5 f3 c4 20 7d 7f 0b 02 82 ef 7f c7 f7 24 a3 ed
       -43 -13 -60 32 125 127 11 2 -126 -17 127 -57 -9 36 -93 -19
000070 42 c7 7f 3f 76 7a 7f ce 81 be 1f 4a 81 03 0c 9d
       66 -57 127 63 118 122 127 -50 -127 -66 31 74 -127 3 12 -99
000080 af 0f ca 7f ab a0 d8 c4 fd 81 3c ee 89 44 6f c3
       -81 15 -54 127 -85 -96 -40 -60 -3 -127 60 -18 -119 68 111 -61

tfl.pseudo_qconst33 i1 [16, 1, 1, 8]
000000 04 db 6f 81 60 9e ac a5 7f d7 a2 cf 0b bc 05 82
       4 -37 111 -127 96 -98 -84 -91 127 -41 -94 -49 11 -68 5 -126
000010 89 c7 a8 04 e9 61 11 81 69 7f 0d dd 35 21 cf 37
       -119 -57 -88 4 -23 97 17 -127 105 127 13 -35 53 33 -49 55
000020 89 20 7f 50 d9 60 ec 22 da fa 7f b2 d1 55 c1 02
       -119 32 127 80 -39 96 -20 34 -38 -6 127 -78 -47 85 -63 2
000030 d8 77 ef 1b 81 c6 f6 f0 51 c9 14 81 65 c9 6d e3
       -40 119 -17 27 -127 -58 -10 -16 81 -55 20 -127 101 -55 109 -29
000040 7f e7 17 60 7e 79 d7 b6 e5 ee 10 7f d0 45 16 c0
       127 -25 23 96 126 121 -41 -74 -27 -18 16 127 -48 69 22 -64
000050 48 44 fe 81 22 a0 6e fd 73 b7 7f fa b6 e0 e2 1f
       72 68 -2 -127 34 -96 110 -3 115 -73 127 -6 -74 -32 -30 31
000060 2d 41 b1 5a c2 bb 7f b8 33 c6 e9 a4 eb 7f 2d 35
       45 65 -79 90 -62 -69 127 -72 51 -58 -23 -92 -21 127 45 53
000070 66 dd 61 96 44 98 95 7f 7f 5f 4b e3 46 98 cb 34
       102 -35 97 -106 68 -104 -107 127 127 95 75 -29 70 -104 -53 52

tfl.pseudo_qconst35 i1 [8, 1, 1, 8]
000000 04 24 c2 b4 81 42 73 5b bb 2e 13 51 1d 45 81 56
       4 36 -62 -76 -127 66 115 91 -69 46 19 81 29 69 -127 86
000010 a8 7f bc ab 6c 15 52 e1 16 b9 d8 8f 70 7a 7f cf
       -88 127 -68 -85 108 21 82 -31 22 -71 -40 -113 112 122 127 -49
000020 db 37 a4 45 53 e0 e8 7f 91 ac 81 5c 8d 87 c3 1a
       -37 55 -92 69 83 -32 -24 127 -111 -84 -127 92 -115 -121 -61 26
000030 8f f7 39 5d b0 81 ab ff b9 0e 57 e2 7f cf 62 35
       -113 -9 57 93 -80 -127 -85 -1 -71 14 87 -30 127 -49 98 53

tfl.pseudo_qconst37 i1 [1, 3, 3, 8]
000000 93 40 d8 2c be b3 b0 9b 75 34 2f d0 8a e8 db 59
       -109 64 -40 44 -66 -77 -80 -101 117 52 47 -48 -118 -24 -37 89
000010 ca 81 fb 9f 4b cc 01 ef 30 da 9b 81 7f eb c0 c4
       -54 -127 -5 -97 75 -52 1 -17 48 -38 -101 -127 127 -21 -64 -60
000020 56 ec b6 d9 e0 f3 bf 2b 7f b2 56 6b 6a ef be ff
       86 -20 -74 -39 -32 -13 -65 43 127 -78 86 107 106 -17 -66 -1
000030 2e cf 4c 08 37 23 28 da 89 f2 7f 8e 0b 81 7f 7f
       46 -49 76 8 55 35 40 -38 -119 -14 127 -114 11 -127 127 127
000040 a2 8c 32 02 3c c3 ed 58
       -94 -116 50 2 60 -61 -19 88

tfl.pseudo_qconst39 i1 [8, 3, 3, 3]
000000 78 6f ea 55 9f 7f 35 cb 89 a5 72 64 31 da 50 36
       120 111 -22 85 -97 127 53 -53 -119 -91 114 100 49 -38 80 54
000010 4e 0a 18 ea d5 39 02 ee 60 f7 ed 06 3e 28 a6 b0
       78 10 24 -22 -43 57 2 -18 96 -9 -19 6 62 40 -90 -80
000020 e0 e0 a5 0b 0f cd ee c7 b2 69 81 24 ba a1 53 47
       -32 -32 -91 11 15 -51 -18 -57 -78 105 -127 36 -70 -95 83 71
000030 50 fa f5 c0 00 2d 2c 42 58 ad d8 1b 25 c6 cf 37
       80 -6 -11 -64 0 45 44 66 88 -83 -40 27 37 -58 -49 55
000040 5a 50 61 c4 1b 81 53 2c a9 1a d8 06 7d b6 28 ff
       90 80 97 -60 27 -127 83 44 -87 26 -40 6 125 -74 40 -1
000050 b4 db f7 84 a0 ff ca 8f 7a ef b9 cf e5 6e 48 b5
       -76 -37 -9 -124 -96 -1 -54 -113 122 -17 -71 -49 -27 110 72 -75
000060 48 a1 40 d5 81 29 b7 e4 9b 13 93 d4 21 07 b9 61
       72 -95 64 -43 -127 41 -73 -28 -101 19 -109 -44 33 7 -71 97
000070 3a d7 de 7f 39 91 2e cf 72 4d a8 46 23 fc 8c 4f
       58 -41 -34 127 57 -111 46 -49 114 77 -88 70 35 -4 -116 79
000080 56 bb c6 a6 1a 91 cb d6 04 64 e4 bd 4f 89 d8 f9
       86 -69 -58 -90 26 -111 -53 -42 4 100 -28 -67 79 -119 -40 -7
000090 cc f6 18 66 a5 32 96 17 ff 69 7f 59 0a d5 bf 35
       -52 -10 24 102 -91 50 -106 23 -1 105 127 89 10 -43 -65 53
0000a0 56 43 7b 5e 48 2f 01 66 d3 96 36 81 e7 bd 78 38
       86 67 123 94 72 47 1 102 -45 -106 54 -127 -25 -67 120 56
0000b0 c6 da 0e 8d 3c 12 fd 9e ce 47 97 fa 2c 66 aa d0
       -58 -38 14 -115 60 18 -3 -98 -50 71 -105 -6 44 102 -86 -48
0000c0 ed ac 62 de e7 fa 48 e6 72 b1 4e 02 1f 28 b5 67
       -19 -84 98 -34 -25 -6 72 -26 114 -79 78 2 31 40 -75 103
0000d0 1b 7f 55 aa 94 d2 fd be
       27 127 85 -86 -108 -46 -3 -66
