HW6/resNet/resnetv1_mnist_int8.tflite (tflite, 202032 bytes, 16 tensors)

tfl.pseudo_qconst1 i1 [10, 64]
00000000: 3fe5 d34f bc8f e5ab dbbd f1fc 63ca f0a2
00000010: 268f 9a11 9dbe c23d ef6f 0eac 8381 be9d
00000020: 5343 8d8a 1b56 5a72 1ffc 1c57 5d65 063b
00000030: c3c3 050b be01 d9dd 38fa 0022 ca70 cf6d
00000040: 45dc ba9c 37ec 41d2 4f01 d4c1 8162 c595
00000050: 37d1 1ca7 3398 03cb db39 c73a 5e26 b7cb
00000060: 0a33 de58 7241 1916 bedd 1522 d9ba e204
00000070: 04f5 deea e438 5edc 4ad2 27b8 f08e e8bb
00000080: e640 feb5 5626 d45e 0790 4a4c 1612 1433
00000090: 1900 971c eca6 c5e9 639b 2c06 bae5 c946
000000a0: ad53 33fc 032c a6d1 09e2 d61f 01fc 2b19
000000b0: 8147 c0a0 1450 cbc6 f2e9 31fe 27f3 e502
000000c0: adc2 5341 556f 6023 f739 eedb 10e8 eb94
000000d0: 5b19 0113 60de 7f9c 87b6 54ee bbce 1fb7
000000e0: 44ed 26bf e7fb 4ad0 b9b3 f1ee e5fd 25d3
000000f0: 09e8 bb57 4094 a533 e109 67e5 2f92 ad77
63 -27 -45 79 -68 -113 -27 -85
-37 -67 -15 -4 99 -54 -16 -94
38 -113 -102 17 -99 -66 -62 61
-17 111 14 -84 -125 -127 -66 -99
83 67 -115 -118 27 86 90 114
31 -4 28 87 93 101 6 59
-61 -61 5 11 -66 1 -39 -35
56 -6 0 34 -54 112 -49 109
69 -36 -70 -100 55 -20 65 -46
79 1 -44 -63 -127 98 -59 -107
55 -47 28 -89 51 -104 3 -53
-37 57 -57 58 94 38 -73 -53
10 51 -34 88 114 65 25 22
-66 -35 21 34 -39 -70 -30 4
4 -11 -34 -22 -28 56 94 -36
74 -46 39 -72 -16 -114 -24 -69
-26 64 -2 -75 86 38 -44 94
7 -112 74 76 22 18 20 51
25 0 -105 28 -20 -90 -59 -23
99 -101 44 6 -70 -27 -55 70
-83 83 51 -4 3 44 -90 -47
9 -30 -42 31 1 -4 43 25
-127 71 -64 -96 20 80 -53 -58
-14 -23 49 -2 39 -13 -27 2
-83 -62 83 65 85 111 96 35
-9 57 -18 -37 16 -24 -21 -108
91 25 1 19 96 -34 127 -100
-121 -74 84 -18 -69 -50 31 -73
68 -19 38 -65 -25 -5 74 -48
-71 -77 -15 -18 -27 -3 37 -45
9 -24 -69 87 64 -108 -91 51
-31 9 103 -27 47 -110 -83 119

tfl.pseudo_qconst3 i1 [64, 3, 3, 64]
00000000: 1e2f c42c 09eb 54f1 3702 47d6 02ee fd34
00000010: 2d12 31d0 21de 17d8 0111 ce2f 502a 9231
00000020: e90b e039 05cf c6d2 19f2 d959 d6de fb03
00000030: 2ae9 0572 fc13 dbbd 0b02 e3eb 2ff8 e6fc
00000040: 2448 d0c2 05f4 2fd3 fd05 fad7 32ed 0b2e
00000050: 18da befb efd2 0425 24d6 e6fe 3af7 f122
00000060: cb08 bb29 ded6 c5c4 1305 ff63 b4df dc06
00000070: 1910 0030 19ef 0ad9 1c1d e115 2309 0e28
00000080: 2034 fc1d efff f5ef 2f00 25d5 da27 c213
00000090: 1efc fdd4 10df da0e 0805 c83b 350f c828
000000a0: 14e3 e113 0ffd e2bf 1dde f92f ed11 263b
000000b0: 09df 0745 030c e7ce ff15 e0f9 1ff0 ef03
000000c0: 2557 ca09 ecdf 52d3 e528 cbdb 0b19 e9d4
000000d0: cf09 fd45 cacf f72d fe23 c229 14df df14
000000e0: f343 e819 f003 c8f3 1df2 0061 01db d20f
000000f0: 06d3 c829 1ff0 cabd d3bc 1ee7 29f1 00be
30 47 -60 44 9 -21 84 -15
55 2 71 -42 2 -18 -3 52
45 18 49 -48 33 -34 23 -40
1 17 -50 47 80 42 -110 49
-23 11 -32 57 5 -49 -58 -46
25 -14 -39 89 -42 -34 -5 3
42 -23 5 114 -4 19 -37 -67
11 2 -29 -21 47 -8 -26 -4
36 72 -48 -62 5 -12 47 -45
-3 5 -6 -41 50 -19 11 46
24 -38 -66 -5 -17 -46 4 37
36 -42 -26 -2 58 -9 -15 34
-53 8 -69 41 -34 -42 -59 -60
19 5 -1 99 -76 -33 -36 6
25 16 0 48 25 -17 10 -39
28 29 -31 21 35 9 14 40
32 52 -4 29 -17 -1 -11 -17
47 0 37 -43 -38 39 -62 19
30 -4 -3 -44 16 -33 -38 14
8 5 -56 59 53 15 -56 40
20 -29 -31 19 15 -3 -30 -65
29 -34 -7 47 -19 17 38 59
9 -33 7 69 3 12 -25 -50
-1 21 -32 -7 31 -16 -17 3
37 87 -54 9 -20 -33 82 -45
-27 40 -53 -37 11 25 -23 -44
-49 9 -3 69 -54 -49 -9 45
-2 35 -62 41 20 -33 -33 20
-13 67 -24 25 -16 3 -56 -13
29 -14 0 97 1 -37 -46 15
6 -45 -56 41 31 -16 -54 -67
-45 -68 30 -25 41 -15 0 -66

tfl.pseudo_qconst5 i1 [64, 3, 3, 64]
00000000: 1714 12ef 3404 e708 f3c8 fbe2 dcc9 03dc
00000010: 05f7 39e9 2a16 08cd aa00 ecf2 1638 f4d7
00000020: 140a 1415 15e5 1123 08ea b80c 16f1 f2ea
00000030: 14e8 8d14 35fa fe04 ea1c ffb9 47e9 0df8
00000040: fddf daec 110c cd18 f2ee ff00 04cf 0ee2
00000050: f734 33f6 0b3a 1ddf f73c d8c1 1f12 f2ee
00000060: 0cdd f11c 1dd2 e321 04df d6fb f7d9 c0f8
00000070: 25b0 b60c cdf2 050d fd04 0ab4 2910 ec08
00000080: 0918 b9cd 11f5 e7e1 ffe7 eb1f a9d8 3ae8
00000090: cf2b 0c02 004d db02 d9cf e3f3 2141 c7f4
000000a0: d501 df49 fdfc 2620 0112 012d fde2 dbee
000000b0: 35ea ade4 e90d e219 0d10 2181 3ccf fdf7
000000c0: ea14 17f1 570f 07d8 d7cf f72a f3e2 0cdd
000000d0: f8b8 4a0f 150d 23df d33b 11be 1137 3b1e
000000e0: 14f5 eee8 f4fe 3816 ff23 d5dc 2f07 fbe9
000000f0: 26df d402 ef01 082c 1307 21c9 3b26 0916
23 20 18 -17 52 4 -25 8
-13 -56 -5 -30 -36 -55 3 -36
5 -9 57 -23 42 22 8 -51
-86 0 -20 -14 22 56 -12 -41
20 10 20 21 21 -27 17 35
8 -22 -72 12 22 -15 -14 -22
20 -24 -115 20 53 -6 -2 4
-22 28 -1 -71 71 -23 13 -8
-3 -33 -38 -20 17 12 -51 24
-14 -18 -1 0 4 -49 14 -30
-9 52 51 -10 11 58 29 -33
-9 60 -40 -63 31 18 -14 -18
12 -35 -15 28 29 -46 -29 33
4 -33 -42 -5 -9 -39 -64 -8
37 -80 -74 12 -51 -14 5 13
-3 4 10 -76 41 16 -20 8
9 24 -71 -51 17 -11 -25 -31
-1 -25 -21 31 -87 -40 58 -24
-49 43 12 2 0 77 -37 2
-39 -49 -29 -13 33 65 -57 -12
-43 1 -33 73 -3 -4 38 32
1 18 1 45 -3 -30 -37 -18
53 -22 -83 -28 -23 13 -30 25
13 16 33 -127 60 -49 -3 -9
-22 20 23 -15 87 15 7 -40
-41 -49 -9 42 -13 -30 12 -35
-8 -72 74 15 21 13 35 -33
-45 59 17 -66 17 55 59 30
20 -11 -18 -24 -12 -2 56 22
-1 35 -43 -36 47 7 -5 -23
38 -33 -44 2 -17 1 8 44
19 7 33 -55 59 38 9 22

tfl.pseudo_qconst7 i1 [64, 1, 1, 32]
00000000: 0c48 1c3b 7fbb da0f f1e5 ebc8 58fb df2c
00000010: d4bf f493 9e0e d31f 1552 1820 d1be 3f32
00000020: 2053 2bb5 3eeb af55 add8 af0d 3de2 fdc7
00000030: f8c8 2d22 609d 02f8 5485 af3d d948 8101
00000040: f81e 51ef cb1b e1e3 c402 64e2 17c6 4ab5
00000050: 1927 e11b 7f3b edae c089 ee03 1fbd e4bc
00000060: f7a6 c6b4 ec7f 43e3 a558 59c0 f0f7 31b5
00000070: 170a 1a1d 1fca 063f 4127 a8eb 9699 dea9
00000080: f9f2 03ac 0710 04fc a60b 483e dd81 0889
00000090: bb19 2da4 7edb 43da ef11 eea9 312c 0535
000000a0: c679 a6e4 c181 ba0d bd21 2512 6b15 d31a
000000b0: 5460 dc38 f85f 6ccf 5f07 073b 4b40 2015
000000c0: 81ed 0d04 f355 ea25 d44f fded dff1 0f23
000000d0: 3fe6 0cf5 fe03 e629 d40b 403d f927 13d5
000000e0: 819f 554d 23fd cc4a c93c f1bf 53f4 25f8
000000f0: 9bf0 5f03 365e dbba 0253 a1c6 12a9 9d33
12 72 28 59 127 -69 -38 15
-15 -27 -21 -56 88 -5 -33 44
-44 -65 -12 -109 -98 14 -45 31
21 82 24 32 -47 -66 63 50
32 83 43 -75 62 -21 -81 85
-83 -40 -81 13 61 -30 -3 -57
-8 -56 45 34 96 -99 2 -8
84 -123 -81 61 -39 72 -127 1
-8 30 81 -17 -53 27 -31 -29
-60 2 100 -30 23 -58 74 -75
25 39 -31 27 127 59 -19 -82
-64 -119 -18 3 31 -67 -28 -68
-9 -90 -58 -76 -20 127 67 -29
-91 88 89 -64 -16 -9 49 -75
23 10 26 29 31 -54 6 63
65 39 -88 -21 -106 -103 -34 -87
-7 -14 3 -84 7 16 4 -4
-90 11 72 62 -35 -127 8 -119
-69 25 45 -92 126 -37 67 -38
-17 17 -18 -87 49 44 5 53
-58 121 -90 -28 -63 -127 -70 13
-67 33 37 18 107 21 -45 26
84 96 -36 56 -8 95 108 -49
95 7 7 59 75 64 32 21
-127 -19 13 4 -13 85 -22 37
-44 79 -3 -19 -33 -15 15 35
63 -26 12 -11 -2 3 -26 41
-44 11 64 61 -7 39 19 -43
-127 -97 85 77 35 -3 -52 74
-55 60 -15 -65 83 -12 37 -8
-101 -16 95 3 54 94 -37 -70
2 83 -95 -58 18 -87 -99 51

tfl.pseudo_qconst9 i1 [64, 3, 3, 64]
00000000: 2010 f82f e3f7 e7d5 2b28 eff9 2225 f4ee
00000010: 08e7 1209 6fae 15ff e622 ba2d d630 00d1
00000020: c54a 1032 c819 fb46 38f0 0e0d f113 e4ce
00000030: 20f8 e4df 1630 e627 dae0 ca51 2f26 f5ee
00000040: f610 edcd cbfa db20 15ed fd05 ff18 fbef
00000050: 0221 dae0 20d3 2019 f6ee fa32 f31c 122b
00000060: fa2d e116 faff ee02 3113 371d 1cdf e1ef
00000070: fb0a e9e9 e3b5 19fc dae7 e1eb 2603 02f7
00000080: 12eb fa06 0316 e6f9 10fc 27fa fd30 bc17
00000090: f124 10c4 ed36 1713 9c10 350e 30a7 37f2
000000a0: 265e dcd2 0435 022a 48c7 d934 1bf7 d227
000000b0: 180e 0ee7 e2b0 51ea eac2 addd c2fd 27df
000000c0: d20a fa0c fcb4 ddc9 361a 1be2 d70e 04de
000000d0: 011a f7fc 0481 0323 141e 1ac3 9ee5 f313
000000e0: e32d 1413 e700 1a31 3721 1426 f418 2800
000000f0: 1300 da09 08da ea40 1235 d624 18fc 0ee3
32 16 -8 47 -29 -9 -25 -43
43 40 -17 -7 34 37 -12 -18
8 -25 18 9 111 -82 21 -1
-26 34 -70 45 -42 48 0 -47
-59 74 16 50 -56 25 -5 70
56 -16 14 13 -15 19 -28 -50
32 -8 -28 -33 22 48 -26 39
-38 -32 -54 81 47 38 -11 -18
-10 16 -19 -51 -53 -6 -37 32
21 -19 -3 5 -1 24 -5 -17
2 33 -38 -32 32 -45 32 25
-10 -18 -6 50 -13 28 18 43
-6 45 -31 22 -6 -1 -18 2
49 19 55 29 28 -33 -31 -17
-5 10 -23 -23 -29 -75 25 -4
-38 -25 -31 -21 38 3 2 -9
18 -21 -6 6 3 22 -26 -7
16 -4 39 -6 -3 48 -68 23
-15 36 16 -60 -19 54 23 19
-100 16 53 14 48 -89 55 -14
38 94 -36 -46 4 53 2 42
72 -57 -39 52 27 -9 -46 39
24 14 14 -25 -30 -80 81 -22
-22 -62 -83 -35 -62 -3 39 -33
-46 10 -6 12 -4 -76 -35 -55
54 26 27 -30 -41 14 4 -34
1 26 -9 -4 4 -127 3 35
20 30 26 -61 -98 -27 -13 19
-29 45 20 19 -25 0 26 49
55 33 20 38 -12 24 40 0
19 0 -38 9 8 -38 -22 64
18 53 -42 36 24 -4 14 -29

tfl.pseudo_qconst11 i1 [64, 3, 3, 32]
00000000: dd3c 101b e325 44f8 1515 101d e014 fb40
00000010: 02e0 06e0 d618 e9e9 28ec ec0d 010a 23c8
00000020: ee21 38d5 f5f2 1b07 00ff 5002 2f16 012f
00000030: 3ae3 262e e8e6 24bc 43c2 e833 300a cbd6
00000040: faff 0f23 e0f3 e8ff cdc4 0c2a f4e1 10fd
00000050: 19c0 3422 e4df 1f0c 1aff 10ee e1e0 f0d0
00000060: 19ca 09eb 0304 e103 ebdf efea 692a b3db
00000070: e518 ee1d 2c29 e90d 0801 d0e5 3b2f 23fb
00000080: 17d3 ff33 ba34 cff7 d301 2de2 2fdc 0ae1
00000090: 220d e318 fa37 1cfc 4a03 bbb9 f839 ce38
000000a0: 02de 0b1a b8c9 1de2 0c15 9ae3 4ad1 cbd8
000000b0: 2df7 eb1c e861 c4da 2de6 dad0 b218 1bfb
000000c0: 000f e700 f9ee 1e81 553e dcea dc08 10f1
000000d0: 0d0b e804 e22b 09ce d955 e7e8 11ed 4cc8
000000e0: 0601 fa03 1f39 e2d9 ebfa 1f48 f6ca ec17
000000f0: c52d e9bc 16d1 cd11 1409 f912 271b 26f5
-35 60 16 27 -29 37 68 -8
21 21 16 29 -32 20 -5 64
2 -32 6 -32 -42 24 -23 -23
40 -20 -20 13 1 10 35 -56
-18 33 56 -43 -11 -14 27 7
0 -1 80 2 47 22 1 47
58 -29 38 46 -24 -26 36 -68
67 -62 -24 51 48 10 -53 -42
-6 -1 15 35 -32 -13 -24 -1
-51 -60 12 42 -12 -31 16 -3
25 -64 52 34 -28 -33 31 12
26 -1 16 -18 -31 -32 -16 -48
25 -54 9 -21 3 4 -31 3
-21 -33 -17 -22 105 42 -77 -37
-27 24 -18 29 44 41 -23 13
8 1 -48 -27 59 47 35 -5
23 -45 -1 51 -70 52 -49 -9
-45 1 45 -30 47 -36 10 -31
34 13 -29 24 -6 55 28 -4
74 3 -69 -71 -8 57 -50 56
2 -34 11 26 -72 -55 29 -30
12 21 -102 -29 74 -47 -53 -40
45 -9 -21 28 -24 97 -60 -38
45 -26 -38 -48 -78 24 27 -5
0 15 -25 0 -7 -18 30 -127
85 62 -36 -22 -36 8 16 -15
13 11 -24 4 -30 43 9 -50
-39 85 -25 -24 17 -19 76 -56
6 1 -6 3 31 57 -30 -39
-21 -6 31 72 -10 -54 -20 23
-59 45 -23 -68 22 -47 -51 17
20 9 -7 18 39 27 38 -11

tfl.pseudo_qconst13 i1 [32, 3, 3, 32]
00000000: d2fb c2dd 250d 16fa ade7 c7bb 01e9 058a
00000010: 0bfa e8db 160a ddd8 30a5 e81d cd47 efa8
00000020: 0f07 dcd1 e9e0 fb00 f4de d4f5 f4e3 f781
00000030: 2dca 30bf 341c 0edd 09f4 fd15 dd04 c5dc
00000040: 002a e3e3 04ba 25e6 e01b c7cd 1a04 c5a8
00000050: 313f 40d9 1732 0914 dbb6 1009 0624 bcd1
00000060: e7e6 cdbb 3efa e746 fee9 01e6 09fa 2def
00000070: d80b d601 e112 0414 2be8 0e18 110d f4c9
00000080: 41f1 0cd9 28d9 14d4 ccd7 03d2 00ff 179a
00000090: ccda eb00 05cd e022 e8e3 edf3 e5ed caf3
000000a0: 2a06 dbfd d5f6 1213 1000 9beb 28ec e906
000000b0: b505 36fe e407 ee09 f1e5 2145 dffd b6fa
000000c0: 02fb e5f2 06a3 3159 e7e9 3417 0003 e5c6
000000d0: 04e3 1e32 0af2 cbe6 1bdb 0fff d21b edc2
000000e0: f9d0 f5ee 38f0 d3f8 1abd f505 eb09 21f7
000000f0: 010d 41e0 17f6 f81e 300c 04e0 0ee6 28e2
-46 -5 -62 -35 37 13 22 -6
-83 -25 -57 -69 1 -23 5 -118
11 -6 -24 -37 22 10 -35 -40
48 -91 -24 29 -51 71 -17 -88
15 7 -36 -47 -23 -32 -5 0
-12 -34 -44 -11 -12 -29 -9 -127
45 -54 48 -65 52 28 14 -35
9 -12 -3 21 -35 4 -59 -36
0 42 -29 -29 4 -70 37 -26
-32 27 -57 -51 26 4 -59 -88
49 63 64 -39 23 50 9 20
-37 -74 16 9 6 36 -68 -47
-25 -26 -51 -69 62 -6 -25 70
-2 -23 1 -26 9 -6 45 -17
-40 11 -42 1 -31 18 4 20
43 -24 14 24 17 13 -12 -55
65 -15 12 -39 40 -39 20 -44
-52 -41 3 -46 0 -1 23 -102
-52 -38 -21 0 5 -51 -32 34
-24 -29 -19 -13 -27 -19 -54 -13
42 6 -37 -3 -43 -10 18 19
16 0 -101 -21 40 -20 -23 6
-75 5 54 -2 -28 7 -18 9
-15 -27 33 69 -33 -3 -74 -6
2 -5 -27 -14 6 -93 49 89
-25 -23 52 23 0 3 -27 -58
4 -29 30 50 10 -14 -53 -26
27 -37 15 -1 -46 27 -19 -62
-7 -48 -11 -18 56 -16 -45 -8
26 -67 -11 5 -21 9 33 -9
1 13 65 -32 23 -10 -8 30
48 12 4 -32 14 -26 40 -30

tfl.pseudo_qconst15 i1 [32, 3, 3, 32]
00000000: c436 4600 fa13 4622 10f4 ee14 d1a4 4ae9
00000010: 8109 263b dbf8 e6ee f508 bd0e fec5 211e
00000020: ef29 04fa 0bdc 05da d0d0 d628 15e3 0b1c
00000030: 14eb 3eb2 bbbc 3dfd e73c 5212 0bb0 042f
00000040: f07b 3b32 f2a1 2c85 b00e 0d1a dd12 05f4
00000050: fb49 5cee 2688 f3d4 f2d8 1117 fc3e b313
00000060: 15e1 e226 f7db f245 150d 19ed fd16 38cb
00000070: f50d f311 2910 e302 e8db d711 0bed fd03
00000080: efd9 aa24 cdb8 0b93 ec2f c8ea d2f2 0436
00000090: 09d7 21c0 28e4 28d5 1d3b ef19 d916 b31f
000000a0: b458 40fe eff5 27b5 17de 922a 152a 2810
000000b0: f812 c727 03e2 f7d5 14d7 09f4 0213 2516
000000c0: cfdf f60e 15fb faa8 9931 d615 c320 e0a3
000000d0: d633 18c4 1bfc 0111 cfd4 e713 fc32 d8c5
000000e0: 1ae5 3e08 1c43 06c2 5168 f7f8 21d1 0cc5
000000f0: fd07 b7f0 24bf 3926 27df 10ee 2951 2325
-60 54 70 0 -6 19 70 34
16 -12 -18 20 -47 -92 74 -23
-127 9 38 59 -37 -8 -26 -18
-11 8 -67 14 -2 -59 33 30
-17 41 4 -6 11 -36 5 -38
-48 -48 -42 40 21 -29 11 28
20 -21 62 -78 -69 -68 61 -3
-25 60 82 18 11 -80 4 47
-16 123 59 50 -14 -95 44 -123
-80 14 13 26 -35 18 5 -12
-5 73 92 -18 38 -120 -13 -44
-14 -40 17 23 -4 62 -77 19
21 -31 -30 38 -9 -37 -14 69
21 13 25 -19 -3 22 56 -53
-11 13 -13 17 41 16 -29 2
-24 -37 -41 17 11 -19 -3 3
-17 -39 -86 36 -51 -72 11 -109
-20 47 -56 -22 -46 -14 4 54
9 -41 33 -64 40 -28 40 -43
29 59 -17 25 -39 22 -77 31
-76 88 64 -2 -17 -11 39 -75
23 -34 -110 42 21 42 40 16
-8 18 -57 39 3 -30 -9 -43
20 -41 9 -12 2 19 37 22
-49 -33 -10 14 21 -5 -6 -88
-103 49 -42 21 -61 32 -32 -93
-42 51 24 -60 27 -4 1 17
-49 -44 -25 19 -4 50 -40 -59
26 -27 62 8 28 67 6 -62
81 104 -9 -8 33 -47 12 -59
-3 7 -73 -16 36 -65 57 38
39 -33 16 -18 41 81 35 37

tfl.pseudo_qconst17 i1 [32, 1, 1, 16]
00000000: 199b f7d3 e9ab d0f8 ffca e5cf 7f0c cb14
00000010: d67f 0396 e665 e52e 8aee 5771 8416 ee2b
00000020: cc87 c092 69d3 ab50 caf2 a917 147f 60ca
00000030: 0fa1 e37f 2fe5 43c0 d3c2 ddc1 faf3 11df
00000040: 1d10 c906 c52a cc3c 42f6 c024 057f adaa
00000050: ecf3 dc7f a357 de2b 63f7 4f95 a3ba e5c5
00000060: 7f10 5616 29db 05fe 6600 14fe ec2f da76
00000070: 1103 8127 baa8 142f ca81 ffb5 e9cf 01e5
00000080: 680d d820 49ad 7810 a5d2 e6c9 ac7f d70a
00000090: eadd 96dd cc2e 0fe4 7f37 087a 3008 42b9
000000a0: e773 1e7f 2439 d05f 1eef 4c2c 6443 0d26
000000b0: aa2b c612 c31d cded 6c5e 097f f42d 270e
000000c0: 2f10 4524 c1a7 ee7f 070b 52c1 9ddf f51e
000000d0: 67de 7f0e fbc6 3ae4 e3d9 325b ee28 3b04
000000e0: f3d0 1790 a85e 72c9 cbdf 7e7f d021 77aa
000000f0: d842 13ed 81b2 391b 43c4 4786 9ecc 0ab2
25 -101 -9 -45 -23 -85 -48 -8
-1 -54 -27 -49 127 12 -53 20
-42 127 3 -106 -26 101 -27 46
-118 -18 87 113 -124 22 -18 43
-52 -121 -64 -110 105 -45 -85 80
-54 -14 -87 23 20 127 96 -54
15 -95 -29 127 47 -27 67 -64
-45 -62 -35 -63 -6 -13 17 -33
29 16 -55 6 -59 42 -52 60
66 -10 -64 36 5 127 -83 -86
-20 -13 -36 127 -93 87 -34 43
99 -9 79 -107 -93 -70 -27 -59
127 16 86 22 41 -37 5 -2
102 0 20 -2 -20 47 -38 118
17 3 -127 39 -70 -88 20 47
-54 -127 -1 -75 -23 -49 1 -27
104 13 -40 32 73 -83 120 16
-91 -46 -26 -55 -84 127 -41 10
-22 -35 -106 -35 -52 46 15 -28
127 55 8 122 48 8 66 -71
-25 115 30 127 36 57 -48 95
30 -17 76 44 100 67 13 38
-86 43 -58 18 -61 29 -51 -19
108 94 9 127 -12 45 39 14
47 16 69 36 -63 -89 -18 127
7 11 82 -63 -99 -33 -11 30
103 -34 127 14 -5 -58 58 -28
-29 -39 50 91 -18 40 59 4
-13 -48 23 -112 -88 94 114 -55
-53 -33 126 127 -48 33 119 -86
-40 66 19 -19 -127 -78 57 27
67 -60 71 -122 -98 -52 10 -78

tfl.pseudo_qconst19 i1 [32, 3, 3, 32]
00000000: 0449 b2fc ded6 b50f 2ec8 2fdf dbc9 ce1a
00000010: de95 e636 e9e6 2739 fedf 2cf7 31d8 0dfe
00000020: 242b d612 0fe7 f8cf 3dc3 1f8a f4a4 81d6
00000030: 2caa 2a02 eaea 9d01 fbc5 06d5 f1ef 021b
00000040: 429a 4bf3 e11e eaf5 f9d9 f618 e114 1593
00000050: 2edd 3e0b 0b18 e7b0 00f7 d7e6 1bb3 0721
00000060: 7700 350b 5338 1732 e603 21fa 34df 362e
00000070: 0aaa b827 dfdc e701 1412 4343 62f7 0c1e
00000080: f1f7 affb dc48 f306 0814 edcd 29ef 1319
00000090: 08f7 f700 3409 04f6 0f08 451f 05ed 0123
000000a0: f439 e627 1b34 0c17 aeee 2b52 f71d 1ae4
000000b0: ad34 2217 0fdc d0f2 0656 ee44 f2f6 c00c
000000c0: 29d1 de08 e150 0137 06c6 3929 ed22 0417
000000d0: fdfb 0322 3309 1ded 072b 26c4 f5ad cf24
000000e0: 15fd e0fd 2b43 3331 f02c de18 210e fdf5
000000f0: cdb3 06bf 3925 3653 f009 2f24 f1e4 b40e
4 73 -78 -4 -34 -42 -75 15
46 -56 47 -33 -37 -55 -50 26
-34 -107 -26 54 -23 -26 39 57
-2 -33 44 -9 49 -40 13 -2
36 43 -42 18 15 -25 -8 -49
61 -61 31 -118 -12 -92 -127 -42
44 -86 42 2 -22 -22 -99 1
-5 -59 6 -43 -15 -17 2 27
66 -102 75 -13 -31 30 -22 -11
-7 -39 -10 24 -31 20 21 -109
46 -35 62 11 11 24 -25 -80
0 -9 -41 -26 27 -77 7 33
119 0 53 11 83 56 23 50
-26 3 33 -6 52 -33 54 46
10 -86 -72 39 -33 -36 -25 1
20 18 67 67 98 -9 12 30
-15 -9 -81 -5 -36 72 -13 6
8 20 -19 -51 41 -17 19 25
8 -9 -9 0 52 9 4 -10
15 8 69 31 5 -19 1 35
-12 57 -26 39 27 52 12 23
-82 -18 43 82 -9 29 26 -28
-83 52 34 23 15 -36 -48 -14
6 86 -18 68 -14 -10 -64 12
41 -47 -34 8 -31 80 1 55
6 -58 57 41 -19 34 4 23
-3 -5 3 34 51 9 29 -19
7 43 38 -60 -11 -83 -49 36
21 -3 -32 -3 43 67 51 49
-16 44 -34 24 33 14 -3 -11
-51 -77 6 -65 57 37 54 83
-16 9 47 36 -15 -28 -76 14

tfl.pseudo_qconst21 i1 [32, 3, 3, 16]
00000000: 3ee5 58ed e325 c5bf 1bce 19c2 57fd dcc9
00000010: e77b 2e5a 6bf7 2d3c 4ed1 ece4 0148 c5b9
00000020: 3a7f f546 fdd1 c450 ef6a 56d0 5feb f5ad
00000030: f4f3 0023 f1e5 f3e4 44fc 45e8 260e 5179
00000040: bd2d e62c bbf2 e2dc 30b0 c340 0433 c92c
00000050: d310 1afd 2209 9a1b d90f d53a 134c acf4
00000060: 9b04 0dda 3f62 446b b9fc ebd4 3f5b 2539
00000070: 9f0f 0928 38ca 0735 00ec e7d7 ba4e f72d
00000080: ccfa 1e13 ffc1 df9f d72e f309 bf43 f2e2
00000090: 0bf2 e9e4 4c27 d91c 183b 11eb 3f1f c693
000000a0: 033c eded 252c db3c f3e7 25ef 54dd c7f6
000000b0: 343f c128 0b12 bc09 13b6 32ec 42d3 b90f
000000c0: 0409 11d2 12e9 def8 ef44 0ddc 17f6 2cb6
000000d0: d721 fbc9 dce7 e6d3 f11c 21c8 0f35 f2ac
000000e0: 50ec f2df 01e3 f51b 21d3 2702 4fcc 9d36
000000f0: e4de d781 54d4 e332 db29 7521 3e15 00d9
62 -27 88 -19 -29 37 -59 -65
27 -50 25 -62 87 -3 -36 -55
-25 123 46 90 107 -9 45 60
78 -47 -20 -28 1 72 -59 -71
58 127 -11 70 -3 -47 -60 80
-17 106 86 -48 95 -21 -11 -83
-12 -13 0 35 -15 -27 -13 -28
68 -4 69 -24 38 14 81 121
-67 45 -26 44 -69 -14 -30 -36
48 -80 -61 64 4 51 -55 44
-45 16 26 -3 34 9 -102 27
-39 15 -43 58 19 76 -84 -12
-101 4 13 -38 63 98 68 107
-71 -4 -21 -44 63 91 37 57
-97 15 9 40 56 -54 7 53
0 -20 -25 -41 -70 78 -9 45
-52 -6 30 19 -1 -63 -33 -97
-41 46 -13 9 -65 67 -14 -30
11 -14 -23 -28 76 39 -39 28
24 59 17 -21 63 31 -58 -109
3 60 -19 -19 37 44 -37 60
-13 -25 37 -17 84 -35 -57 -10
52 63 -63 40 11 18 -68 9
19 -74 50 -20 66 -45 -71 15
4 9 17 -46 18 -23 -34 -8
-17 68 13 -36 23 -10 44 -74
-41 33 -5 -55 -36 -25 -26 -45
-15 28 33 -56 15 53 -14 -84
80 -20 -14 -33 1 -29 -11 27
33 -45 39 2 79 -52 -99 54
-28 -34 -41 -127 84 -44 -29 50
-37 41 117 33 62 21 0 -39

tfl.pseudo_qconst23 i1 [16, 3, 3, 16]
00000000: 1305 1404 d2fd 0eca 45b7 0df2 2f13 d2ea
00000010: f2e2 152f 3cd1 14f4 25eb 27b4 e2d3 04e2
00000020: b023 b405 0a28 d117 e4a6 cde6 fe21 fcca
00000030: 33f0 d0c3 31fd eff5 2d15 2ad7 dfd6 0bf1
00000040: bafc d7e8 9a39 c8f3 d61d f7de dfce 27c2
00000050: 1e26 f4fa c5e7 f5f3 cd3d fc9b c8ea 0ddd
00000060: 285a 2bea d6f0 b8e0 25f4 4fc5 befa 30e1
00000070: 0408 2731 0820 f70d e323 e8dc f121 eb0a
00000080: 5436 0adc 352c 1732 d31b 1d81 3928 ec0b
00000090: 2b4e 13cd 2220 4504 e6f1 1942 eb12 a4de
000000a0: 2bf3 f1d7 4d17 e13d f9fb f4ff 2dd5 e7e8
000000b0: 0c0c 0eb1 ca36 e2c7 fb32 da03 fd45 81d7
000000c0: 7bee f0cb 27ff 390b 1bb9 efe8 3af8 341f
000000d0: fdbe 2ba2 b3f7 18dc 520a 38e6 d108 e708
000000e0: 1df6 cbeb f8a5 fba2 e615 c3d6 4201 3ce0
000000f0: 4a3c 411f bfda 5bc7 2ceb 61fc 3def f7fd
19 5 20 4 -46 -3 14 -54
69 -73 13 -14 47 19 -46 -22
-14 -30 21 47 60 -47 20 -12
37 -21 39 -76 -30 -45 4 -30
-80 35 -76 5 10 40 -47 23
-28 -90 -51 -26 -2 33 -4 -54
51 -16 -48 -61 49 -3 -17 -11
45 21 42 -41 -33 -42 11 -15
-70 -4 -41 -24 -102 57 -56 -13
-42 29 -9 -34 -33 -50 39 -62
30 38 -12 -6 -59 -25 -11 -13
-51 61 -4 -101 -56 -22 13 -35
40 90 43 -22 -42 -16 -72 -32
37 -12 79 -59 -66 -6 48 -31
4 8 39 49 8 32 -9 13
-29 35 -24 -36 -15 33 -21 10
84 54 10 -36 53 44 23 50
-45 27 29 -127 57 40 -20 11
43 78 19 -51 34 32 69 4
-26 -15 25 66 -21 18 -92 -34
43 -13 -15 -41 77 23 -31 61
-7 -5 -12 -1 45 -43 -25 -24
12 12 14 -79 -54 54 -30 -57
-5 50 -38 3 -3 69 -127 -41
123 -18 -16 -53 39 -1 57 11
27 -71 -17 -24 58 -8 52 31
-3 -66 43 -94 -77 -9 24 -36
82 10 56 -26 -47 8 -25 8
29 -10 -53 -21 -8 -91 -5 -94
-26 21 -61 -42 66 1 60 -32
74 60 65 31 -65 -38 91 -57
44 -21 97 -4 61 -17 -9 -3

tfl.pseudo_qconst25 i1 [16, 3, 3, 16]
00000000: cec2 074c 39ed 39e1 e7be 22f9 bc12 f329
00000010: c4d0 e405 fc0a 10cf 73d1 57fb 083c c163
00000020: cc34 f301 36c3 2e1e 412b 33f9 0a20 e6e9
00000030: a320 d5d5 4735 08bb 4aaf 0bef 1428 14e5
00000040: c3c8 ef57 e40c ddd8 1b0b 4ac4 292a e115
00000050: 8121 db48 09b9 f411 1101 da16 62e7 3552
00000060: efe6 ce20 1ed9 d506 d613 2fd8 1620 ede8
00000070: fa32 0b27 2f5f b006 af20 41c0 60ef 1618
00000080: 0156 d8ff ef51 35e3 dde9 2719 29d2 3b34
00000090: 10b4 302f 1ecf 7e5c f5ef 42b9 ebc5 3e15
000000a0: a0ee 13fa 03e6 5af6 6906 1915 09b8 180e
000000b0: dad9 6113 25e4 593c 0a43 cd95 56e5 c3ba
000000c0: a3f8 f1e5 0fea 5a42 121c 35c6 fb16 5753
000000d0: bd35 3108 c229 e5ce dfdd 2e4e e32c bc7f
000000e0: 62fe 3612 2b2c 5d13 4c2e 4c14 dc68 afa3
000000f0: 9417 62e3 060e 02bd d7af 13b1 3944 99f8
-50 -62 7 76 57 -19 57 -31
-25 -66 34 -7 -68 18 -13 41
-60 -48 -28 5 -4 10 16 -49
115 -47 87 -5 8 60 -63 99
-52 52 -13 1 54 -61 46 30
65 43 51 -7 10 32 -26 -23
-93 32 -43 -43 71 53 8 -69
74 -81 11 -17 20 40 20 -27
-61 -56 -17 87 -28 12 -35 -40
27 11 74 -60 41 42 -31 21
-127 33 -37 72 9 -71 -12 17
17 1 -38 22 98 -25 53 82
-17 -26 -50 32 30 -39 -43 6
-42 19 47 -40 22 32 -19 -24
-6 50 11 39 47 95 -80 6
-81 32 65 -64 96 -17 22 24
1 86 -40 -1 -17 81 53 -29
-35 -23 39 25 41 -46 59 52
16 -76 48 47 30 -49 126 92
-11 -17 66 -71 -21 -59 62 21
-96 -18 19 -6 3 -26 90 -10
105 6 25 21 9 -72 24 14
-38 -39 97 19 37 -28 89 60
10 67 -51 -107 86 -27 -61 -70
-93 -8 -15 -27 15 -22 90 66
18 28 53 -58 -5 22 87 83
-67 53 49 8 -62 41 -27 -50
-33 -35 46 78 -29 44 -68 127
98 -2 54 18 43 44 93 19
76 46 76 20 -36 104 -81 -93
-108 23 98 -29 6 14 2 -67
-41 -81 19 -79 57 68 -103 -8

tfl.pseudo_qconst27 i1 [16, 3, 3, 16]
00000000: f05a afe8 1516 5dce 2de4 f0d6 c6dc ecd3
00000010: 193f e6fc 212b 33ca 49da fcc0 81fa a8b4
00000020: 4de0 f102 e112 1cd9 f42e e301 e347 b0b6
00000030: f630 04ed 0519 d5c5 c312 f51e c0d3 0f21
00000040: 2756 c622 fafe 1dfc 06fe 0117 9eee e03d
00000050: 2b12 0d43 dce9 5326 22c8 3dd9 f1fd d8e1
00000060: cc0d 13ca 42c7 5108 c8ee d426 28d6 da44
00000070: 051e ddf9 0bdb eef2 fc20 ef1c cad2 fa35
00000080: 402e 2712 18e8 f91f f5fb 1346 e7cb 0237
00000090: edc7 9026 0109 17bb 060e da10 6024 261d
000000a0: 14d0 da03 16dd 41cf 1743 02a8 de0f 0e09
000000b0: c684 7f52 f6ba 0cda 1d35 da1e 4419 03f8
000000c0: b757 1bbf 28e3 48c1 1ef0 9f4b e1bd 33dd
000000d0: 0029 e627 f314 11d5 aa51 ba0b 0a12 330e
000000e0: 0705 5ea9 d6df f6e7 0044 1c13 6db4 5acf
000000f0: 3009 bbbd e0d6 57c3 dff7 2a51 3a2a e43d
-16 90 -81 -24 21 22 93 -50
45 -28 -16 -42 -58 -36 -20 -45
25 63 -26 -4 33 43 51 -54
73 -38 -4 -64 -127 -6 -88 -76
77 -32 -15 2 -31 18 28 -39
-12 46 -29 1 -29 71 -80 -74
-10 48 4 -19 5 25 -43 -59
-61 18 -11 30 -64 -45 15 33
39 86 -58 34 -6 -2 29 -4
6 -2 1 23 -98 -18 -32 61
43 18 13 67 -36 -23 83 38
34 -56 61 -39 -15 -3 -40 -31
-52 13 19 -54 66 -57 81 8
-56 -18 -44 38 40 -42 -38 68
5 30 -35 -7 11 -37 -18 -14
-4 32 -17 28 -54 -46 -6 53
64 46 39 18 24 -24 -7 31
-11 -5 19 70 -25 -53 2 55
-19 -57 -112 38 1 9 23 -69
6 14 -38 16 96 36 38 29
20 -48 -38 3 22 -35 65 -49
23 67 2 -88 -34 15 14 9
-58 -124 127 82 -10 -70 12 -38
29 53 -38 30 68 25 3 -8
-73 87 27 -65 40 -29 72 -63
30 -16 -97 75 -31 -67 51 -35
0 41 -26 39 -13 20 17 -43
-86 81 -70 11 10 18 51 14
7 5 94 -87 -42 -33 -10 -25
0 68 28 19 109 -76 90 -49
48 9 -69 -67 -32 -42 87 -61
-33 -9 42 81 58 42 -28 61

tfl.pseudo_qconst29 i1 [16, 3, 3, 16]
00000000: c62f f3f5 1537 18fc a0a2 c918 03dd 302f
00000010: d611 2aca e323 41e9 d0b1 96f9 199c 1871
00000020: c40a 3f41 fc3a f2b8 fc22 43d0 5153 ec08
00000030: 4a24 4e5c f73d 333e ee08 42cb fb81 10c9
00000040: 52e6 de6b dc4f 12d1 1c14 361a e7c9 59b7
00000050: 0a3b f7e1 0f49 2520 123a 31e8 70c9 235d
00000060: 5b30 e624 53cb 474d 1324 c4af e68e 5799
00000070: 25b2 28d2 293b e9fa 0ab9 3233 fa96 5d54
00000080: 41fc e90e f825 f302 38d7 e8dd ce01 5beb
00000090: 33e1 d60f f3e3 de12 1cfd dad8 01d3 23f1
000000a0: dcf5 eaf2 bbf4 4116 f5f7 f8d9 1ddd efe2
000000b0: c8cf 1404 1cf1 0dfc e1f6 11d1 1123 ed1d
000000c0: 04ff e005 f408 0a30 19fa bbef f34b 11ff
000000d0: 03e8 a7ee bf33 ed32 0b42 1af3 1411 ebf3
000000e0: 1006 b3fd 0c0d f910 fd19 25cf 60e4 2419
000000f0: eec0 feff 2c4a f2d9 3aed e5f3 81fc f500
-58 47 -13 -11 21 55 24 -4
-96 -94 -55 24 3 -35 48 47
-42 17 42 -54 -29 35 65 -23
-48 -79 -106 -7 25 -100 24 113
-60 10 63 65 -4 58 -14 -72
-4 34 67 -48 81 83 -20 8
74 36 78 92 -9 61 51 62
-18 8 66 -53 -5 -127 16 -55
82 -26 -34 107 -36 79 18 -47
28 20 54 26 -25 -55 89 -73
10 59 -9 -31 15 73 37 32
18 58 49 -24 112 -55 35 93
91 48 -26 36 83 -53 71 77
19 36 -60 -81 -26 -114 87 -103
37 -78 40 -46 41 59 -23 -6
10 -71 50 51 -6 -106 93 84
65 -4 -23 14 -8 37 -13 2
56 -41 -24 -35 -50 1 91 -21
51 -31 -42 15 -13 -29 -34 18
28 -3 -38 -40 1 -45 35 -15
-36 -11 -22 -14 -69 -12 65 22
-11 -9 -8 -39 29 -35 -17 -30
-56 -49 20 4 28 -15 13 -4
-31 -10 17 -47 17 35 -19 29
4 -1 -32 5 -12 8 10 48
25 -6 -69 -17 -13 75 17 -1
3 -24 -89 -18 -65 51 -19 50
11 66 26 -13 20 17 -21 -13
16 6 -77 -3 12 13 -7 16
-3 25 37 -49 96 -28 36 25
-18 -64 -2 -1 44 74 -14 -39
58 -19 -27 -13 -127 -4 -11 0

tfl.pseudo_qconst31 i1 [16, 3, 3, 3]
00000000: 0809 b537 d681 3427 e7e0 a6c1 831a 7af1
00000010: 056e 299f f1f9 f211 b93f 0839 ad69 d0cf
00000020: fbf9 cbfa 7fab f9eb 58ee 4ad9 4deb 07b5
00000030: 2fc7 1842 1704 313a 8537 1b0c f2d2 f25c
00000040: 033f f25b efb7 e581 d4f2 2606 fcf5 ca17
00000050: 2721 3917 12de 3b30 c00c 73b0 e9ee 157f
00000060: ed1d 033a e705 27fe 16d7 5531 8382 5e4c
00000070: 1c0b 9488 ebaa 6e43 008c 0d6f f601 e522
00000080: 517f 49d3 4a46 ee5f b517 fec9 ed2a 7fe3
00000090: eb15 54c3 d578 fc4a bff5 d605 af36 fe13
000000a0: ecbc cdae 18c9 5408 b57c 543c 8e48 41f7
000000b0: 109e d063 6fd5 dcf5 9193 397f 09b2 30e6
000000c0: d8d9 7fbf e11c b70e f4b3 7f30 c9e9 c1f7
000000d0: d425 d6e4 132b daf9 42b0 e70c d7c8 46d2
000000e0: 6e03 81fb 38c1 3535 2817 2015 3f34 d202
000000f0: 34cc de48 ee08 7edc afec 4f20 8fc9 6088
8 9 -75 55 -42 -127 52 39
-25 -32 -90 -63 -125 26 122 -15
5 110 41 -97 -15 -7 -14 17
-71 63 8 57 -83 105 -48 -49
-5 -7 -53 -6 127 -85 -7 -21
88 -18 74 -39 77 -21 7 -75
47 -57 24 66 23 4 49 58
-123 55 27 12 -14 -46 -14 92
3 63 -14 91 -17 -73 -27 -127
-44 -14 38 6 -4 -11 -54 23
39 33 57 23 18 -34 59 48
-64 12 115 -80 -23 -18 21 127
-19 29 3 58 -25 5 39 -2
22 -41 85 49 -125 -126 94 76
28 11 -108 -120 -21 -86 110 67
0 -116 13 111 -10 1 -27 34
81 127 73 -45 74 70 -18 95
-75 23 -2 -55 -19 42 127 -29
-21 21 84 -61 -43 120 -4 74
-65 -11 -42 5 -81 54 -2 19
-20 -68 -51 -82 24 -55 84 8
-75 124 84 60 -114 72 65 -9
16 -98 -48 99 111 -43 -36 -11
-111 -109 57 127 9 -78 48 -26
-40 -39 127 -65 -31 28 -73 14
-12 -77 127 48 -55 -23 -63 -9
-44 37 -42 -28 19 43 -38 -7
66 -80 -25 12 -41 -56 70 -46
110 3 -127 -5 56 -63 53 53
40 23 32 21 63 52 -46 2
52 -52 -34 72 -18 8 126 -36
-81 -20 79 32 -113 -55 96 -120
