HW6/mobileNet/mobilenet_mnist_int8.tflite (tflite, 628288 bytes, 53 tensors)

tfl.pseudo_qconst1 i1 [10, 1280]
40 10 9 43 31 4 24 28
33 -21 -43 -12 30 -1 25 26
52 -19 3 -23 20 17 -8 -19
-22 -22 -69 -3 -36 5 -7 -7
-10 -48 34 25 -25 -41 -101 -16
-19 34 -1 35 -100 -18 -21 -26
-13 31 -51 9 1 38 -14 -23
27 42 -14 -24 -26 -44 18 -7
-63 33 -48 -37 -31 -54 -40 -27
3 -41 -68 -41 4 -28 47 33
-15 43 -39 16 -46 -112 -51 11
34 -58 -37 39 60 -31 53 -32
-9 -8 15 -88 -31 40 44 -15
-22 -28 26 43 -43 53 -16 -26
-66 -16 -25 -17 4 -42 14 26
24 1 32 -5 -8 -30 15 -28
-25 27 34 -17 7 12 -24 -30
-23 -80 19 1 -45 -19 5 45
-42 -66 -24 2 -17 30 -41 5
-9 -7 -42 27 11 5 -16 -55
18 34 -9 26 2 -9 46 -24
51 -2 -14 11 -10 22 -2 20
45 -47 -33 -41 29 -18 33 0
38 17 8 -92 24 -30 25 39
-73 -36 -35 15 5 26 -42 27
-59 -6 -17 -12 -3 -45 11 0
22 -67 -4 43 -14 28 35 -26
8 52 0 24 -45 -4 -53 -55
3 -1 -54 15 -27 41 -3 -22
48 3 -26 -33 -18 -4 -15 7
-11 12 -27 29 1 36 -41 -55
30 -30 -53 -45 -37 -12 33 -6
00000000: 280a 092b 1f04 181c 21eb d5f4 1eff 191a
00000010: 34ed 03e9 1411 f8ed eaea bbfd dc05 f9f9
00000020: f6d0 2219 e7d7 9bf0 ed22 ff23 9cee ebe6
00000030: f31f cd09 0126 f2e9 1b2a f2e8 e6d4 12f9
00000040: c121 d0db e1ca d8e5 03d7 bcd7 04e4 2f21
00000050: f12b d910 d290 cd0b 22c6 db27 3ce1 35e0
00000060: f7f8 0fa8 e128 2cf1 eae4 1a2b d535 f0e6
00000070: bef0 e7ef 04d6 0e1a 1801 20fb f8e2 0fe4
00000080: e71b 22ef 070c e8e2 e9b0 1301 d3ed 052d
00000090: d6be e802 ef1e d705 f7f9 d61b 0b05 f0c9
000000a0: 1222 f71a 02f7 2ee8 33fe f20b f616 fe14
000000b0: 2dd1 dfd7 1dee 2100 2611 08a4 18e2 1927
000000c0: b7dc dd0f 051a d61b c5fa eff4 fdd3 0b00
000000d0: 16bd fc2b f21c 23e6 0834 0018 d3fc cbc9
000000e0: 03ff ca0f e529 fdea 3003 e6df eefc f107
000000f0: f50c e51d 0124 d7c9 1ee2 cbd3 dbf4 21fa

tfl.pseudo_qconst3 i1 [1280, 1, 1, 112]
-84 77 -82 66 27 -31 -8 25
-16 -22 -86 -80 -52 16 23 -107
-5 -33 28 75 -100 -97 -35 -63
89 79 119 -30 28 -42 78 -41
-37 -44 -18 -25 0 43 -81 26
-15 -33 -127 -27 -4 60 -44 26
-38 -67 69 27 -35 86 18 -62
17 28 -38 -71 -29 26 -23 54
-14 58 29 -4 -61 -69 -47 58
4 -3 35 -10 40 -82 -43 41
-2 49 16 -63 27 6 17 -3
-3 63 -85 17 -28 -125 -11 24
-34 98 -30 -64 -12 -97 16 22
37 41 85 -1 -10 37 52 -30
-78 -45 54 -22 -43 73 36 -2
-47 7 33 5 -98 -34 -55 -3
16 -108 23 -84 -66 -127 -1 18
98 42 53 17 -46 -51 -78 26
19 8 64 -42 -63 -32 -56 53
-51 66 29 38 52 -100 -48 20
-75 -77 5 -63 -10 -30 7 12
31 33 -45 0 33 -43 -13 -23
-69 -16 -15 29 -82 -39 16 -50
-17 -28 23 30 5 -23 -83 -75
-65 -84 79 35 -59 -49 -18 -47
71 43 -94 62 20 -62 15 42
-20 -77 4 -38 -120 -25 40 -37
-34 -42 25 54 44 -15 5 28
-23 86 -75 63 -90 74 26 0
50 -62 -94 79 35 -122 36 -77
-120 -27 -95 -39 -21 -99 -1 -41
27 48 60 46 -84 -50 -64 54
00000000: ac4d ae42 1be1 f819 f0ea aab0 cc10 1795
00000010: fbdf 1c4b 9c9f ddc1 594f 77e2 1cd6 4ed7
00000020: dbd4 eee7 002b af1a f1df 81e5 fc3c d41a
00000030: dabd 451b dd56 12c2 111c dab9 e31a e936
00000040: f23a 1dfc c3bb d13a 04fd 23f6 28ae d529
00000050: fe31 10c1 1b06 11fd fd3f ab11 e483 f518
00000060: de62 e2c0 f49f 1016 2529 55ff f625 34e2
00000070: b2d3 36ea d549 24fe d107 2105 9ede c9fd
00000080: 1094 17ac be81 ff12 622a 3511 d2cd b21a
00000090: 1308 40d6 c1e0 c835 cd42 1d26 349c d014
000000a0: b5b3 05c1 f6e2 070c 1f21 d300 21d5 f3e9
000000b0: bbf0 f11d aed9 10ce efe4 171e 05e9 adb5
000000c0: bfac 4f23 c5cf eed1 472b a23e 14c2 0f2a
000000d0: ecb3 04da 88e7 28db ded6 1936 2cf1 051c
000000e0: e956 b53f a64a 1a00 32c2 a24f 2386 24b3
000000f0: 88e5 a1d9 eb9d ffd7 1b30 3c2e acce c036

tfl.pseudo_qconst5 i1 [112, 1, 1, 336]
-48 30 95 78 -8 -39 -20 76
-86 -66 -51 -68 -81 4 8 15
62 11 -2 45 -71 -42 7 -50
74 -10 -56 13 -48 -92 -37 16
-53 -15 -66 -65 35 -55 25 11
-64 1 -6 -56 -48 -56 50 72
-6 -57 39 45 -54 -15 72 62
-48 14 -79 -93 -70 -26 -122 3
35 13 52 -44 0 -21 45 -37
36 -77 -95 -71 23 19 50 -70
-28 -56 69 101 -20 0 -21 32
-41 -34 66 -53 4 19 56 -18
4 -94 4 -47 -46 -46 -5 66
-92 -63 -21 -18 70 62 -12 -8
-4 -8 -62 -48 77 -47 54 23
98 -43 12 -26 -28 54 -68 6
-39 45 61 75 -31 -22 19 57
-6 -86 -9 24 12 -45 -94 40
127 -60 -13 9 1 56 21 -43
23 -23 79 18 -66 -32 44 -24
-109 -26 -15 -14 32 10 58 85
19 -71 -58 74 -39 -22 7 -31
76 28 -89 16 23 79 -53 84
53 -34 -32 -69 -93 -90 6 20
68 -87 -67 42 48 69 -24 93
-61 38 -30 43 -10 75 -24 -79
72 -77 -28 -30 -79 12 -14 -35
-11 -19 12 -75 -23 -22 73 -27
66 -98 -46 8 -57 -18 -49 83
25 83 -29 -66 -57 52 4 -44
93 -20 -33 30 -36 -25 -47 24
64 -47 -57 38 -53 36 77 -4
00000000: d01e 5f4e f8d9 ec4c aabe cdbc af04 080f
00000010: 3e0b fe2d b9d6 07ce 4af6 c80d d0a4 db10
00000020: cbf1 bebf 23c9 190b c001 fac8 d0c8 3248
00000030: fac7 272d caf1 483e d00e b1a3 bae6 8603
00000040: 230d 34d4 00eb 2ddb 24b3 a1b9 1713 32ba
00000050: e4c8 4565 ec00 eb20 d7de 42cb 0413 38ee
00000060: 04a2 04d1 d2d2 fb42 a4c1 ebee 463e f4f8
00000070: fcf8 c2d0 4dd1 3617 62d5 0ce6 e436 bc06
00000080: d92d 3d4b e1ea 1339 faaa f718 0cd3 a228
00000090: 7fc4 f309 0138 15d5 17e9 4f12 bee0 2ce8
000000a0: 93e6 f1f2 200a 3a55 13b9 c64a d9ea 07e1
000000b0: 4c1c a710 174f cb54 35de e0bb a3a6 0614
000000c0: 44a9 bd2a 3045 e85d c326 e22b f64b e8b1
000000d0: 48b3 e4e2 b10c f2dd f5ed 0cb5 e9ea 49e5
000000e0: 429e d208 c7ee cf53 1953 e3be c734 04d4
000000f0: 5dec df1e dce7 d118 40d1 c726 cb24 4dfc

tfl.pseudo_qconst7 i1 [1, 3, 3, 336]
-127 19 -85 49 -47 11 -47 6
-106 79 7 71 -101 -121 -24 -32
15 -93 -78 44 -45 107 53 -77
101 5 47 29 -124 62 -127 69
-118 123 111 127 -1 127 -6 -51
63 -42 127 -109 -93 -105 -67 25
31 -42 -114 58 44 25 -92 5
78 -92 -60 21 -104 -101 -30 51
113 84 40 -90 119 -44 34 -73
51 -98 -67 60 85 127 87 -36
92 1 -9 -64 -40 -47 42 -59
101 58 -41 -61 36 65 -127 -34
-72 -71 40 127 36 -30 -54 -74
-30 -102 -49 -72 -110 74 40 7
45 8 127 4 80 -97 -35 13
-58 -109 -54 2 -56 12 81 104
-18 127 80 121 127 -46 86 27
33 -127 -64 -127 92 -18 -25 -19
-83 -62 127 -2 -26 64 117 127
-104 -73 -99 -13 -112 -13 -18 -25
-66 33 88 -42 59 -90 -27 -100
-34 -85 -127 61 125 10 112 60
-103 -92 -62 51 99 -24 -35 74
34 4 -10 -6 105 -32 -12 -45
-127 8 -33 45 -9 31 -103 -25
-11 71 -16 23 -116 -56 66 -117
-3 -60 90 31 6 -127 -74 -103
-79 38 62 -42 127 -42 62 56
-95 -41 42 65 107 0 -58 56
113 -8 74 61 37 -23 21 90
-65 -40 -17 -7 -3 53 -59 66
1 -8 -3 40 34 -118 -23 -60
00000000: 8113 ab31 d10b d106 964f 0747 9b87 e8e0
00000010: 0fa3 b22c d36b 35b3 6505 2f1d 843e 8145
00000020: 8a7b 6f7f ff7f facd 3fd6 7f93 a397 bd19
00000030: 1fd6 8e3a 2c19 a405 4ea4 c415 989b e233
00000040: 7154 28a6 77d4 22b7 339e bd3c 557f 57dc
00000050: 5c01 f7c0 d8d1 2ac5 653a d7c3 2441 81de
00000060: b8b9 287f 24e2 cab6 e29a cfb8 924a 2807
00000070: 2d08 7f04 509f dd0d c693 ca02 c80c 5168
00000080: ee7f 5079 7fd2 561b 2181 c081 5cee e7ed
00000090: adc2 7ffe e640 757f 98b7 9df3 90f3 eee7
000000a0: be21 58d6 3ba6 e59c deab 813d 7d0a 703c
000000b0: 99a4 c233 63e8 dd4a 2204 f6fa 69e0 f4d3
000000c0: 8108 df2d f71f 99e7 f547 f017 8cc8 428b
000000d0: fdc4 5a1f 0681 b699 b126 3ed6 7fd6 3e38
000000e0: a1d7 2a41 6b00 c638 71f8 4a3d 25e9 155a
000000f0: bfd8 eff9 fd35 c542 01f8 fd28 228a e9c4

tfl.pseudo_qconst9 i1 [336, 1, 1, 56]
70 -17 40 91 -92 65 74 6
21 -43 -11 62 116 78 -24 -17
-26 125 127 -106 98 -82 -77 -101
-18 26 14 -60 48 14 1 -92
26 -88 123 109 -64 72 6 70
48 62 58 -5 21 -44 -84 -71
100 52 -39 96 -24 -30 -61 41
84 -92 -42 4 -67 -43 -78 113
-88 -110 -26 10 -13 -60 17 -62
-12 30 21 -36 80 3 -50 -36
-75 -37 23 -76 33 -127 -24 15
82 0 -25 -76 78 6 53 -4
-73 80 -27 52 -11 -8 32 23
27 36 19 95 -11 -15 53 49
11 35 23 -10 40 -34 -35 28
-79 -67 -43 76 -1 -19 3 -37
-39 56 -25 -16 12 3 -95 41
-79 -30 -51 -70 13 -93 55 -35
-93 40 63 -54 14 44 111 15
34 1 -90 41 51 -50 -102 9
67 111 -41 3 -51 127 -36 -60
96 -94 107 8 -127 18 104 -52
57 87 40 -28 -15 -33 -66 45
-70 -96 8 16 98 -61 -5 -19
18 50 38 52 -32 -117 11 -48
73 -36 -79 -68 -96 59 62 0
-123 10 87 71 -99 21 -112 -83
-43 21 15 -7 -24 -5 82 35
-47 46 -1 -32 17 -9 16 48
89 3 -7 -15 -5 31 8 52
44 -91 -100 4 29 15 90 -28
51 127 -93 6 -4 -54 -31 -81
00000000: 46ef 285b a441 4a06 15d5 f53e 744e e8ef
00000010: e67d 7f96 62ae b39b ee1a 0ec4 300e 01a4
00000020: 1aa8 7b6d c048 0646 303e 3afb 15d4 acb9
00000030: 6434 d960 e8e2 c329 54a4 d604 bdd5 b271
00000040: a892 e60a f3c4 11c2 f41e 15dc 5003 cedc
00000050: b5db 17b4 2181 e80f 5200 e7b4 4e06 35fc
00000060: b750 e534 f5f8 2017 1b24 135f f5f1 3531
00000070: 0b23 17f6 28de dd1c b1bd d54c ffed 03db
00000080: d938 e7f0 0c03 a129 b1e2 cdba 0da3 37dd
00000090: a328 3fca 0e2c 6f0f 2201 a629 33ce 9a09
000000a0: 436f d703 cd7f dcc4 60a2 6b08 8112 68cc
000000b0: 3957 28e4 f1df be2d baa0 0810 62c3 fbed
000000c0: 1232 2634 e08b 0bd0 49dc b1bc a03b 3e00
000000d0: 850a 5747 9d15 90ad d515 0ff9 e8fb 5223
000000e0: d12e ffe0 11f7 1030 5903 f9f1 fb1f 0834
000000f0: 2ca5 9c04 1d0f 5ae4 337f a306 fcca e1af

tfl.pseudo_qconst11 i1 [56, 1, 1, 336]
-80 -7 -21 13 -45 -41 -42 -78
50 -51 -84 -46 -54 -20 9 23
-84 -20 -7 -40 -46 49 21 53
-50 -67 47 16 -60 65 73 55
18 -34 -4 -65 -69 -41 35 62
-54 11 16 -22 -41 -28 37 15
-12 79 -5 56 65 11 -39 42
-56 33 26 -5 10 29 -13 -6
7 20 -64 11 -41 -101 -36 40
25 47 17 74 -86 -75 -25 -124
11 6 -84 43 48 -45 42 62
-57 76 -63 -57 39 -81 55 -57
-31 -49 -63 31 -31 35 -45 27
42 48 -56 -60 -66 -23 -22 66
26 72 -48 45 -8 -54 44 31
-108 79 4 60 -9 30 12 -21
76 14 -28 79 -82 20 46 24
40 -13 -14 17 -10 -1 -40 7
-25 3 -25 38 -66 52 -37 -24
11 -7 61 29 6 6 88 68
81 -22 80 36 9 -74 -64 -13
3 1 -37 21 62 -97 -33 -74
-7 10 76 18 -34 63 -46 76
-28 -26 15 -91 22 28 48 61
-53 54 -4 42 45 -12 -35 73
-34 -105 -60 67 -10 81 -104 26
-62 -74 -44 -49 -43 -56 66 -21
-47 72 58 -55 13 -37 27 69
39 -21 77 -64 75 -84 76 -127
90 -31 -54 5 15 -77 44 -37
49 -24 -14 53 -36 -75 -17 -6
32 20 -65 -23 -17 44 44 -93
00000000: b0f9 eb0d d3d7 d6b2 32cd acd2 caec 0917
00000010: acec f9d8 d231 1535 cebd 2f10 c441 4937
00000020: 12de fcbf bbd7 233e ca0b 10ea d7e4 250f
00000030: f44f fb38 410b d92a c821 1afb 0a1d f3fa
00000040: 0714 c00b d79b dc28 192f 114a aab5 e784
00000050: 0b06 ac2b 30d3 2a3e c74c c1c7 27af 37c7
00000060: e1cf c11f e123 d31b 2a30 c8c4 bee9 ea42
00000070: 1a48 d02d f8ca 2c1f 944f 043c f71e 0ceb
00000080: 4c0e e44f ae14 2e18 28f3 f211 f6ff d807
00000090: e703 e726 be34 dbe8 0bf9 3d1d 0606 5844
000000a0: 51ea 5024 09b6 c0f3 0301 db15 3e9f dfb6
000000b0: f90a 4c12 de3f d24c e4e6 0fa5 161c 303d
000000c0: cb36 fc2a 2df4 dd49 de97 c443 f651 981a
000000d0: c2b6 d4cf d5c8 42eb d148 3ac9 0ddb 1b45
000000e0: 27eb 4dc0 4bac 4c81 5ae1 ca05 0fb3 2cdb
000000f0: 31e8 f235 dcb5 effa 2014 bfe9 ef2c 2ca3

tfl.pseudo_qconst13 i1 [1, 3, 3, 336]
19 5 -92 95 118 -22 57 127
10 -71 29 110 -55 50 36 72
75 -21 -101 27 -41 126 -100 83
-10 7 -127 -127 13 41 -110 -70
120 116 -37 -17 -48 -89 -95 6
95 26 -94 48 -76 -10 -127 85
-78 -127 -127 24 24 -69 76 91
112 -77 -17 84 69 -117 -88 -35
40 -51 -127 -56 -127 -71 -47 127
-75 91 94 -85 -66 -12 126 44
127 -32 109 -126 57 -61 71 -127
94 -85 -23 24 -86 64 -12 126
25 51 63 78 127 -49 -41 126
-29 127 56 -118 -69 -13 19 89
-30 -76 69 105 -13 58 -127 67
63 93 70 -3 -127 22 107 42
17 53 75 75 88 -92 61 -31
36 -47 121 85 34 38 -124 -77
4 57 -36 -15 120 -75 -89 -108
-59 107 54 -8 -102 -72 87 -34
24 -7 -27 -21 -30 -67 -114 26
57 27 -74 32 -13 92 -77 -39
-2 -86 58 -62 -119 21 54 51
67 -6 99 -27 111 127 19 47
-71 -44 -59 30 -38 127 -87 111
44 -53 -17 -16 -26 -105 -30 -89
100 59 -127 -127 -60 42 73 -39
-100 -28 30 -32 -81 86 -44 -87
-119 -113 34 -50 27 -63 54 57
-125 64 -75 -47 42 113 63 17
81 -32 56 18 -94 -31 88 9
-87 -127 -18 -6 -8 -41 20 58
00000000: 1305 a45f 76ea 397f 0ab9 1d6e c932 2448
00000010: 4beb 9b1b d77e 9c53 f607 8181 0d29 92ba
00000020: 7874 dbef d0a7 a106 5f1a a230 b4f6 8155
00000030: b281 8118 18bb 4c5b 70b3 ef54 458b a8dd
00000040: 28cd 81c8 81b9 d17f b55b 5eab bef4 7e2c
00000050: 7fe0 6d82 39c3 4781 5eab e918 aa40 f47e
00000060: 1933 3f4e 7fcf d77e e37f 388a bbf3 1359
00000070: e2b4 4569 f33a 8143 3f5d 46fd 8116 6b2a
00000080: 1135 4b4b 58a4 3de1 24d1 7955 2226 84b3
00000090: 0439 dcf1 78b5 a794 c56b 36f8 9ab8 57de
000000a0: 18f9 e5eb e2bd 8e1a 391b b620 f35c b3d9
000000b0: feaa 3ac2 8915 3633 43fa 63e5 6f7f 132f
000000c0: b9d4 c51e da7f a96f 2ccb eff0 e697 e2a7
000000d0: 643b 8181 c42a 49d9 9ce4 1ee0 af56 d4a9
000000e0: 898f 22ce 1bc1 3639 8340 b5d1 2a71 3f11
000000f0: 51e0 3812 a2e1 5809 a981 eefa f8d7 143a

tfl.pseudo_qconst15 i1 [336, 1, 1, 56]
-30 -8 0 -55 18 -30 52 71
69 60 44 -13 2 -42 -54 -60
-95 80 42 -67 -3 -16 53 -107
37 -51 -78 -11 64 -79 26 6
-31 30 -63 -43 -73 -80 -37 46
-42 -19 65 -100 -35 -49 -4 85
-70 -75 -105 -19 -74 127 55 95
-73 -23 -79 -82 58 -84 59 96
-76 -61 -101 57 -71 -83 -95 104
-7 12 29 35 -23 11 -28 -100
-63 65 16 -20 78 -24 -83 -25
-3 -62 37 83 10 106 -90 -95
21 -84 127 4 -29 96 -26 -23
-43 110 -55 -48 -54 -75 58 38
112 -97 89 -93 17 -41 -20 -52
10 86 -9 -2 84 -89 -101 -99
78 -48 -84 35 -99 -110 38 42
-62 73 97 -44 34 -90 43 88
-106 -89 50 59 -18 -50 -15 -97
-70 44 80 -47 97 13 -81 71
-127 -55 -67 -75 64 127 20 113
75 -105 25 -59 -68 104 85 -100
-78 46 -96 127 -32 -102 -81 -41
116 28 -66 45 -81 11 -21 -90
64 50 -104 -7 85 -86 -66 61
-55 -69 -74 44 -10 93 -94 -21
57 81 85 -80 -21 9 -96 114
1 -18 110 95 25 92 -63 -125
-102 -71 19 -61 76 -79 -99 -126
51 -40 -91 -118 10 -123 -19 2
-12 -18 50 -43 -62 78 78 -7
-4 70 55 -123 9 -63 123 60
00000000: e2f8 00c9 12e2 3447 453c 2cf3 02d6 cac4
00000010: a150 2abd fdf0 3595 25cd b2f5 40b1 1a06
00000020: e11e c1d5 b7b0 db2e d6ed 419c ddcf fc55
00000030: bab5 97ed b67f 375f b7e9 b1ae 3aac 3b60
00000040: b4c3 9b39 b9ad a168 f90c 1d23 e90b e49c
00000050: c141 10ec 4ee8 ade7 fdc2 2553 0a6a a6a1
00000060: 15ac 7f04 e360 e6e9 d56e c9d0 cab5 3a26
00000070: 709f 59a3 11d7 eccc 0a56 f7fe 54a7 9b9d
00000080: 4ed0 ac23 9d92 262a c249 61d4 22a6 2b58
00000090: 96a7 323b eece f19f ba2c 50d1 610d af47
000000a0: 81c9 bdb5 407f 1471 4b97 19c5 bc68 559c
000000b0: b22e a07f e09a afd7 741c be2d af0b eba6
000000c0: 4032 98f9 55aa be3d c9bb b62c f65d a2eb
000000d0: 3951 55b0 eb09 a072 01ee 6e5f 195c c183
000000e0: 9ab9 13c3 4cb1 9d82 33d8 a58a 0a85 ed02
000000f0: f4ee 32d5 c24e 4ef9 fc46 3785 09c1 7b3c

tfl.pseudo_qconst17 i1 [56, 1, 1, 336]
-67 23 23 -32 -7 -15 -35 91
-59 -30 73 -22 4 -92 48 -33
-65 47 -83 9 -58 12 7 89
82 93 58 16 -66 -60 -33 9
30 -3 88 9 77 -19 -100 32
-15 61 -20 -105 77 -87 -13 11
14 -91 65 71 -67 55 127 -80
-113 47 -39 -41 84 95 -76 29
28 -17 10 -11 34 50 33 -77
74 -13 48 60 -32 4 -28 -25
75 -15 20 56 16 -101 -41 -39
36 18 43 -90 47 23 1 -30
32 50 -33 -70 37 13 36 -25
9 36 63 -33 -37 -21 -39 -32
-58 75 49 -67 -83 5 6 6
-60 30 34 53 78 38 22 58
32 93 102 -46 -29 -38 -31 60
28 33 -51 70 -45 30 -81 25
-65 5 77 34 -18 77 0 -82
62 19 30 3 -30 -104 20 113
-80 9 18 -41 65 45 41 -17
-52 109 -35 82 -18 -12 -62 -47
11 -70 84 72 20 81 -57 -61
-70 50 -79 68 76 64 70 20
-6 2 -83 93 118 48 -75 -25
82 37 19 -45 46 -56 10 -81
-65 60 80 -16 51 -36 -45 -45
-56 54 33 -59 57 -74 24 36
-8 49 88 -3 5 -59 -48 -103
-33 73 36 28 84 -73 81 -69
-39 45 -90 -9 52 55 -53 -1
33 41 27 10 -61 -65 120 118
00000000: bd17 17e0 f9f1 dd5b c5e2 49ea 04a4 30df
00000010: bf2f ad09 c60c 0759 525d 3a10 bec4 df09
00000020: 1efd 5809 4ded 9c20 f13d ec97 4da9 f30b
00000030: 0ea5 4147 bd37 7fb0 8f2f d9d7 545f b41d
00000040: 1cef 0af5 2232 21b3 4af3 303c e004 e4e7
00000050: 4bf1 1438 109b d7d9 2412 2ba6 2f17 01e2
00000060: 2032 dfba 250d 24e7 0924 3fdf dbeb d9e0
00000070: c64b 31bd ad05 0606 c41e 2235 4e26 163a
00000080: 205d 66d2 e3da e13c 1c21 cd46 d31e af19
00000090: bf05 4d22 ee4d 00ae 3e13 1e03 e298 1471
000000a0: b009 12d7 412d 29ef cc6d dd52 eef4 c2d1
000000b0: 0bba 5448 1451 c7c3 ba32 b144 4c40 4614
000000c0: fa02 ad5d 7630 b5e7 5225 13d3 2ec8 0aaf
000000d0: bf3c 50f0 33dc d3d3 c836 21c5 39b6 1824
000000e0: f831 58fd 05c5 d099 df49 241c 54b7 51bb
000000f0: d92d a6f7 3437 cbff 2129 1b0a c3bf 7876

tfl.pseudo_qconst19 i1 [1, 3, 3, 336]
-127 -18 -55 -94 -17 -117 -109 -13
-83 -69 79 69 18 -89 1 -98
36 -88 -123 -77 -114 -89 44 39
-28 -46 74 100 31 -81 -68 23
122 82 -109 -90 -127 -33 81 60
127 79 96 73 54 112 47 10
47 -27 58 79 -31 61 -10 41
-31 -43 127 112 127 44 7 -7
72 67 41 -29 74 -68 -26 44
28 -24 90 -53 -85 127 -87 11
-9 20 -89 -34 60 -104 -112 -77
55 -20 74 30 -70 32 -87 -26
-96 -60 84 55 2 -57 120 -39
103 24 17 -61 51 44 124 91
53 10 -114 54 18 -14 71 -98
-13 -125 76 100 -60 -32 -3 -46
0 61 54 -23 28 -34 120 71
-73 84 106 -29 -41 79 48 -6
127 -91 -100 -64 94 -33 65 -6
127 82 -2 10 -86 -126 27 37
35 72 120 -44 127 54 107 -86
23 -121 -4 91 -75 -100 45 -101
-32 -94 112 4 -13 -82 -16 -117
-40 74 -76 42 -65 70 127 -127
-127 -12 16 -106 12 77 -34 -71
-96 47 -11 -127 12 -45 -56 -57
21 31 -102 -65 9 125 -2 6
-1 99 -2 7 -47 -54 -74 127
114 127 -82 -56 -127 127 30 17
127 78 19 83 -43 -125 64 -31
19 34 19 15 -121 -54 -29 57
-30 -8 87 -57 -58 28 2 -1
00000000: 81ee c9a2 ef8b 93f3 adbb 4f45 12a7 019e
00000010: 24a8 85b3 8ea7 2c27 e4d2 4a64 1faf bc17
00000020: 7a52 93a6 81df 513c 7f4f 6049 3670 2f0a
00000030: 2fe5 3a4f e13d f629 e1d5 7f70 7f2c 07f9
00000040: 4843 29e3 4abc e62c 1ce8 5acb ab7f a90b
00000050: f714 a7de 3c98 90b3 37ec 4a1e ba20 a9e6
00000060: a0c4 5437 02c7 78d9 6718 11c3 332c 7c5b
00000070: 350a 8e36 12f2 479e f383 4c64 c4e0 fdd2
00000080: 003d 36e9 1cde 7847 b754 6ae3 d74f 30fa
00000090: 7fa5 9cc0 5edf 41fa 7f52 fe0a aa82 1b25
000000a0: 2348 78d4 7f36 6baa 1787 fc5b b59c 2d9b
000000b0: e0a2 7004 f3ae f08b d84a b42a bf46 7f81
000000c0: 81f4 1096 0c4d deb9 a02f f581 0cd3 c8c7
000000d0: 151f 9abf 097d fe06 ff63 fe07 d1ca b67f
000000e0: 727f aec8 817f 1e11 7f4e 1353 d583 40e1
000000f0: 1322 130f 87ca e339 e2f8 57c7 c61c 02ff

tfl.pseudo_qconst21 i1 [336, 1, 1, 56]
37 41 -64 64 23 -45 17 119
21 -25 105 -87 61 -25 -56 -127
88 59 57 50 -56 -22 -83 59
62 12 27 -81 68 -31 90 99
-44 -32 96 -16 42 47 -42 -84
31 75 15 -28 21 62 -2 -38
-66 10 24 -51 99 9 -43 -70
-101 -121 45 33 49 30 49 49
41 11 -1 -41 25 -78 -121 -26
48 -123 50 -81 35 61 115 127
54 -27 87 -101 -15 -82 -30 -71
-30 26 -44 20 28 14 -102 18
-8 -68 -110 -82 -61 -21 -65 -88
35 -88 -106 89 75 -4 21 1
-26 -28 72 85 6 67 82 -122
-2 80 72 63 -68 43 61 -60
-41 -44 75 -85 -50 35 -20 127
-13 98 73 39 45 -13 -57 12
15 21 52 45 -45 -63 74 111
-40 -11 70 -60 65 -109 -92 -1
35 11 -67 22 -97 -11 -75 7
18 -46 -18 25 8 -23 12 -1
-36 104 6 -87 74 -66 29 38
29 119 -21 38 -55 -43 -89 -72
-40 120 79 -15 -17 -37 -22 -34
53 -85 56 51 48 -106 -19 68
91 -17 -4 70 -92 90 86 -24
-85 2 -20 -59 -127 -5 40 -87
-63 1 -14 -59 72 8 57 -78
-42 -31 49 -28 -20 49 -36 -21
53 62 52 46 -21 46 111 42
-80 -82 44 9 -127 -74 81 26
00000000: 2529 c040 17d3 1177 15e7 69a9 3de7 c881
00000010: 583b 3932 c8ea ad3b 3e0c 1baf 44e1 5a63
00000020: d4e0 60f0 2a2f d6ac 1f4b 0fe4 153e feda
00000030: be0a 18cd 6309 d5ba 9b87 2d21 311e 3131
00000040: 290b ffd7 19b2 87e6 3085 32af 233d 737f
00000050: 36e5 579b f1ae e2b9 e21a d414 1c0e 9a12
00000060: f8bc 92ae c3eb bfa8 23a8 9659 4bfc 1501
00000070: e6e4 4855 0643 5286 fe50 483f bc2b 3dc4
00000080: d7d4 4bab ce23 ec7f f362 4927 2df3 c70c
00000090: 0f15 342d d3c1 4a6f d8f5 46c4 4193 a4ff
000000a0: 230b bd16 9ff5 b507 12d2 ee19 08e9 0cff
000000b0: dc68 06a9 4abe 1d26 1d77 eb26 c9d5 a7b8
000000c0: d878 4ff1 efdb eade 35ab 3833 3096 ed44
000000d0: 5bef fc46 a45a 56e8 ab02 ecc5 81fb 28a9
000000e0: c101 f2c5 4808 39b2 d6e1 31e4 ec31 dceb
000000f0: 353e 342e eb2e 6f2a b0ae 2c09 81b6 511a

tfl.pseudo_qconst23 i1 [56, 1, 1, 192]
50 -23 42 -100 60 -65 -1 85
55 9 -91 -52 111 -71 59 -117
-75 50 76 -61 -6 63 -52 -10
68 72 65 -71 63 -43 113 42
-64 17 63 -54 -45 -91 -94 -78
21 -4 108 -21 -36 45 -54 -49
59 -80 10 14 2 29 81 47
78 56 -32 62 -26 -5 -106 39
13 95 -41 -15 -15 -68 -48 36
77 11 -10 59 25 31 112 -6
53 -97 2 54 -92 82 117 -9
-79 26 -75 65 -26 35 68 -80
38 -95 -36 68 13 39 -73 30
-28 28 -1 -92 1 10 67 22
86 -20 -74 17 -57 71 -101 -64
-115 -42 -55 55 62 62 -123 32
-111 33 -35 125 -59 54 23 30
-44 -41 -31 -34 37 -87 -66 28
1 -8 49 51 31 -7 62 0
-59 79 -15 -80 -50 42 -55 -34
97 -23 52 21 -81 -62 -34 22
32 4 34 -87 82 -39 65 -20
60 -18 -64 -95 -88 -63 55 33
127 -107 87 42 -64 -122 -66 -89
11 -46 8 -52 69 26 31 45
26 34 -118 -8 -82 -26 -55 13
-31 23 -63 25 -43 -69 -57 56
-39 -96 10 -77 -67 -13 -64 -87
-85 47 16 -22 76 109 36 25
-1 -51 33 81 20 -84 -6 99
34 -66 -46 97 68 -24 -33 -36
-65 52 1 68 -24 3 38 32
00000000: 32e9 2a9c 3cbf ff55 3709 a5cc 6fb9 3b8b
00000010: b532 4cc3 fa3f ccf6 4448 41b9 3fd5 712a
00000020: c011 3fca d3a5 a2b2 15fc 6ceb dc2d cacf
00000030: 3bb0 0a0e 021d 512f 4e38 e03e e6fb 9627
00000040: 0d5f d7f1 f1bc d024 4d0b f63b 191f 70fa
00000050: 359f 0236 a452 75f7 b11a b541 e623 44b0
00000060: 26a1 dc44 0d27 b71e e41c ffa4 010a 4316
00000070: 56ec b611 c747 9bc0 8dd6 c937 3e3e 8520
00000080: 9121 dd7d c536 171e d4d7 e1de 25a9 be1c
00000090: 01f8 3133 1ff9 3e00 c54f f1b0 ce2a c9de
000000a0: 61e9 3415 afc2 de16 2004 22a9 52d9 41ec
000000b0: 3cee c0a1 a8c1 3721 7f95 572a c086 bea7
000000c0: 0bd2 08cc 451a 1f2d 1a22 8af8 aee6 c90d
000000d0: e117 c119 d5bb c738 d9a0 0ab3 bdf3 c0a9
000000e0: ab2f 10ea 4c6d 2419 ffcd 2151 14ac fa63
000000f0: 22be d261 44e8 dfdc bf34 0144 e803 2620

tfl.pseudo_qconst25 i1 [1, 3, 3, 192]
-103 69 88 -15 -46 -74 -27 -126
-65 127 -59 127 101 115 -127 -19
0 -16 104 127 -11 2 -64 50
-122 -40 84 -127 -25 22 34 -117
94 -27 -127 70 -127 33 127 -58
-43 127 -127 127 -73 -89 -104 -104
-127 -31 -124 13 -44 -46 127 36
112 73 -31 -30 -48 36 -25 -11
-127 -127 -127 49 -44 3 127 91
-19 15 -127 38 -77 17 30 -127
114 127 79 -46 -79 -108 46 36
-45 127 -25 -79 16 77 -127 103
-37 13 -13 90 -20 -52 106 -105
0 -70 127 121 55 -37 4 -63
-127 -60 -20 -76 -21 127 -127 57
-7 12 -25 6 -106 -103 -60 -7
34 -127 89 -127 -63 -59 -125 -43
-127 39 127 127 -127 127 15 127
-42 14 -64 -84 -82 42 -127 26
-61 46 -27 -115 33 -115 48 -12
93 119 -68 55 11 89 -17 127
127 10 83 -53 13 -51 -11 127
-22 89 49 -34 -127 49 -117 127
-94 -127 -17 8 127 10 84 16
-127 -61 -18 86 -127 43 -127 -127
53 -78 -3 35 -29 -127 18 -50
94 127 -35 -11 -10 79 -45 101
-118 -127 -4 119 -28 -26 8 13
127 -101 17 26 -75 15 53 -127
-40 -3 12 98 101 -15 -127 78
109 -1 127 101 -127 34 -17 -6
104 -46 -123 -9 -127 30 -104 -127
00000000: 9945 58f1 d2b6 e582 bf7f c57f 6573 81ed
00000010: 00f0 687f f502 c032 86d8 5481 e716 228b
00000020: 5ee5 8146 8121 7fc6 d57f 817f b7a7 9898
00000030: 81e1 840d d4d2 7f24 7049 e1e2 d024 e7f5
00000040: 8181 8131 d403 7f5b ed0f 8126 b311 1e81
00000050: 727f 4fd2 b194 2e24 d37f e7b1 104d 8167
00000060: db0d f35a eccc 6a97 00ba 7f79 37db 04c1
00000070: 81c4 ecb4 eb7f 8139 f90c e706 9699 c4f9
00000080: 2281 5981 c1c5 83d5 8127 7f7f 817f 0f7f
00000090: d60e c0ac ae2a 811a c32e e58d 218d 30f4
000000a0: 5d77 bc37 0b59 ef7f 7f0a 53cb 0dcd f57f
000000b0: ea59 31de 8131 8b7f a281 ef08 7f0a 5410
000000c0: 81c3 ee56 812b 8181 35b2 fd23 e381 12ce
000000d0: 5e7f ddf5 f64f d365 8a81 fc77 e4e6 080d
000000e0: 7f9b 111a b50f 3581 d8fd 0c62 65f1 814e
000000f0: 6dff 7f65 8122 effa 68d2 85f7 811e 9881

tfl.pseudo_qconst27 i1 [192, 1, 1, 32]
-26 20 127 65 106 -28 -121 11
18 74 -63 -80 120 44 15 -94
-22 -77 80 -21 -89 -7 -66 -48
38 -18 -101 -87 -40 -74 75 92
26 102 -78 -24 -1 -92 -101 -55
58 -40 -112 122 -10 -101 44 -7
40 -47 127 -114 -12 42 93 -90
99 9 -119 48 2 -28 51 -14
51 -110 -78 -127 -21 45 66 51
-18 -68 -103 18 21 -72 98 9
-107 -37 -63 101 -53 -91 -79 -5
-79 74 14 108 68 27 24 -41
5 31 92 -92 44 31 63 -64
-50 -29 -4 41 91 103 79 67
-15 127 -68 91 -121 -89 74 -122
19 6 14 2 41 32 -35 44
15 58 25 -68 -12 28 44 -78
83 -47 4 57 -98 59 -83 -97
-14 15 -20 -75 -62 83 101 -3
-60 127 -66 -68 72 -41 53 2
-12 -127 75 -101 -59 56 14 82
106 -122 -36 -55 -89 -2 -88 -4
0 89 29 58 -67 -99 -72 33
-44 -74 56 -57 -118 -123 8 -86
-16 42 39 49 84 82 68 -81
-6 -57 5 -34 52 54 14 -84
68 127 67 -4 -66 57 -35 -20
57 -13 100 -15 -71 -35 20 7
-90 -26 -62 -35 127 5 -18 37
15 40 -19 -77 113 -30 114 101
-23 -98 -70 79 -19 48 -74 19
58 -24 70 103 13 -29 -1 -104
00000000: e614 7f41 6ae4 870b 124a c1b0 782c 0fa2
00000010: eab3 50eb a7f9 bed0 26ee 9ba9 d8b6 4b5c
00000020: 1a66 b2e8 ffa4 9bc9 3ad8 907a f69b 2cf9
00000030: 28d1 7f8e f42a 5da6 6309 8930 02e4 33f2
00000040: 3392 b281 eb2d 4233 eebc 9912 15b8 6209
00000050: 95db c165 cba5 b1fb b14a 0e6c 441b 18d7
00000060: 051f 5ca4 2c1f 3fc0 cee3 fc29 5b67 4f43
00000070: f17f bc5b 87a7 4a86 1306 0e02 2920 dd2c
00000080: 0f3a 19bc f41c 2cb2 53d1 0439 9e3b ad9f
00000090: f20f ecb5 c253 65fd c47f bebc 48d7 3502
000000a0: f481 4b9b c538 0e52 6a86 dcc9 a7fe a8fc
000000b0: 0059 1d3a bd9d b821 d4b6 38c7 8a85 08aa
000000c0: f02a 2731 5452 44af fac7 05de 3436 0eac
000000d0: 447f 43fc be39 ddec 39f3 64f1 b9dd 1407
000000e0: a6e6 c2dd 7f05 ee25 0f28 edb3 71e2 7265
000000f0: e99e ba4f ed30 b613 3ae8 4667 0de3 ff98

tfl.pseudo_qconst29 i1 [32, 1, 1, 192]
-98 -72 48 112 -74 89 37 83
84 -32 -33 -82 -1 31 -15 -61
69 -41 -75 -80 23 75 42 82
-10 -23 -40 -5 47 -91 18 13
-55 27 -108 -74 57 7 32 15
40 75 90 88 -9 103 91 -21
-26 46 79 117 42 61 66 -84
-127 -39 89 -37 64 -41 55 76
75 -49 2 29 -79 -26 100 -68
42 -26 -48 70 -97 -40 -67 80
-2 71 -66 78 16 64 3 -80
56 -61 90 -122 -97 38 92 76
29 -58 74 -17 -104 -40 15 115
-3 0 -87 62 24 79 95 -27
-17 85 73 54 -58 41 70 17
4 -48 -67 94 43 -109 55 112
63 69 50 55 -55 25 12 -54
5 -78 21 90 -35 38 -116 -12
1 2 -60 97 -103 19 -8 49
27 66 -10 -66 -88 -90 -77 2
98 41 61 -12 -45 -35 51 -11
-7 20 3 -53 25 56 -51 39
-54 -71 1 -51 71 -15 13 -74
-14 -65 11 -9 40 32 -81 82
-70 -33 97 -10 24 97 66 -64
102 36 34 -17 -99 -40 -32 -34
-82 -56 61 89 71 79 68 40
-22 4 47 -38 40 42 -37 51
-8 -66 10 50 51 22 32 6
26 -113 -78 33 -20 85 29 88
8 65 11 -33 -10 -75 118 3
-95 -95 -36 -85 79 68 -54 61
00000000: 9eb8 3070 b659 2553 54e0 dfae ff1f f1c3
00000010: 45d7 b5b0 174b 2a52 f6e9 d8fb 2fa5 120d
00000020: c91b 94b6 3907 200f 284b 5a58 f767 5beb
00000030: e62e 4f75 2a3d 42ac 81d9 59db 40d7 374c
00000040: 4bcf 021d b1e6 64bc 2ae6 d046 9fd8 bd50
00000050: fe47 be4e 1040 03b0 38c3 5a86 9f26 5c4c
00000060: 1dc6 4aef 98d8 0f73 fd00 a93e 184f 5fe5
00000070: ef55 4936 c629 4611 04d0 bd5e 2b93 3770
00000080: 3f45 3237 c919 0cca 05b2 155a dd26 8cf4
00000090: 0102 c461 9913 f831 1b42 f6be a8a6 b302
000000a0: 6229 3df4 d3dd 33f5 f914 03cb 1938 cd27
000000b0: cab9 01cd 47f1 0db6 f2bf 0bf7 2820 af52
000000c0: badf 61f6 1861 42c0 6624 22ef 9dd8 e0de
000000d0: aec8 3d59 474f 4428 ea04 2fda 282a db33
000000e0: f8be 0a32 3316 2006 1a8f b221 ec55 1d58
000000f0: 0841 0bdf f6b5 7603 a1a1 dcab 4f44 ca3d

tfl.pseudo_qconst31 i1 [1, 3, 3, 192]
118 -40 -99 44 -52 -34 77 -50
41 -15 -21 118 27 -48 -26 -44
-52 24 -39 -14 -58 -74 -45 -36
20 28 34 -83 48 -12 -57 -34
57 87 -108 -63 -49 87 -79 -106
64 -19 81 3 -79 -1 -127 40
-108 -8 127 127 11 73 52 67
5 -127 7 60 -67 2 -52 23
-26 31 28 -113 -4 61 -3 -10
70 15 64 -39 -127 -27 106 15
-127 107 70 3 -55 -5 -20 -26
-96 -65 40 -27 -18 -27 -1 -77
-10 71 1 -82 -67 3 88 127
23 -87 -14 -83 6 -16 24 127
63 41 127 18 -35 -127 55 34
-123 104 -41 4 56 -44 38 -84
29 16 -102 46 51 6 -77 20
81 -47 -34 -77 104 -35 24 63
-73 0 -65 19 -84 -68 -33 51
3 -17 -82 -56 -116 43 -41 -108
-2 -19 98 -61 39 81 38 -22
-54 -16 96 5 -50 10 -103 9
35 -16 -94 -87 127 -101 -85 31
34 22 77 127 11 62 72 127
52 -8 41 127 -33 -54 -32 -29
7 -45 100 61 -60 65 -75 45
49 18 74 -46 -48 31 54 20
-4 11 102 -127 -65 19 -98 59
33 -56 -38 -127 -85 127 119 45
-40 -13 -97 65 -24 45 103 -86
-53 46 -123 -67 -18 -65 -52 -70
-106 -4 -84 -127 126 127 12 -17
00000000: 76d8 9d2c ccde 4dce 29f1 eb76 1bd0 e6d4
00000010: cc18 d9f2 c6b6 d3dc 141c 22ad 30f4 c7de
00000020: 3957 94c1 cf57 b196 40ed 5103 b1ff 8128
00000030: 94f8 7f7f 0b49 3443 0581 073c bd02 cc17
00000040: e61f 1c8f fc3d fdf6 460f 40d9 81e5 6a0f
00000050: 816b 4603 c9fb ece6 a0bf 28e5 eee5 ffb3
00000060: f647 01ae bd03 587f 17a9 f2ad 06f0 187f
00000070: 3f29 7f12 dd81 3722 8568 d704 38d4 26ac
00000080: 1d10 9a2e 3306 b314 51d1 deb3 68dd 183f
00000090: b700 bf13 acbc df33 03ef aec8 8c2b d794
000000a0: feed 62c3 2751 26ea caf0 6005 ce0a 9909
000000b0: 23f0 a2a9 7f9b ab1f 2216 4d7f 0b3e 487f
000000c0: 34f8 297f dfca e0e3 07d3 643d c441 b52d
000000d0: 3112 4ad2 d01f 3614 fc0b 6681 bf13 9e3b
000000e0: 21c8 da81 ab7f 772d d8f3 9f41 e82d 67aa
000000f0: cb2e 85bd eebf ccba 96fc ac81 7e7f 0cef

tfl.pseudo_qconst33 i1 [192, 1, 1, 32]
-127 54 49 62 -46 -14 -14 -126
-56 87 82 84 4 -3 37 100
99 -14 76 -100 -85 93 90 -122
-22 -111 47 -100 -65 62 -7 -65
-30 -46 -19 -89 109 30 11 69
4 26 -2 24 65 56 -78 -39
127 -76 53 82 22 -54 14 31
46 -94 14 76 -31 -92 75 64
-126 2 24 20 69 -50 -49 -10
21 72 127 69 70 47 70 13
-17 34 13 -23 76 -60 -69 -6
28 -30 -39 62 64 10 -6 84
-127 -35 75 -40 -85 59 33 23
-95 -69 75 78 -40 4 73 47
-117 -19 80 -113 -31 36 -56 -49
62 -120 -53 73 -6 94 27 107
55 117 -74 -1 51 -55 115 29
106 126 -72 107 -19 -73 -76 -7
-21 35 -118 -8 55 -20 66 -78
49 -60 75 -127 -42 -11 -11 92
-40 -85 -24 78 127 -74 -26 7
23 31 -23 17 -98 83 -14 48
-79 -113 106 -2 -33 -38 93 9
-28 -29 82 99 6 -28 -19 69
-28 39 43 45 60 -59 77 -44
80 -37 -49 -49 117 113 -76 -30
-127 106 -15 -63 72 -8 104 67
-48 96 36 -84 4 10 64 -88
-86 -40 3 113 94 -36 14 -90
33 7 6 -30 37 -114 -59 -115
-36 86 88 -41 -96 -5 -86 -38
-127 -68 -28 -76 -22 52 -45 103
00000000: 8136 313e d2f2 f282 c857 5254 04fd 2564
00000010: 63f2 4c9c ab5d 5a86 ea91 2f9c bf3e f9bf
00000020: e2d2 eda7 6d1e 0b45 041a fe18 4138 b2d9
00000030: 7fb4 3552 16ca 0e1f 2ea2 0e4c e1a4 4b40
00000040: 8202 1814 45ce cff6 1548 7f45 462f 460d
00000050: ef22 0de9 4cc4 bbfa 1ce2 d93e 400a fa54
00000060: 81dd 4bd8 ab3b 2117 a1bb 4b4e d804 492f
00000070: 8bed 508f e124 c8cf 3e88 cb49 fa5e 1b6b
00000080: 3775 b6ff 33c9 731d 6a7e b86b edb7 b4f9
00000090: eb23 8af8 37ec 42b2 31c4 4b81 d6f5 f55c
000000a0: d8ab e84e 7fb6 e607 171f e911 9e53 f230
000000b0: b18f 6afe dfda 5d09 e4e3 5263 06e4 ed45
000000c0: e427 2b2d 3cc5 4dd4 50db cfcf 7571 b4e2
000000d0: 816a f1c1 48f8 6843 d060 24ac 040a 40a8
000000e0: aad8 0371 5edc 0ea6 2107 06e2 258e c58d
000000f0: dc56 58d7 a0fb aada 81bc e4b4 ea34 d367

tfl.pseudo_qconst35 i1 [32, 1, 1, 192]
-8 70 -47 85 35 7 -71 -41
-23 -39 -42 81 -39 -48 64 -9
-18 -53 -65 -78 -36 89 4 -77
35 -99 29 -29 -50 15 127 41
79 -39 70 -15 29 -20 -16 -42
14 -77 89 -13 -110 -10 82 -15
53 -56 50 56 70 39 58 -26
-97 -26 2 76 58 55 -67 -35
-80 -44 -40 54 -10 51 38 -52
-18 42 35 -27 -17 45 -17 -89
57 33 24 12 -6 -37 36 10
47 6 42 80 23 -24 -9 -59
18 -11 -34 -91 28 -21 -57 -16
75 -74 29 40 -60 -30 21 -25
23 26 -36 62 50 51 -7 18
-69 -57 -22 -30 -24 -26 -78 -91
4 -70 -3 -70 25 8 -58 30
9 56 -27 -54 13 -51 -32 -5
-44 -16 -10 -14 87 -8 -78 -57
-75 -75 -37 34 -3 -85 63 -91
-55 13 24 61 -11 32 55 -59
4 78 -67 5 -85 10 10 63
-2 88 65 -76 100 -72 -75 -44
7 57 -14 -59 -49 -56 -71 66
59 -5 71 104 -86 74 -68 4
3 25 90 80 34 71 107 56
-60 -57 93 -24 -74 -74 69 -20
-3 -32 34 23 20 -87 72 21
4 -66 -63 -55 20 22 -50 92
-13 -28 -4 77 -68 33 -32 -6
-104 93 -15 65 47 101 -12 32
-19 -100 -25 -24 49 2 65 82
00000000: f846 d155 2307 b9d7 e9d9 d651 d9d0 40f7
00000010: eecb bfb2 dc59 04b3 239d 1de3 ce0f 7f29
00000020: 4fd9 46f1 1dec f0d6 0eb3 59f3 92f6 52f1
00000030: 35c8 3238 4627 3ae6 9fe6 024c 3a37 bddd
00000040: b0d4 d836 f633 26cc ee2a 23e5 ef2d efa7
00000050: 3921 180c fadb 240a 2f06 2a50 17e8 f7c5
00000060: 12f5 dea5 1ceb c7f0 4bb6 1d28 c4e2 15e7
00000070: 171a dc3e 3233 f912 bbc7 eae2 e8e6 b2a5
00000080: 04ba fdba 1908 c61e 0938 e5ca 0dcd e0fb
00000090: d4f0 f6f2 57f8 b2c7 b5b5 db22 fdab 3fa5
000000a0: c90d 183d f520 37c5 044e bd05 ab0a 0a3f
000000b0: fe58 41b4 64b8 b5d4 0739 f2c5 cfc8 b942
000000c0: 3bfb 4768 aa4a bc04 0319 5a50 2247 6b38
000000d0: c4c7 5de8 b6b6 45ec fde0 2217 14a9 4815
000000e0: 04be c1c9 1416 ce5c f3e4 fc4d bc21 e0fa
000000f0: 985d f141 2f65 f420 ed9c e7e8 3102 4152

tfl.pseudo_qconst37 i1 [1, 3, 3, 192]
32 39 -84 18 -9 -48 11 -68
-64 -59 -64 31 -127 -70 -39 30
-52 -55 88 39 -115 19 25 -22
62 -127 -36 40 -15 -37 -72 -85
-127 30 -11 40 -41 -17 49 20
-16 17 -13 1 -20 41 -51 -2
-77 127 -127 -71 -82 -35 -92 -30
121 117 38 -58 11 110 -56 -15
71 -21 -57 99 -3 39 79 127
-2 101 52 65 38 -127 -88 -70
-17 58 -94 79 82 -103 -22 24
-28 -127 -25 43 -10 42 -116 -111
25 47 -127 45 -21 -24 54 93
23 -2 63 -44 -127 -127 -69 7
117 27 -59 48 92 72 38 38
80 113 -57 -48 127 -46 125 75
46 -20 44 51 -89 127 4 52
-127 -85 -29 14 -64 97 -43 107
54 -2 -62 -86 -56 -100 23 -55
-65 30 -79 -45 -79 -24 104 -116
70 -127 -25 -75 -71 -53 101 -126
105 16 -42 -32 -83 30 -11 -53
-48 40 -127 54 -39 -5 -52 59
9 -54 118 -127 57 -91 127 46
-127 104 -63 -17 -46 -43 -71 -19
-15 127 -63 127 -62 64 -7 71
121 -52 -78 51 42 83 -46 24
-71 -3 -109 -28 14 69 17 69
-14 17 -85 -24 127 105 127 9
-3 -56 -17 124 6 -88 -13 24
76 75 60 71 -127 60 -121 -51
21 -61 -43 52 43 -32 -76 -61
00000000: 2027 ac12 f7d0 0bbc c0c5 c01f 81ba d91e
00000010: ccc9 5827 8d13 19ea 3e81 dc28 f1db b8ab
00000020: 811e f528 d7ef 3114 f011 f301 ec29 cdfe
00000030: b37f 81b9 aedd a4e2 7975 26c6 0b6e c8f1
00000040: 47eb c763 fd27 4f7f fe65 3441 2681 a8ba
00000050: ef3a a24f 5299 ea18 e481 e72b f62a 8c91
00000060: 192f 812d ebe8 365d 17fe 3fd4 8181 bb07
00000070: 751b c530 5c48 2626 5071 c7d0 7fd2 7d4b
00000080: 2eec 2c33 a77f 0434 81ab e30e c061 d56b
00000090: 36fe c2aa c89c 17c9 bf1e b1d3 b1e8 688c
000000a0: 4681 e7b5 b9cb 6582 6910 d6e0 ad1e f5cb
000000b0: d028 8136 d9fb cc3b 09ca 7681 39a5 7f2e
000000c0: 8168 c1ef d2d5 b9ed f17f c17f c240 f947
000000d0: 79cc b233 2a53 d218 b9fd 93e4 0e45 1145
000000e0: f211 abe8 7f69 7f09 fdc8 ef7c 06a8 f318
000000f0: 4c4b 3c47 813c 87cd 15c3 d534 2be0 b4c3

tfl.pseudo_qconst39 i1 [192, 1, 1, 32]
15 -6 12 39 29 -76 32 -22
-60 42 68 -40 32 -51 -127 73
41 53 57 -23 55 -32 71 -55
16 31 -21 54 -2 75 -54 -53
-50 -96 52 63 49 102 -40 -69
-29 40 -62 35 -7 58 -16 -93
127 68 9 41 52 -47 43 9
94 -52 50 48 82 74 24 -24
49 -30 -84 -65 -13 91 -99 40
34 103 90 56 82 -64 120 98
64 40 -119 -57 -26 5 -13 -104
42 -42 124 -61 -19 -84 127 -97
-71 1 28 35 -49 -47 106 -89
64 120 -17 -19 -91 46 63 53
70 76 63 -29 13 -54 -48 -127
-22 -55 -28 72 -20 28 -73 11
-107 66 90 1 42 -127 123 -125
45 -58 -42 -67 79 -110 -62 10
118 -20 107 -85 80 106 49 -34
16 68 -26 -55 90 -11 -69 84
92 46 98 -118 55 -12 -7 55
-19 -96 31 115 76 -44 47 55
-32 100 54 -122 31 -98 -17 72
39 -56 -60 127 -33 -108 -116 7
28 -1 54 91 68 -43 -53 -48
-67 -50 -34 -122 34 78 57 -33
73 127 -53 -32 19 57 45 27
12 82 -51 -77 26 -43 67 -38
-49 97 108 17 28 127 -94 120
38 14 -37 43 -78 -54 -63 55
-72 -72 -1 4 -44 30 -4 -77
62 0 19 -69 106 77 -65 93
00000000: 0ffa 0c27 1db4 20ea c42a 44d8 20cd 8149
00000010: 2935 39e9 37e0 47c9 101f eb36 fe4b cacb
00000020: cea0 343f 3166 d8bb e328 c223 f93a f0a3
00000030: 7f44 0929 34d1 2b09 5ecc 3230 524a 18e8
00000040: 31e2 acbf f35b 9d28 2267 5a38 52c0 7862
00000050: 4028 89c7 e605 f398 2ad6 7cc3 edac 7f9f
00000060: b901 1c23 cfd1 6aa7 4078 efed a52e 3f35
00000070: 464c 3fe3 0dca d081 eac9 e448 ec1c b70b
00000080: 9542 5a01 2a81 7b83 2dc6 d6bd 4f92 c20a
00000090: 76ec 6bab 506a 31de 1044 e6c9 5af5 bb54
000000a0: 5c2e 628a 37f4 f937 eda0 1f73 4cd4 2f37
000000b0: e064 3686 1f9e ef48 27c8 c47f df94 8c07
000000c0: 1cff 365b 44d5 cbd0 bdce de86 224e 39df
000000d0: 497f cbe0 1339 2d1b 0c52 cdb3 1ad5 43da
000000e0: cf61 6c11 1c7f a278 260e db2b b2ca c137
000000f0: b8b8 ff04 d41e fcb3 3e00 13bb 6a4d bf5d

tfl.pseudo_qconst41 i1 [32, 1, 1, 144]
-4 -9 -77 -43 -74 20 -2 -74
-88 -81 9 49 -46 -46 -11 -17
23 76 -7 63 12 -44 -93 -21
72 -26 59 17 16 10 59 38
4 -75 -7 -39 53 34 92 37
26 -90 -24 -4 43 -63 -29 45
-64 -70 5 8 -14 -7 12 45
18 32 56 62 7 -22 -70 -66
-21 77 56 -88 5 74 -2 50
-79 36 91 -72 38 -1 -37 -64
10 45 10 -30 80 46 7 -34
-71 59 -100 45 -30 -56 29 -82
-34 108 34 -51 13 44 -33 94
-70 4 -27 -85 -71 -86 -86 -88
66 -41 -77 17 56 -83 100 -52
23 34 95 28 9 75 13 85
110 -52 -74 -39 -57 -57 81 74
127 3 -23 -33 -44 43 -12 9
53 -47 19 -54 53 23 -60 50
75 2 30 -68 -35 57 50 28
-35 -50 -40 -37 35 -44 54 12
5 -6 -7 57 -44 50 94 -36
-9 -70 -77 41 -61 4 55 -39
85 -42 -45 -28 13 45 -85 -83
11 7 57 -48 -8 3 26 37
28 -17 -32 31 60 -37 -30 85
-41 -3 127 -99 42 -45 3 29
-40 10 40 45 69 -74 -66 -44
-29 -47 -80 31 -45 -54 42 50
-14 -20 6 66 -9 -28 -59 -91
60 -23 -68 -108 33 53 -65 -44
-59 16 23 -22 16 -74 63 -84
00000000: fcf7 b3d5 b614 feb6 a8af 0931 d2d2 f5ef
00000010: 174c f93f 0cd4 a3eb 48e6 3b11 100a 3b26
00000020: 04b5 f9d9 3522 5c25 1aa6 e8fc 2bc1 e32d
00000030: c0ba 0508 f2f9 0c2d 1220 383e 07ea babe
00000040: eb4d 38a8 054a fe32 b124 5bb8 26ff dbc0
00000050: 0a2d 0ae2 502e 07de b93b 9c2d e2c8 1dae
00000060: de6c 22cd 0d2c df5e ba04 e5ab b9aa aaa8
00000070: 42d7 b311 38ad 64cc 1722 5f1c 094b 0d55
00000080: 6ecc b6d9 c7c7 514a 7f03 e9df d42b f409
00000090: 35d1 13ca 3517 c432 4b02 1ebc dd39 321c
000000a0: ddce d8db 23d4 360c 05fa f939 d432 5edc
000000b0: f7ba b329 c304 37d9 55d6 d3e4 0d2d abad
000000c0: 0b07 39d0 f803 1a25 1cef e01f 3cdb e255
000000d0: d7fd 7f9d 2ad3 031d d80a 282d 45b6 bed4
000000e0: e3d1 b01f d3ca 2a32 f2ec 0642 f7e4 c5a5
000000f0: 3ce9 bc94 2135 bfd4 c510 17ea 10b6 3fac

tfl.pseudo_qconst43 i1 [1, 3, 3, 144]
118 27 -86 27 -92 -45 -77 -71
25 -14 -47 29 40 44 127 -58
-86 -43 9 -51 32 -24 -20 -89
-127 -81 -37 -104 -8 -113 -44 40
127 -127 17 -91 5 -29 127 120
6 46 49 -81 1 -63 -1 -102
-127 -127 79 14 -71 28 27 -76
-127 54 7 -52 127 92 42 127
44 -95 39 -34 -55 46 -127 60
-30 -90 52 -19 118 -75 17 -62
-127 -71 97 -11 -127 127 -105 2
-44 -53 -53 92 21 3 -87 -41
-20 10 -44 -92 -91 -12 -59 -46
-68 -3 69 7 -29 -52 52 -32
115 -118 -103 57 9 47 60 40
54 -14 112 35 -45 -12 41 -127
75 -34 -127 44 -30 66 5 -81
-50 24 -97 127 20 82 27 36
68 54 -12 -4 -93 -115 65 -119
13 6 73 -46 48 79 37 6
61 26 6 59 -57 116 127 127
34 -43 -68 -44 20 -2 127 -11
107 -69 -30 27 0 -7 67 7
53 -86 62 -79 -47 80 -92 -54
25 -8 89 -74 -70 -127 16 124
65 16 -46 -96 53 77 58 -45
92 -59 33 127 -110 -101 27 -10
-60 -27 22 -127 127 -70 -66 38
-72 20 -15 -3 -103 -21 127 51
127 -63 51 34 1 127 -99 -5
112 -127 -61 61 62 -127 -31 127
-1 -57 -127 81 14 -15 -127 -15
00000000: 761b aa1b a4d3 b3b9 19f2 d11d 282c 7fc6
00000010: aad5 09cd 20e8 eca7 81af db98 f88f d428
00000020: 7f81 11a5 05e3 7f78 062e 31af 01c1 ff9a
00000030: 8181 4f0e b91c 1bb4 8136 07cc 7f5c 2a7f
00000040: 2ca1 27de c92e 813c e2a6 34ed 76b5 11c2
00000050: 81b9 61f5 817f 9702 d4cb cb5c 1503 a9d7
00000060: ec0a d4a4 a5f4 c5d2 bcfd 4507 e3cc 34e0
00000070: 738a 9939 092f 3c28 36f2 7023 d3f4 2981
00000080: 4bde 812c e242 05af ce18 9f7f 1452 1b24
00000090: 4436 f4fc a38d 4189 0d06 49d2 304f 2506
000000a0: 3d1a 063b c774 7f7f 22d5 bcd4 14fe 7ff5
000000b0: 6bbb e21b 00f9 4307 35aa 3eb1 d150 a4ca
000000c0: 19f8 59b6 ba81 107c 4110 d2a0 354d 3ad3
000000d0: 5cc5 217f 929b 1bf6 c4e5 1681 7fba be26
000000e0: b814 f1fd 99eb 7f33 7fc1 3322 017f 9dfb
000000f0: 7081 c33d 3e81 e17f ffc7 8151 0ef1 81f1

tfl.pseudo_qconst45 i1 [144, 1, 1, 24]
105 30 110 -53 16 -88 -62 -61
-46 34 27 47 97 -7 33 0
-67 -73 80 127 -121 -73 -106 64
125 111 92 66 119 55 -86 -3
32 100 100 -4 127 69 97 -58
-114 72 -55 -47 -106 72 7 50
-84 -21 -48 10 49 29 -35 41
40 70 106 -7 -19 -76 -97 -94
-43 127 -9 -79 10 -29 -24 82
21 92 -88 36 -31 11 32 -54
-116 -99 -46 -33 -44 -64 -65 -74
-18 35 -72 60 7 80 25 -127
-80 -116 -21 -25 -124 23 118 -17
-26 -18 -26 -5 -101 -42 106 -80
76 4 -33 5 44 127 46 61
14 93 -12 27 -62 52 -11 74
88 -59 -68 -25 9 127 70 47
-9 38 -53 3 -61 39 47 95
-33 78 108 56 127 115 91 -40
29 -53 94 -54 -108 73 115 -111
-35 -53 33 79 31 104 -84 55
-67 87 -38 57 -87 22 62 72
-10 -123 -68 -89 -83 -77 43 -34
86 -92 85 -66 127 -33 -84 -46
58 13 -111 -32 -75 -78 25 75
-14 -1 -72 -90 60 45 83 62
-48 -69 -127 37 -106 53 -59 17
-52 26 -49 -74 113 -65 56 -4
127 -72 107 -32 55 -37 -54 -9
36 32 112 -81 -44 -82 -32 -96
-32 -8 44 -118 85 69 -46 81
-20 9 105 -11 -31 44 40 63
00000000: 691e 6ecb 10a8 c2c3 d222 1b2f 61f9 2100
00000010: bdb7 507f 87b7 9640 7d6f 5c42 7737 aafd
00000020: 2064 64fc 7f45 61c6 8e48 c9d1 9648 0732
00000030: aceb d00a 311d dd29 2846 6af9 edb4 9fa2
00000040: d57f f7b1 0ae3 e852 155c a824 e10b 20ca
00000050: 8c9d d2df d4c0 bfb6 ee23 b83c 0750 1981
00000060: b08c ebe7 8417 76ef e6ee e6fb 9bd6 6ab0
00000070: 4c04 df05 2c7f 2e3d 0e5d f41b c234 f54a
00000080: 58c5 bce7 097f 462f f726 cb03 c327 2f5f
00000090: df4e 6c38 7f73 5bd8 1dcb 5eca 9449 7391
000000a0: ddcb 214f 1f68 ac37 bd57 da39 a916 3e48
000000b0: f685 bca7 adb3 2bde 56a4 55be 7fdf acd2
000000c0: 3a0d 91e0 b5b2 194b f2ff b8a6 3c2d 533e
000000d0: d0bb 8125 9635 c511 cc1a cfb6 71bf 38fc
000000e0: 7fb8 6be0 37db caf7 2420 70af d4ae e0a0
000000f0: e0f8 2c8a 5545 d251 ec09 69f5 e12c 283f

tfl.pseudo_qconst47 i1 [24, 1, 1, 144]
-1 46 -83 -61 -86 47 -73 -46
-73 -74 31 67 -91 10 -31 114
113 24 112 -45 37 11 -49 -46
-111 -36 -50 -59 65 -80 -32 -71
3 -83 56 68 69 -60 99 -104
12 71 -30 -83 66 10 -8 50
-46 40 16 9 10 1 -65 -49
111 -35 22 -61 -2 127 -4 13
93 -4 15 24 17 -40 -25 -75
-34 -17 123 -35 -66 106 89 -123
78 103 3 17 -5 34 -3 8
-28 86 96 33 82 104 4 42
-17 -1 -90 26 3 -47 -63 43
100 -35 76 -38 -10 89 -78 125
-44 -24 62 31 -94 54 61 90
94 39 36 44 34 45 -5 -4
-47 53 92 -53 5 95 -57 0
72 -42 50 60 3 9 -96 26
-77 40 -24 -41 49 -34 -35 66
-43 -57 0 -6 -64 -25 57 -19
98 21 44 93 -41 43 -80 -102
99 -54 44 -83 93 -41 24 -35
-68 73 -96 30 -14 117 74 88
-58 75 -90 43 60 -41 68 -70
113 -13 46 -9 43 -1 -116 17
-81 90 52 -53 43 -6 22 79
-5 13 27 -93 57 38 3 81
27 -31 71 38 -86 86 6 -18
-17 -21 -92 -109 -16 14 -62 -18
11 -88 11 -78 113 -52 -44 -69
37 -32 0 -90 -97 12 -23 -33
22 -81 -39 73 -45 55 50 77
00000000: ff2e adc3 aa2f b7d2 b7b6 1f43 a50a e172
00000010: 7118 70d3 250b cfd2 91dc cec5 41b0 e0b9
00000020: 03ad 3844 45c4 6398 0c47 e2ad 420a f832
00000030: d228 1009 0a01 bfcf 6fdd 16c3 fe7f fc0d
00000040: 5dfc 0f18 11d8 e7b5 deef 7bdd be6a 5985
00000050: 4e67 0311 fb22 fd08 e456 6021 5268 042a
00000060: efff a61a 03d1 c12b 64dd 4cda f659 b27d
00000070: d4e8 3e1f a236 3d5a 5e27 242c 222d fbfc
00000080: d135 5ccb 055f c700 48d6 323c 0309 a01a
00000090: b328 e8d7 31de dd42 d5c7 00fa c0e7 39ed
000000a0: 6215 2c5d d72b b09a 63ca 2cad 5dd7 18dd
000000b0: bc49 a01e f275 4a58 c64b a62b 3cd7 44ba
000000c0: 71f3 2ef7 2bff 8c11 af5a 34cb 2bfa 164f
000000d0: fb0d 1ba3 3926 0351 1be1 4726 aa56 06ee
000000e0: efeb a493 f00e c2ee 0ba8 0bb2 71cc d4bb
000000f0: 25e0 00a6 9f0c e9df 16af d949 d337 324d

tfl.pseudo_qconst49 i1 [1, 3, 3, 144]
-92 -44 127 4 100 127 47 -52
-6 -19 -35 -35 -97 -16 -30 4
72 47 102 110 -55 -88 36 16
-79 -72 -97 -109 -127 97 -17 -6
-52 -72 59 -127 -127 98 -50 -105
-16 52 -22 -14 -71 87 -81 127
47 -127 82 13 42 -33 2 -24
33 -127 47 21 -31 31 19 -24
32 -65 12 39 -127 18 -127 -127
28 76 54 58 -121 22 58 -55
20 -49 53 -88 51 -75 -46 -39
-127 46 58 -103 -59 -72 26 48
-56 -19 10 53 -45 -103 51 11
-127 127 90 -110 34 37 -65 24
-28 63 79 127 -66 21 118 78
25 6 -81 -65 99 122 47 23
127 -60 -65 -6 127 -6 -18 34
60 -84 -51 -10 58 -127 -36 53
-125 29 -11 127 51 -32 69 -18
127 56 -79 -15 -79 56 -15 -26
-31 -39 80 -61 91 93 -101 -50
-40 -35 112 -127 30 -3 127 13
111 -5 -72 -55 -121 23 51 92
127 51 60 -56 27 33 -53 78
-33 117 9 49 -16 29 13 -52
60 110 -32 1 70 12 -119 56
101 127 34 -77 -39 0 46 -38
24 127 4 -26 -127 0 127 -4
117 -127 13 52 127 -39 11 -127
-46 127 56 -98 13 -1 -13 3
102 -102 127 38 79 55 65 -7
-65 -43 127 25 -20 -20 -86 25
00000000: a4d4 7f04 647f 2fcc faed dddd 9ff0 e204
00000010: 482f 666e c9a8 2410 b1b8 9f93 8161 effa
00000020: ccb8 3b81 8162 ce97 f034 eaf2 b957 af7f
00000030: 2f81 520d 2adf 02e8 2181 2f15 e11f 13e8
00000040: 20bf 0c27 8112 8181 1c4c 363a 8716 3ac9
00000050: 14cf 35a8 33b5 d2d9 812e 3a99 c5b8 1a30
00000060: c8ed 0a35 d399 330b 817f 5a92 2225 bf18
00000070: e43f 4f7f be15 764e 1906 afbf 637a 2f17
00000080: 7fc4 bffa 7ffa ee22 3cac cdf6 3a81 dc35
00000090: 831d f57f 33e0 45ee 7f38 b1f1 b138 f1e6
000000a0: e1d9 50c3 5b5d 9bce d8dd 7081 1efd 7f0d
000000b0: 6ffb b8c9 8717 335c 7f33 3cc8 1b21 cb4e
000000c0: df75 0931 f01d 0dcc 3c6e e001 460c 8938
000000d0: 657f 22b3 d900 2eda 187f 04e6 8100 7ffc
000000e0: 7581 0d34 7fd9 0b81 d27f 389e 0dff f303
000000f0: 669a 7f26 4f37 41f9 bfd5 7f19 ecec aa19

tfl.pseudo_qconst51 i1 [144, 1, 1, 24]
127 66 39 -104 117 101 1 -69
-63 -47 -89 -94 16 54 -125 -93
117 -67 89 66 50 105 98 64
99 63 -44 -33 127 22 20 39
-90 -42 -6 -60 22 -43 -71 -26
20 88 -23 105 42 -35 -103 -97
109 124 68 39 -60 109 -9 -127
-21 32 -60 57 16 80 -33 -79
-44 -1 88 -7 -67 -65 23 -5
-33 -10 10 -79 -18 -6 -124 -83
46 104 52 -86 31 -19 61 -69
-79 -53 -12 -16 39 -6 127 -67
-57 -16 -20 80 -127 25 80 -96
35 -61 93 -101 4 -74 -1 -73
-40 -42 121 60 10 57 44 11
-89 -70 26 -1 83 36 -75 -53
-53 -4 51 -24 49 19 -36 50
-40 25 41 -88 54 127 -104 0
92 101 112 30 1 -103 19 16
4 -7 -127 21 -43 -44 65 45
-50 31 -48 121 -96 -89 -125 -72
-94 112 30 -27 -50 -68 111 -33
-99 61 26 -18 31 69 -90 58
77 -127 -42 6 -93 -68 -13 88
31 -7 105 -52 -58 -23 -23 -124
85 -86 60 66 74 127 38 -55
5 -74 82 105 -21 19 -68 -97
-118 0 -15 91 -17 -69 -46 90
-100 -7 -122 94 -116 85 -112 -61
57 -22 -127 -14 80 94 -108 -94
-22 -114 35 9 69 -71 49 -1
-48 11 70 8 -111 109 31 13
00000000: 7f42 2798 7565 01bb c1d1 a7a2 1036 83a3
00000010: 75bd 5942 3269 6240 633f d4df 7f16 1427
00000020: a6d6 fac4 16d5 b9e6 1458 e969 2add 999f
00000030: 6d7c 4427 c46d f781 eb20 c439 1050 dfb1
00000040: d4ff 58f9 bdbf 17fb dff6 0ab1 eefa 84ad
00000050: 2e68 34aa 1fed 3dbb b1cb f4f0 27fa 7fbd
00000060: c7f0 ec50 8119 50a0 23c3 5d9b 04b6 ffb7
00000070: d8d6 793c 0a39 2c0b a7ba 1aff 5324 b5cb
00000080: cbfc 33e8 3113 dc32 d819 29a8 367f 9800
00000090: 5c65 701e 0199 1310 04f9 8115 d5d4 412d
000000a0: ce1f d079 a0a7 83b8 a270 1ee5 cebc 6fdf
000000b0: 9d3d 1aee 1f45 a63a 4d81 d606 a3bc f358
000000c0: 1ff9 69cc c6e9 e984 55aa 3c42 4a7f 26c9
000000d0: 05b6 5269 eb13 bc9f 8a00 f15b efbb d25a
000000e0: 9cf9 865e 8c55 90c3 39ea 81f2 505e 94a2
000000f0: ea8e 2309 45b9 31ff d00b 4608 916d 1f0d

tfl.pseudo_qconst53 i1 [24, 1, 1, 144]
-70 -56 -102 83 48 -16 -22 -71
-29 -34 -96 63 87 -86 -74 -109
54 30 -37 -31 -48 -62 46 -31
20 -27 112 78 102 51 -13 2
-70 -66 -47 -59 56 -97 -45 42
69 84 74 -56 -1 -91 95 33
-21 40 -52 23 -23 74 -76 1
-25 57 41 127 41 61 82 62
36 15 -60 -85 -13 -92 52 66
40 -10 11 8 13 -52 -78 -49
-93 -96 -64 -81 11 -85 -5 -4
29 88 -101 -31 -114 -114 -21 -12
100 23 -26 -37 41 -58 43 1
12 -10 39 43 78 47 -36 -20
78 -72 30 -69 -38 38 -70 2
-11 -67 -52 41 -58 78 -20 34
68 18 -98 -88 22 -55 108 -63
33 13 20 108 -26 -76 46 8
-94 -19 -23 -57 78 -94 4 25
-31 -72 -43 -41 -106 -41 66 56
70 64 80 -25 77 -101 67 -68
99 49 33 4 -113 -71 95 -75
67 -87 77 -20 -94 50 -40 -21
49 37 -86 -64 -72 -34 -127 -5
90 -47 -79 -79 54 -104 -59 -89
-99 70 -113 -20 94 42 -37 50
-67 38 -41 -92 -14 49 -29 8
80 7 -84 -16 2 -70 10 54
24 -22 43 -47 -25 -125 -47 -2
-70 -58 95 -25 61 -71 32 -43
55 109 83 -85 4 41 15 -49
-50 41 6 -32 20 -30 41 89
00000000: bac8 9a53 30f0 eab9 e3de a03f 57aa b693
00000010: 361e dbe1 d0c2 2ee1 14e5 704e 6633 f302
00000020: babe d1c5 389f d32a 4554 4ac8 ffa5 5f21
00000030: eb28 cc17 e94a b401 e739 297f 293d 523e
00000040: 240f c4ab f3a4 3442 28f6 0b08 0dcc b2cf
00000050: a3a0 c0af 0bab fbfc 1d58 9be1 8e8e ebf4
00000060: 6417 e6db 29c6 2b01 0cf6 272b 4e2f dcec
00000070: 4eb8 1ebb da26 ba02 f5bd cc29 c64e ec22
00000080: 4412 9ea8 16c9 6cc1 210d 146c e6b4 2e08
00000090: a2ed e9c7 4ea2 0419 e1b8 d5d7 96d7 4238
000000a0: 4640 50e7 4d9b 43bc 6331 2104 8fb9 5fb5
000000b0: 43a9 4dec a232 d8eb 3125 aac0 b8de 81fb
000000c0: 5ad1 b1b1 3698 c5a7 9d46 8fec 5e2a db32
000000d0: bd26 d7a4 f231 e308 5007 acf0 02ba 0a36
000000e0: 18ea 2bd1 e783 d1fe bac6 5fe7 3db9 20d5
000000f0: 376d 53ab 0429 0fcf ce29 06e0 14e2 2959

tfl.pseudo_qconst55 i1 [1, 3, 3, 144]
64 -49 -59 74 -12 21 79 -96
127 64 97 -85 82 81 -18 127
-21 24 49 36 26 -89 -17 -30
-127 50 -69 -56 -64 9 80 -127
-44 17 15 -71 1 49 67 -72
27 -33 -30 89 -30 -8 127 116
-75 10 101 -9 16 51 -36 2
70 -96 -104 -4 -29 89 -28 127
72 -6 82 -50 127 -60 -57 17
-11 12 -6 -19 85 127 50 61
114 72 40 -127 122 29 17 -89
3 -7 45 74 -31 -31 121 -6
-127 0 -31 127 12 -127 57 -10
97 -33 51 -14 109 24 -11 -29
-50 -4 30 -109 110 -92 25 -14
-110 92 49 11 127 2 78 112
37 57 -27 -86 15 106 38 22
-86 -10 127 -26 -7 33 29 -25
-91 -21 127 -70 80 127 3 28
41 -80 14 -39 127 48 -63 -19
-12 -46 -127 -77 42 71 69 95
-9 -1 -127 82 -74 -52 -15 7
-21 48 1 -87 56 -6 -25 -58
69 -127 38 -82 7 100 -123 -6
-74 -107 -19 68 45 67 -72 59
29 108 11 16 16 -78 86 56
30 -30 49 83 15 57 -46 72
-87 127 -30 37 -67 0 47 -69
99 30 31 71 -117 -127 -57 46
127 25 -60 -127 50 18 -5 53
-2 57 77 34 127 90 127 -80
-59 -127 -15 -89 -125 -60 -8 22
00000000: 40cf c54a f415 4fa0 7f40 61ab 5251 ee7f
00000010: eb18 3124 1aa7 efe2 8132 bbc8 c009 5081
00000020: d411 0fb9 0131 43b8 1bdf e259 e2f8 7f74
00000030: b50a 65f7 1033 dc02 46a0 98fc e359 e47f
00000040: 48fa 52ce 7fc4 c711 f50c faed 557f 323d
00000050: 7248 2881 7a1d 11a7 03f9 2d4a e1e1 79fa
00000060: 8100 e17f 0c81 39f6 61df 33f2 6d18 f5e3
00000070: cefc 1e93 6ea4 19f2 925c 310b 7f02 4e70
00000080: 2539 e5aa 0f6a 2616 aaf6 7fe6 f921 1de7
00000090: a5eb 7fba 507f 031c 29b0 0ed9 7f30 c1ed
000000a0: f4d2 81b3 2a47 455f f7ff 8152 b6cc f107
000000b0: eb30 01a9 38fa e7c6 4581 26ae 0764 85fa
000000c0: b695 ed44 2d43 b83b 1d6c 0b10 10b2 5638
000000d0: 1ee2 3153 0f39 d248 a97f e225 bd00 2fbb
000000e0: 631e 1f47 8b81 c72e 7f19 c481 3212 fb35
000000f0: fe39 4d22 7f5a 7fb0 c581 f1a7 83c4 f816

tfl.pseudo_qconst57 i1 [144, 1, 1, 24]
-1 -76 55 19 -39 76 -114 80
89 -127 -55 68 -18 -69 1 -43
65 -25 85 -7 -112 -66 -35 -85
56 -89 127 -56 30 -88 -60 102
122 33 58 30 94 62 52 97
50 103 -28 36 18 -56 -40 -62
-59 17 -33 -96 -36 -127 40 54
30 27 99 71 -60 -69 63 -69
-4 98 69 106 -44 -114 -52 97
-34 88 -4 -92 89 32 3 -4
-62 31 -26 121 9 -125 -43 -63
45 124 -93 -18 -84 -110 12 -127
4 6 -127 117 -63 38 -41 53
-87 80 -28 -30 8 -105 -71 -63
-81 -88 -26 33 71 -108 -101 -76
-127 36 46 -30 33 16 -30 23
-30 -110 -17 -74 -69 -34 18 52
-30 -27 -47 76 98 -59 -81 12
-127 -49 26 78 -23 -6 58 -88
27 18 -96 17 -53 -33 -46 -124
61 93 76 11 9 99 15 -9
27 0 -4 6 -127 48 82 63
-11 26 -32 114 32 115 20 23
-40 79 66 -65 -15 -35 -6 59
-9 94 7 31 29 46 31 -104
127 107 -71 92 -111 -14 46 106
39 61 104 84 2 20 73 -113
31 61 -82 -44 69 14 73 71
-44 -86 45 -40 -34 -21 -55 23
23 89 -127 87 37 -39 -43 50
-39 -54 -30 -34 52 -43 22 -105
24 -16 98 41 -53 64 -6 -35
00000000: ffb4 3713 d94c 8e50 5981 c944 eebb 01d5
00000010: 41e7 55f9 90be ddab 38a7 7fc8 1ea8 c466
00000020: 7a21 3a1e 5e3e 3461 3267 e424 12c8 d8c2
00000030: c511 dfa0 dc81 2836 1e1b 6347 c4bb 3fbb
00000040: fc62 456a d48e cc61 de58 fca4 5920 03fc
00000050: c21f e679 0983 d5c1 2d7c a3ee ac92 0c81
00000060: 0406 8175 c126 d735 a950 e4e2 0897 b9c1
00000070: afa8 e621 4794 9bb4 8124 2ee2 2110 e217
00000080: e292 efb6 bbde 1234 e2e5 d14c 62c5 af0c
00000090: 81cf 1a4e e9fa 3aa8 1b12 a011 cbdf d284
000000a0: 3d5d 4c0b 0963 0ff7 1b00 fc06 8130 523f
000000b0: f51a e072 2073 1417 d84f 42bf f1dd fa3b
000000c0: f75e 071f 1d2e 1f98 7f6b b95c 91f2 2e6a
000000d0: 273d 6854 0214 498f 1f3d aed4 450e 4947
000000e0: d4aa 2dd8 deeb c917 1759 8157 25d9 d532
000000f0: d9ca e2de 34d5 1697 18f0 6229 cb40 fadd
