Project/Q2/lenet_kmnist_int8.tflite (tflite, 19648 bytes, 5 tensors)

tfl.pseudo_qconst1 i1 [10, 32]
0	0x11	17
1	0xe9	-23
2	0x96	-106
3	0x84	-124
4	0x4e	78
5	0xeb	-21
6	0x2d	45
7	0xb5	-75
8	0x16	22
9	0xe5	-27
10	0x54	84
11	0x18	24
12	0x1e	30
13	0x36	54
14	0xce	-50
15	0xdb	-37
16	0xb7	-73
17	0xd6	-42
18	0xa9	-87
19	0xec	-20
20	0x06	6
21	0xf9	-7
22	0x0f	15
23	0xf1	-15
24	0xb8	-72
25	0x0c	12
26	0xee	-18
27	0x27	39
28	0xda	-38
29	0xa2	-94
30	0x81	-127
31	0x02	2
32	0x81	-127
33	0xc8	-56
34	0x04	4
35	0xd9	-39
36	0x20	32
37	0x41	65
38	0x70	112
39	0x4c	76
40	0x95	-107
41	0xd7	-41
42	0xec	-20
43	0x7d	125
44	0xcb	-53
45	0xe3	-29
46	0x18	24
47	0x32	50
48	0x88	-120
49	0x0f	15
50	0xa6	-90
51	0xd8	-40
52	0xcf	-49
53	0xf0	-16
54	0xad	-83
55	0x02	2
56	0x92	-110
57	0xf7	-9
58	0xd3	-45
59	0xb6	-74
60	0x16	22
61	0xd3	-45
62	0x28	40
63	0x33	51
64	0x0a	10
65	0x29	41
66	0x0a	10
67	0x50	80
68	0xc6	-58
69	0x15	21
70	0x81	-127
71	0xde	-34
72	0x07	7
73	0x08	8
74	0xcb	-53
75	0xd8	-40
76	0x10	16
77	0x35	53
78	0x40	64
79	0x5a	90
80	0xd6	-42
81	0x12	18
82	0xff	-1
83	0x34	52
84	0x22	34
85	0xf6	-10
86	0xff	-1
87	0x0c	12
88	0xb6	-74
89	0x02	2
90	0xe7	-25
91	0x33	51
92	0x2f	47
93	0xe1	-31
94	0x82	-126
95	0x17	23
96	0x1f	31
97	0xec	-20
98	0x15	21
99	0xde	-34
100	0x15	21
101	0xdf	-33
102	0xf6	-10
103	0xe3	-29
104	0xe9	-23
105	0x14	20
106	0xff	-1
107	0xff	-1
108	0xea	-22
109	0x08	8
110	0x1d	29
111	0x00	0
112	0xf4	-12
113	0x02	2
114	0x10	16
115	0xf2	-14
116	0xe0	-32
117	0x0b	11
118	0xef	-17
119	0x11	17
120	0x0a	10
121	0x09	9
122	0xe9	-23
123	0x07	7
124	0x00	0
125	0x06	6
126	0x81	-127
127	0x20	32
128	0x47	71
129	0xe9	-23
130	0xc5	-59
131	0x0e	14
132	0x34	52
133	0xf9	-7
134	0x02	2
135	0x14	20
136	0xf3	-13
137	0x9a	-102
138	0x13	19
139	0x01	1
140	0x20	32
141	0xb9	-71
142	0x19	25
143	0x89	-119
144	0x68	104
145	0xad	-83
146	0x4e	78
147	0xfc	-4
148	0x4f	79
149	0xcc	-52
150	0x2d	45
151	0xfe	-2
152	0x2e	46
153	0xd5	-43
154	0x07	7
155	0xb9	-71
156	0x3d	61
157	0x81	-127
158	0xf9	-7
159	0x11	17
160	0x3b	59
161	0x7f	127
162	0x3c	60
163	0x7e	126
164	0x39	57
165	0xb5	-75
166	0x5f	95
167	0xbf	-65
168	0xd8	-40
169	0x05	5
170	0xea	-22
171	0x47	71
172	0xf0	-16
173	0x37	55
174	0xde	-34
175	0x2a	42
176	0x51	81
177	0x18	24
178	0xa5	-91
179	0x0f	15
180	0xaf	-81
181	0xed	-19
182	0x00	0
183	0xee	-18
184	0x40	64
185	0x63	99
186	0xf5	-11
187	0x21	33
188	0x23	35
189	0x16	22
190	0xaf	-81
191	0xc5	-59
192	0xdd	-35
193	0x9b	-101
194	0x0c	12
195	0xdd	-35
196	0xa8	-88
197	0x81	-127
198	0x12	18
199	0xe3	-29
200	0xfd	-3
201	0xe0	-32
202	0x41	65
203	0xd7	-41
204	0x09	9
205	0xb5	-75
206	0xd4	-44
207	0x58	88
208	0x0c	12
209	0x40	64
210	0xdc	-36
211	0xdd	-35
212	0xf1	-15
213	0xab	-85
214	0xf1	-15
215	0x54	84
216	0xe6	-26
217	0x99	-103
218	0x70	112
219	0xc6	-58
220	0x3b	59
221	0x8d	-115
222	0xd3	-45
223	0x0c	12
224	0x00	0
225	0xf5	-11
226	0xe7	-25
227	0xe9	-23
228	0xe7	-25
229	0x14	20
230	0xd5	-43
231	0x04	4
232	0xde	-34
233	0xd7	-41
234	0x20	32
235	0xfa	-6
236	0x06	6
237	0xde	-34
238	0xe6	-26
239	0xfb	-5
240	0xef	-17
241	0x13	19
242	0xc0	-64
243	0xeb	-21
244	0x25	37
245	0x19	25
246	0xce	-50
247	0x2e	46
248	0x2f	47
249	0x2c	44
250	0xe9	-23
251	0x0f	15
252	0xc6	-58
253	0x2e	46
254	0x81	-127
255	0x0e	14

tfl.pseudo_qconst3 i1 [32, 64]
0	0x38	56
1	0xa9	-87
2	0xf3	-13
3	0xae	-82
4	0xb0	-80
5	0x19	25
6	0x33	51
7	0x03	3
8	0x3f	63
9	0x99	-103
10	0x45	69
11	0xbc	-68
12	0x13	19
13	0xf3	-13
14	0xfa	-6
15	0x6d	109
16	0xe5	-27
17	0x21	33
18	0xf6	-10
19	0x14	20
20	0xd8	-40
21	0xf3	-13
22	0xd2	-46
23	0x1d	29
24	0xee	-18
25	0x34	52
26	0x41	65
27	0x18	24
28	0xf5	-11
29	0xb5	-75
30	0x04	4
31	0x0f	15
32	0xd5	-43
33	0x2a	42
34	0x31	49
35	0xe2	-30
36	0xe8	-24
37	0xb0	-80
38	0x29	41
39	0xc6	-58
40	0x55	85
41	0x1c	28
42	0x26	38
43	0x54	84
44	0x85	-123
45	0x2c	44
46	0x7f	127
47	0xf2	-14
48	0x2e	46
49	0x46	70
50	0xba	-70
51	0xcf	-49
52	0x24	36
53	0x6e	110
54	0xf3	-13
55	0xa4	-92
56	0xca	-54
57	0xd7	-41
58	0x06	6
59	0xdf	-33
60	0x66	102
61	0xc2	-62
62	0xbf	-65
63	0x7d	125
64	0xd1	-47
65	0x2d	45
66	0x26	38
67	0xdf	-33
68	0x2d	45
69	0xd3	-45
70	0xc7	-57
71	0xfe	-2
72	0x5e	94
73	0x93	-109
74	0x04	4
75	0x64	100
76	0x0f	15
77	0x5b	91
78	0xdc	-36
79	0xb4	-76
80	0xab	-85
81	0x4d	77
82	0x0d	13
83	0x54	84
84	0xe2	-30
85	0x2b	43
86	0x06	6
87	0x0c	12
88	0xc1	-63
89	0xe2	-30
90	0xe5	-27
91	0xdf	-33
92	0x5d	93
93	0xe4	-28
94	0xa3	-93
95	0xe3	-29
96	0x2c	44
97	0x11	17
98	0xed	-19
99	0xac	-84
100	0xef	-17
101	0x2b	43
102	0x95	-107
103	0xb9	-71
104	0x7f	127
105	0xf4	-12
106	0x3d	61
107	0x0b	11
108	0xf5	-11
109	0xf4	-12
110	0x1d	29
111	0x05	5
112	0xd3	-45
113	0x0f	15
114	0xe9	-23
115	0x0a	10
116	0xde	-34
117	0xa8	-88
118	0x3f	63
119	0xdb	-37
120	0xce	-50
121	0x1b	27
122	0xfc	-4
123	0x15	21
124	0x1f	31
125	0xc7	-57
126	0xe2	-30
127	0x41	65
128	0x25	37
129	0xd8	-40
130	0xbe	-66
131	0xd9	-39
132	0xd9	-39
133	0x06	6
134	0xc6	-58
135	0xf5	-11
136	0x0e	14
137	0xe0	-32
138	0xe5	-27
139	0x0a	10
140	0x95	-107
141	0xd0	-48
142	0xef	-17
143	0xed	-19
144	0xeb	-21
145	0x38	56
146	0x0e	14
147	0xb7	-73
148	0x21	33
149	0x36	54
150	0xbf	-65
151	0x85	-123
152	0xf0	-16
153	0xc5	-59
154	0x16	22
155	0x26	38
156	0x7f	127
157	0xdb	-37
158	0xe0	-32
159	0x0a	10
160	0xc2	-62
161	0x38	56
162	0x24	36
163	0xd4	-44
164	0x14	20
165	0x9e	-98
166	0x09	9
167	0xa2	-94
168	0x20	32
169	0x83	-125
170	0x4e	78
171	0xe7	-25
172	0xb1	-79
173	0xba	-70
174	0xbf	-65
175	0x03	3
176	0xd7	-41
177	0x15	21
178	0xee	-18
179	0x08	8
180	0xae	-82
181	0x10	16
182	0xda	-38
183	0x0c	12
184	0x13	19
185	0x13	19
186	0x2b	43
187	0xc0	-64
188	0xe3	-29
189	0xe4	-28
190	0xcc	-52
191	0xd4	-44
192	0x17	23
193	0x0a	10
194	0xfc	-4
195	0xf9	-7
196	0x27	39
197	0xdc	-36
198	0xe5	-27
199	0xae	-82
200	0xea	-22
201	0x18	24
202	0xf2	-14
203	0x1c	28
204	0x02	2
205	0xd7	-41
206	0xda	-38
207	0x30	48
208	0x12	18
209	0x26	38
210	0xec	-20
211	0xfa	-6
212	0x23	35
213	0xc3	-61
214	0xf0	-16
215	0xeb	-21
216	0xdf	-33
217	0xf9	-7
218	0x20	32
219	0xe8	-24
220	0x44	68
221	0xd2	-46
222	0x40	64
223	0x08	8
224	0xe7	-25
225	0xe9	-23
226	0x0c	12
227	0x1e	30
228	0xf6	-10
229	0x1f	31
230	0x1d	29
231	0xc7	-57
232	0x14	20
233	0xab	-85
234	0x0e	14
235	0xf1	-15
236	0x22	34
237	0x22	34
238	0x08	8
239	0xab	-85
240	0xf5	-11
241	0xe5	-27
242	0x1a	26
243	0x81	-127
244	0x07	7
245	0xf9	-7
246	0xe8	-24
247	0x05	5
248	0xe9	-23
249	0xea	-22
250	0x0d	13
251	0x14	20
252	0xfd	-3
253	0x29	41
254	0xfd	-3
255	0xbf	-65

tfl.pseudo_qconst5 i1 [64, 128]
0	0xd0	-48
1	0xbc	-68
2	0xf4	-12
3	0xf5	-11
4	0x3c	60
5	0x4b	75
6	0x1c	28
7	0x0e	14
8	0xab	-85
9	0xeb	-21
10	0xf7	-9
11	0x83	-125
12	0x9b	-101
13	0xf5	-11
14	0xb8	-72
15	0xe9	-23
16	0xc2	-62
17	0xca	-54
18	0xad	-83
19	0xd3	-45
20	0x18	24
21	0x1f	31
22	0x2b	43
23	0x0e	14
24	0xe7	-25
25	0xb0	-80
26	0x1b	27
27	0x14	20
28	0x0d	13
29	0x39	57
30	0xad	-83
31	0xcc	-52
32	0x39	57
33	0x01	1
34	0x90	-112
35	0xe6	-26
36	0x56	86
37	0x48	72
38	0xaf	-81
39	0x2f	47
40	0x53	83
41	0x89	-119
42	0x18	24
43	0xe0	-32
44	0x18	24
45	0xa7	-89
46	0xa9	-87
47	0x1d	29
48	0x27	39
49	0xc8	-56
50	0xbd	-67
51	0xbe	-66
52	0x0d	13
53	0xdb	-37
54	0x0b	11
55	0x99	-103
56	0xfd	-3
57	0xaf	-81
58	0xdb	-37
59	0xb4	-76
60	0x09	9
61	0x63	99
62	0x81	-127
63	0x14	20
64	0x23	35
65	0x0a	10
66	0xf9	-7
67	0x3f	63
68	0x08	8
69	0x4f	79
70	0xcb	-53
71	0x17	23
72	0x38	56
73	0xd0	-48
74	0xa3	-93
75	0xb8	-72
76	0xc6	-58
77	0x92	-110
78	0x66	102
79	0x3c	60
80	0x55	85
81	0x27	39
82	0x46	70
83	0xe2	-30
84	0x2a	42
85	0x86	-122
86	0xcd	-51
87	0xf1	-15
88	0xeb	-21
89	0x29	41
90	0x86	-122
91	0x04	4
92	0x8a	-118
93	0xf5	-11
94	0xe7	-25
95	0xf9	-7
96	0xb9	-71
97	0x55	85
98	0x4a	74
99	0xba	-70
100	0xfa	-6
101	0xe9	-23
102	0xea	-22
103	0xc1	-63
104	0x3d	61
105	0xdc	-36
106	0xf9	-7
107	0xff	-1
108	0x19	25
109	0x09	9
110	0xb0	-80
111	0xb7	-73
112	0x98	-104
113	0xa5	-91
114	0xa1	-95
115	0xce	-50
116	0x33	51
117	0xa4	-92
118	0xf4	-12
119	0x2b	43
120	0xa1	-95
121	0xe7	-25
122	0xe5	-27
123	0x94	-108
124	0xcc	-52
125	0xd7	-41
126	0xdd	-35
127	0x5f	95
128	0x17	23
129	0xce	-50
130	0x0d	13
131	0xc9	-55
132	0xe6	-26
133	0x0a	10
134	0xeb	-21
135	0xf4	-12
136	0x1c	28
137	0x08	8
138	0x01	1
139	0x0e	14
140	0xcb	-53
141	0x08	8
142	0xf5	-11
143	0x07	7
144	0xc0	-64
145	0x08	8
146	0xcd	-51
147	0x1d	29
148	0x81	-127
149	0xeb	-21
150	0x15	21
151	0x04	4
152	0xf8	-8
153	0x2d	45
154	0xc6	-58
155	0xa1	-95
156	0xdf	-33
157	0xc7	-57
158	0x32	50
159	0xf6	-10
160	0x0d	13
161	0x1a	26
162	0x23	35
163	0x0d	13
164	0x0a	10
165	0x17	23
166	0x04	4
167	0xd3	-45
168	0x24	36
169	0x1f	31
170	0x1e	30
171	0x0d	13
172	0xe3	-29
173	0x20	32
174	0xe5	-27
175	0x28	40
176	0xc1	-63
177	0xfe	-2
178	0x0e	14
179	0x15	21
180	0x9a	-102
181	0xff	-1
182	0x02	2
183	0x02	2
184	0x1a	26
185	0x11	17
186	0xe5	-27
187	0xd2	-46
188	0xd1	-47
189	0x11	17
190	0x10	16
191	0x0c	12
192	0xd5	-43
193	0xfc	-4
194	0xdc	-36
195	0xd4	-44
196	0xe3	-29
197	0x18	24
198	0x25	37
199	0xf9	-7
200	0x0c	12
201	0xf2	-14
202	0x1a	26
203	0x19	25
204	0xfb	-5
205	0x11	17
206	0x15	21
207	0x1f	31
208	0x05	5
209	0x2c	44
210	0xe2	-30
211	0x5c	92
212	0xd4	-44
213	0x08	8
214	0x12	18
215	0x01	1
216	0x05	5
217	0x0b	11
218	0x18	24
219	0xfa	-6
220	0xea	-22
221	0xfe	-2
222	0xe5	-27
223	0x0c	12
224	0xf2	-14
225	0xcf	-49
226	0x0c	12
227	0x16	22
228	0xf5	-11
229	0xf9	-7
230	0xf9	-7
231	0x0f	15
232	0x2a	42
233	0xf6	-10
234	0x2e	46
235	0x1e	30
236	0x11	17
237	0x10	16
238	0xcf	-49
239	0x1c	28
240	0x29	41
241	0xe8	-24
242	0xef	-17
243	0x27	39
244	0xd6	-42
245	0xf3	-13
246	0x11	17
247	0x04	4
248	0xd4	-44
249	0xf1	-15
250	0x1d	29
251	0x29	41
252	0x14	20
253	0x12	18
254	0xfb	-5
255	0xf6	-10

tfl.pseudo_qconst7 i1 [8, 5, 5, 4]
0	0x04	4
1	0x2a	42
2	0xf8	-8
3	0xfc	-4
4	0x0a	10
5	0x0e	14
6	0x0e	14
7	0x09	9
8	0x59	89
9	0x07	7
10	0x0e	14
11	0x08	8
12	0x7f	127
13	0xff	-1
14	0x0d	13
15	0x19	25
16	0x69	105
17	0x06	6
18	0x36	54
19	0x2b	43
20	0xe5	-27
21	0x1c	28
22	0x01	1
23	0x09	9
24	0x49	73
25	0xdb	-37
26	0x11	17
27	0xfa	-6
28	0x7e	126
29	0x08	8
30	0xe1	-31
31	0x18	24
32	0x5b	91
33	0xff	-1
34	0xf2	-14
35	0x1e	30
36	0x52	82
37	0x00	0
38	0x08	8
39	0x36	54
40	0x26	38
41	0xeb	-21
42	0xdb	-37
43	0xdd	-35
44	0x43	67
45	0xef	-17
46	0x0d	13
47	0xf2	-14
48	0x76	118
49	0xf9	-7
50	0xe2	-30
51	0x09	9
52	0x78	120
53	0xee	-18
54	0xf3	-13
55	0xf5	-11
56	0x1b	27
57	0xec	-20
58	0x22	34
59	0x15	21
60	0xf8	-8
61	0xde	-34
62	0xf1	-15
63	0xdd	-35
64	0x1f	31
65	0xe6	-26
66	0x03	3
67	0xe9	-23
68	0x2b	43
69	0xec	-20
70	0xf5	-11
71	0xf4	-12
72	0x1c	28
73	0x0d	13
74	0xdb	-37
75	0x09	9
76	0xe5	-27
77	0xfd	-3
78	0xf5	-11
79	0x04	4
80	0x55	85
81	0x0c	12
82	0x15	21
83	0xeb	-21
84	0x41	65
85	0x01	1
86	0xed	-19
87	0x01	1
88	0x49	73
89	0xde	-34
90	0xe6	-26
91	0x14	20
92	0x15	21
93	0xd3	-45
94	0xfc	-4
95	0xed	-19
96	0xc4	-60
97	0xfc	-4
98	0xe6	-26
99	0xd9	-39
100	0x7f	127
101	0x37	55
102	0x06	6
103	0x45	69
104	0xcd	-51
105	0x2a	42
106	0x34	52
107	0x08	8
108	0xc0	-64
109	0xd4	-44
110	0x26	38
111	0xff	-1
112	0x24	36
113	0x25	37
114	0xf5	-11
115	0xf2	-14
116	0x03	3
117	0xd1	-47
118	0xd3	-45
119	0xa9	-87
120	0x76	118
121	0x39	57
122	0x26	38
123	0x21	33
124	0xd8	-40
125	0xcc	-52
126	0xf5	-11
127	0x0e	14
128	0xce	-50
129	0xf1	-15
130	0xdb	-37
131	0x11	17
132	0xbd	-67
133	0x04	4
134	0x34	52
135	0x2b	43
136	0xde	-34
137	0x1c	28
138	0xd8	-40
139	0xe8	-24
140	0x4e	78
141	0xe4	-28
142	0x12	18
143	0x46	70
144	0xe7	-25
145	0x02	2
146	0x2d	45
147	0x10	16
148	0x95	-107
149	0x09	9
150	0xdc	-36
151	0x0d	13
152	0xd0	-48
153	0x1a	26
154	0x30	48
155	0x30	48
156	0xaf	-81
157	0xea	-22
158	0xea	-22
159	0x0e	14
160	0x63	99
161	0x03	3
162	0x58	88
163	0xf3	-13
164	0xf6	-10
165	0x16	22
166	0xfd	-3
167	0xf6	-10
168	0xa9	-87
169	0x26	38
170	0x22	34
171	0x2f	47
172	0x01	1
173	0x0e	14
174	0x43	67
175	0xf9	-7
176	0xf6	-10
177	0x31	49
178	0x13	19
179	0xe2	-30
180	0x67	103
181	0xe3	-29
182	0x5b	91
183	0x43	67
184	0xb2	-78
185	0xea	-22
186	0xe5	-27
187	0x1a	26
188	0xcc	-52
189	0xff	-1
190	0xe6	-26
191	0xf1	-15
192	0x08	8
193	0x14	20
194	0x28	40
195	0xe1	-31
196	0x01	1
197	0x52	82
198	0x1e	30
199	0x3c	60
200	0x4f	79
201	0x09	9
202	0x21	33
203	0xfd	-3
204	0x25	37
205	0x0a	10
206	0x12	18
207	0x2c	44
208	0xf4	-12
209	0xff	-1
210	0x08	8
211	0x34	52
212	0xe9	-23
213	0x27	39
214	0x41	65
215	0x39	57
216	0xeb	-21
217	0x30	48
218	0x33	51
219	0x19	25
220	0x03	3
221	0xf0	-16
222	0xe4	-28
223	0x06	6
224	0x11	17
225	0xeb	-21
226	0xe9	-23
227	0xfd	-3
228	0x3d	61
229	0xda	-38
230	0xd8	-40
231	0x04	4
232	0x47	71
233	0xcb	-53
234	0xe4	-28
235	0xe4	-28
236	0x02	2
237	0x21	33
238	0x05	5
239	0x13	19
240	0x3f	63
241	0xf5	-11
242	0xe4	-28
243	0xf9	-7
244	0x56	86
245	0xfa	-6
246	0x06	6
247	0xf9	-7
248	0x49	73
249	0x08	8
250	0x02	2
251	0x0e	14
252	0x72	114
253	0xc0	-64
254	0xe1	-31
255	0x02	2

tfl.pseudo_qconst9 i1 [4, 5, 5, 1]
0	0xfe	-2
1	0xf7	-9
2	0x30	48
3	0x0a	10
4	0xba	-70
5	0xc9	-55
6	0x85	-123
7	0x81	-127
8	0xbd	-67
9	0xd5	-43
10	0xf8	-8
11	0xbd	-67
12	0xb0	-80
13	0xe9	-23
14	0x23	35
15	0x68	104
16	0x37	55
17	0x30	48
18	0x24	36
19	0x42	66
20	0x3d	61
21	0x77	119
22	0x69	105
23	0x28	40
24	0x1e	30
25	0xe2	-30
26	0xf8	-8
27	0x34	52
28	0x33	51
29	0x33	51
30	0xac	-84
31	0xb8	-72
32	0x21	33
33	0x6d	109
34	0x5c	92
35	0x83	-125
36	0xab	-85
37	0x46	70
38	0x7f	127
39	0x1e	30
40	0xc0	-64
41	0xbf	-65
42	0x67	103
43	0x69	105
44	0x21	33
45	0xc2	-62
46	0xe6	-26
47	0x78	120
48	0x44	68
49	0x35	53
50	0xe8	-24
51	0x22	34
52	0x39	57
53	0x47	71
54	0xd5	-43
55	0xed	-19
56	0x2d	45
57	0x2d	45
58	0x34	52
59	0x35	53
60	0x36	54
61	0x24	36
62	0x33	51
63	0x44	68
64	0xfa	-6
65	0x4f	79
66	0x7f	127
67	0x3b	59
68	0x34	52
69	0x16	22
70	0x65	101
71	0x2f	47
72	0x4e	78
73	0xec	-20
74	0xfb	-5
75	0x8b	-117
76	0x15	21
77	0x27	39
78	0x53	83
79	0x35	53
80	0xb5	-75
81	0x49	73
82	0x3b	59
83	0x7f	127
84	0x5d	93
85	0xe8	-24
86	0x5f	95
87	0x57	87
88	0x12	18
89	0xf2	-14
90	0x5e	94
91	0x48	72
92	0x2d	45
93	0xc3	-61
94	0xf2	-14
95	0x29	41
96	0x25	37
97	0xee	-18
98	0x1c	28
99	0x2f	47
