HW4/Q2/kws_model_int8.tflite (tflite, 21872 bytes, 3 tensors)

tfl.pseudo_qconst1 i1 [10, 100]
0	0x0c	12
1	0xea	-22
2	0xea	-22
3	0x04	4
4	0x2f	47
5	0x0a	10
6	0xa9	-87
7	0xe0	-32
8	0xf9	-7
9	0x00	0
10	0x0e	14
11	0xa9	-87
12	0x37	55
13	0x0b	11
14	0xf1	-15
15	0xd6	-42
16	0x10	16
17	0x0b	11
18	0xec	-20
19	0x03	3
20	0xd8	-40
21	0xf9	-7
22	0xb5	-75
23	0x0f	15
24	0x26	38
25	0xa3	-93
26	0x12	18
27	0x08	8
28	0xef	-17
29	0xe9	-23
30	0xb1	-79
31	0xcc	-52
32	0x19	25
33	0x88	-120
34	0xb4	-76
35	0xe3	-29
36	0x9e	-98
37	0xfd	-3
38	0x29	41
39	0x1c	28
40	0x03	3
41	0xea	-22
42	0x19	25
43	0x20	32
44	0x06	6
45	0x04	4
46	0xba	-70
47	0xdf	-33
48	0x00	0
49	0x16	22
50	0x28	40
51	0x4e	78
52	0x37	55
53	0xd4	-44
54	0xed	-19
55	0xed	-19
56	0xe4	-28
57	0x08	8
58	0x14	20
59	0x26	38
60	0x07	7
61	0xe7	-25
62	0xed	-19
63	0x03	3
64	0xf5	-11
65	0x16	22
66	0xa8	-88
67	0x3c	60
68	0xc7	-57
69	0x26	38
70	0x0a	10
71	0xcd	-51
72	0x1f	31
73	0xd2	-46
74	0xf8	-8
75	0x1f	31
76	0x11	17
77	0x05	5
78	0xf3	-13
79	0xf4	-12
80	0x1c	28
81	0x2c	44
82	0x08	8
83	0xf5	-11
84	0x81	-127
85	0xf7	-9
86	0x28	40
87	0x27	39
88	0xfd	-3
89	0x02	2
90	0x98	-104
91	0x09	9
92	0xf4	-12
93	0x22	34
94	0xfc	-4
95	0x12	18
96	0xa8	-88
97	0x37	55
98	0xc0	-64
99	0x09	9
100	0x25	37
101	0xea	-22
102	0x1b	27
103	0x57	87
104	0x1e	30
105	0xbf	-65
106	0xfe	-2
107	0xfc	-4
108	0xdb	-37
109	0xe0	-32
110	0xed	-19
111	0x8b	-117
112	0x81	-127
113	0x2e	46
114	0xde	-34
115	0xff	-1
116	0x1e	30
117	0xd0	-48
118	0x1b	27
119	0x29	41
120	0x2a	42
121	0x32	50
122	0xfd	-3
123	0xe6	-26
124	0x31	49
125	0x20	32
126	0xe9	-23
127	0x16	22
128	0x20	32
129	0x1d	29
130	0x34	52
131	0xf7	-9
132	0x18	24
133	0x36	54
134	0xef	-17
135	0x33	51
136	0x01	1
137	0x06	6
138	0x05	5
139	0x20	32
140	0xde	-34
141	0xd7	-41
142	0xd9	-39
143	0xd2	-46
144	0xe3	-29
145	0xf8	-8
146	0xfa	-6
147	0xd3	-45
148	0x5c	92
149	0x0c	12
150	0x60	96
151	0xc3	-61
152	0x0b	11
153	0xdc	-36
154	0x21	33
155	0xe4	-28
156	0x17	23
157	0x26	38
158	0x27	39
159	0x97	-105
160	0x41	65
161	0xfb	-5
162	0x9b	-101
163	0x00	0
164	0xe6	-26
165	0xdc	-36
166	0xb8	-72
167	0x13	19
168	0xe1	-31
169	0xca	-54
170	0xe8	-24
171	0xd1	-47
172	0xda	-38
173	0xe9	-23
174	0x2f	47
175	0xbf	-65
176	0x0d	13
177	0x05	5
178	0x0a	10
179	0xa3	-93
180	0x0f	15
181	0xc3	-61
182	0xde	-34
183	0x15	21
184	0xf3	-13
185	0xe4	-28
186	0xa0	-96
187	0xcf	-49
188	0x02	2
189	0x1f	31
190	0x32	50
191	0xf5	-11
192	0x62	98
193	0x11	17
194	0xd0	-48
195	0xd8	-40
196	0x1f	31
197	0xda	-38
198	0xeb	-21
199	0x00	0
200	0xf6	-10
201	0xc6	-58
202	0xbf	-65
203	0xad	-83
204	0xc6	-58
205	0x1c	28
206	0x64	100
207	0xdf	-33
208	0xf9	-7
209	0xf9	-7
210	0x5b	91
211	0xbb	-69
212	0xe5	-27
213	0x8e	-114
214	0xe9	-23
215	0xd0	-48
216	0xf4	-12
217	0x01	1
218	0x17	23
219	0x11	17
220	0xbc	-68
221	0xcd	-51
222	0x36	54
223	0x2a	42
224	0xfc	-4
225	0xe7	-25
226	0x05	5
227	0x13	19
228	0x0c	12
229	0xfb	-5
230	0xb8	-72
231	0x86	-122
232	0xf1	-15
233	0x99	-103
234	0xf3	-13
235	0xed	-19
236	0xe9	-23
237	0x1b	27
238	0xed	-19
239	0xd5	-43
240	0x31	49
241	0x07	7
242	0x20	32
243	0xca	-54
244	0x04	4
245	0x2c	44
246	0xc6	-58
247	0xf6	-10
248	0xe7	-25
249	0xcb	-53
250	0x0d	13
251	0xd5	-43
252	0x17	23
253	0xf0	-16
254	0x1d	29
255	0x02	2

tfl.pseudo_qconst3 i1 [100, 100]
0	0xfc	-4
1	0xde	-34
2	0xf7	-9
3	0x0d	13
4	0xf7	-9
5	0xf9	-7
6	0x0b	11
7	0x28	40
8	0x19	25
9	0x2c	44
10	0x46	70
11	0xec	-20
12	0xf0	-16
13	0x43	67
14	0x31	49
15	0x02	2
16	0xc3	-61
17	0x31	49
18	0xdd	-35
19	0x07	7
20	0xef	-17
21	0xf2	-14
22	0x36	54
23	0x3b	59
24	0x09	9
25	0x06	6
26	0xc5	-59
27	0x29	41
28	0x25	37
29	0xf5	-11
30	0xe3	-29
31	0xec	-20
32	0xef	-17
33	0xdf	-33
34	0x30	48
35	0xff	-1
36	0x40	64
37	0xfe	-2
38	0x1a	26
39	0x7f	127
40	0x11	17
41	0xf5	-11
42	0x28	40
43	0x08	8
44	0xd7	-41
45	0xe4	-28
46	0x3e	62
47	0x03	3
48	0xe3	-29
49	0xfd	-3
50	0xf8	-8
51	0xea	-22
52	0xef	-17
53	0x0d	13
54	0x1d	29
55	0x12	18
56	0x2b	43
57	0x25	37
58	0x49	73
59	0x0d	13
60	0x70	112
61	0xe9	-23
62	0x01	1
63	0x0b	11
64	0xd6	-42
65	0x02	2
66	0x9f	-97
67	0xdd	-35
68	0x24	36
69	0xf3	-13
70	0x17	23
71	0xae	-82
72	0xc9	-55
73	0xce	-50
74	0xf5	-11
75	0x20	32
76	0x3d	61
77	0x40	64
78	0x00	0
79	0x0f	15
80	0x17	23
81	0xe3	-29
82	0x29	41
83	0xda	-38
84	0xf7	-9
85	0x32	50
86	0xfe	-2
87	0xb2	-78
88	0x41	65
89	0x65	101
90	0xde	-34
91	0xa2	-94
92	0xf0	-16
93	0xd3	-45
94	0x10	16
95	0x11	17
96	0xe9	-23
97	0x8d	-115
98	0xee	-18
99	0x20	32
100	0x16	22
101	0xfc	-4
102	0x34	52
103	0xe8	-24
104	0x2a	42
105	0x1a	26
106	0x2e	46
107	0xf2	-14
108	0x3c	60
109	0x11	17
110	0xe4	-28
111	0xdc	-36
112	0x31	49
113	0xf0	-16
114	0x11	17
115	0x28	40
116	0x2e	46
117	0xea	-22
118	0x04	4
119	0xd3	-45
120	0x59	89
121	0xfa	-6
122	0x1a	26
123	0xc1	-63
124	0x37	55
125	0xf8	-8
126	0x13	19
127	0xd1	-47
128	0x09	9
129	0xf5	-11
130	0x05	5
131	0xd6	-42
132	0xdf	-33
133	0x37	55
134	0xf5	-11
135	0x26	38
136	0x36	54
137	0x30	48
138	0x08	8
139	0xcb	-53
140	0x02	2
141	0x81	-127
142	0x1b	27
143	0x0c	12
144	0x26	38
145	0x4f	79
146	0x0d	13
147	0xd3	-45
148	0x9c	-100
149	0xe2	-30
150	0xe2	-30
151	0x3a	58
152	0x1b	27
153	0xc7	-57
154	0x1c	28
155	0x2e	46
156	0xe9	-23
157	0x42	66
158	0x1f	31
159	0x34	52
160	0x1b	27
161	0xfc	-4
162	0x23	35
163	0xfa	-6
164	0xf1	-15
165	0x27	39
166	0x36	54
167	0x2b	43
168	0x33	51
169	0x4c	76
170	0xfb	-5
171	0x20	32
172	0x95	-107
173	0x4f	79
174	0x3d	61
175	0xda	-38
176	0xf6	-10
177	0xfa	-6
178	0x0b	11
179	0x24	36
180	0xfb	-5
181	0xe7	-25
182	0x16	22
183	0x16	22
184	0x20	32
185	0x25	37
186	0xee	-18
187	0x24	36
188	0xe0	-32
189	0x16	22
190	0x2a	42
191	0xd8	-40
192	0x3d	61
193	0xd9	-39
194	0x01	1
195	0xeb	-21
196	0x31	49
197	0x0f	15
198	0xe3	-29
199	0xee	-18
200	0x16	22
201	0x0b	11
202	0x1d	29
203	0xe9	-23
204	0xf0	-16
205	0xed	-19
206	0x36	54
207	0x36	54
208	0x20	32
209	0x1e	30
210	0x1a	26
211	0xf9	-7
212	0xe7	-25
213	0xeb	-21
214	0xf1	-15
215	0x0d	13
216	0x14	20
217	0x12	18
218	0x10	16
219	0x15	21
220	0x1e	30
221	0xff	-1
222	0x1e	30
223	0x0e	14
224	0xf5	-11
225	0xfc	-4
226	0x0e	14
227	0x2d	45
228	0x00	0
229	0xf1	-15
230	0x03	3
231	0xeb	-21
232	0x23	35
233	0x18	24
234	0x03	3
235	0xcd	-51
236	0x1b	27
237	0x16	22
238	0xf3	-13
239	0x2e	46
240	0x1e	30
241	0xbf	-65
242	0x0f	15
243	0xea	-22
244	0xfb	-5
245	0x07	7
246	0xf0	-16
247	0xfb	-5
248	0xb1	-79
249	0x00	0
250	0xfb	-5
251	0x06	6
252	0x21	33
253	0xa8	-88
254	0x12	18
255	0x1d	29

tfl.pseudo_qconst5 i1 [100, 26]
0	0x22	34
1	0xf8	-8
2	0xba	-70
3	0xa5	-91
4	0x7b	123
5	0x01	1
6	0xd7	-41
7	0xe4	-28
8	0x60	96
9	0xdd	-35
10	0xb5	-75
11	0x63	99
12	0x9d	-99
13	0x1d	29
14	0x06	6
15	0xb7	-73
16	0xc5	-59
17	0x40	64
18	0x09	9
19	0x6d	109
20	0x53	83
21	0x3e	62
22	0x7f	127
23	0x86	-122
24	0x90	-112
25	0x34	52
26	0xdc	-36
27	0x1b	27
28	0x77	119
29	0x60	96
30	0xdf	-33
31	0xaa	-86
32	0xb5	-75
33	0xbd	-67
34	0xcf	-49
35	0x05	5
36	0xb9	-71
37	0xdd	-35
38	0x59	89
39	0x2f	47
40	0x1c	28
41	0xae	-82
42	0xf0	-16
43	0x5e	94
44	0x56	86
45	0x00	0
46	0x72	114
47	0x81	-127
48	0xd3	-45
49	0xea	-22
50	0x35	53
51	0x55	85
52	0xfe	-2
53	0x1f	31
54	0xe9	-23
55	0xca	-54
56	0x06	6
57	0x81	-127
58	0xcc	-52
59	0x5f	95
60	0xfa	-6
61	0x44	68
62	0x38	56
63	0xea	-22
64	0x06	6
65	0x14	20
66	0x04	4
67	0xb5	-75
68	0xa8	-88
69	0x01	1
70	0xdb	-37
71	0x2a	42
72	0x70	112
73	0x47	71
74	0xe8	-24
75	0x23	35
76	0x9c	-100
77	0xf9	-7
78	0x2f	47
79	0xf5	-11
80	0xda	-38
81	0xfe	-2
82	0x22	34
83	0x16	22
84	0xb1	-79
85	0xc9	-55
86	0xfb	-5
87	0x83	-125
88	0x45	69
89	0xa1	-95
90	0x22	34
91	0xf0	-16
92	0x2e	46
93	0x06	6
94	0x0b	11
95	0x37	55
96	0x05	5
97	0x43	67
98	0x97	-105
99	0xfd	-3
100	0xb1	-79
101	0x53	83
102	0x7f	127
103	0xbe	-66
104	0xe7	-25
105	0xe9	-23
106	0x42	66
107	0x7c	124
108	0x01	1
109	0x3f	63
110	0x7c	124
111	0x95	-107
112	0x5d	93
113	0x1b	27
114	0x0d	13
115	0x7f	127
116	0xd0	-48
117	0xcd	-51
118	0xe6	-26
119	0x45	69
120	0x30	48
121	0xd0	-48
122	0xf9	-7
123	0x2d	45
124	0xcd	-51
125	0xd5	-43
126	0xef	-17
127	0x10	16
128	0xdb	-37
129	0x3e	62
130	0x05	5
131	0x1d	29
132	0xbf	-65
133	0xe9	-23
134	0x27	39
135	0xe3	-29
136	0x06	6
137	0x95	-107
138	0xf0	-16
139	0xbc	-68
140	0xec	-20
141	0xdd	-35
142	0x12	18
143	0x1a	26
144	0x2f	47
145	0xea	-22
146	0x12	18
147	0xfc	-4
148	0x2b	43
149	0xec	-20
150	0x81	-127
151	0xe4	-28
152	0xe0	-32
153	0xda	-38
154	0x4b	75
155	0xf9	-7
156	0xf0	-16
157	0xd3	-45
158	0x36	54
159	0x3a	58
160	0xeb	-21
161	0x2f	47
162	0x15	21
163	0x45	69
164	0xf0	-16
165	0x48	72
166	0xd5	-43
167	0xe4	-28
168	0xc5	-59
169	0xfd	-3
170	0xfd	-3
171	0xbf	-65
172	0x11	17
173	0xf1	-15
174	0x35	53
175	0xec	-20
176	0x28	40
177	0x7d	125
178	0x81	-127
179	0x1c	28
180	0x71	113
181	0xd2	-46
182	0xf0	-16
183	0x22	34
184	0xd0	-48
185	0x05	5
186	0x21	33
187	0xd0	-48
188	0x16	22
189	0x0a	10
190	0xc8	-56
191	0x81	-127
192	0xa3	-93
193	0x23	35
194	0x98	-104
195	0xf4	-12
196	0x3a	58
197	0x75	117
198	0x02	2
199	0xdc	-36
200	0xe9	-23
201	0x06	6
202	0xab	-85
203	0xc5	-59
204	0xbb	-69
205	0x2a	42
206	0xdb	-37
207	0x05	5
208	0x12	18
209	0x04	4
210	0xcb	-53
211	0xc6	-58
212	0xd8	-40
213	0x12	18
214	0x5e	94
215	0x76	118
216	0x3b	59
217	0xdb	-37
218	0xa9	-87
219	0x6d	109
220	0x81	-127
221	0x0e	14
222	0xc0	-64
223	0x3b	59
224	0xcc	-52
225	0x9f	-97
226	0x44	68
227	0x37	55
228	0x70	112
229	0x3d	61
230	0x4d	77
231	0x1d	29
232	0xc1	-63
233	0x31	49
234	0x0d	13
235	0x33	51
236	0xd0	-48
237	0xdc	-36
238	0xfc	-4
239	0x09	9
240	0x7f	127
241	0xed	-19
242	0x60	96
243	0xe8	-24
244	0x9f	-97
245	0xff	-1
246	0x24	36
247	0x17	23
248	0xa1	-95
249	0xe2	-30
250	0x0b	11
251	0xd3	-45
252	0x30	48
253	0x32	50
254	0x33	51
255	0xda	-38
