HW6/squeezeNet/squeezenet_mnist_int8.tflite (tflite, 825336 bytes, 26 tensors)

tfl.pseudo_qconst1 i1 [10, 1, 1, 512]
0	0x05	5
1	0xe0	-32
2	0xf6	-10
3	0x09	9
4	0xf9	-7
5	0xe6	-26
6	0x0f	15
7	0xee	-18
8	0x0d	13
9	0x03	3
10	0xff	-1
11	0x09	9
12	0x0f	15
13	0x12	18
14	0xdf	-33
15	0xeb	-21
16	0x20	32
17	0x1e	30
18	0xde	-34
19	0xf8	-8
20	0xf7	-9
21	0x08	8
22	0xd4	-44
23	0xfd	-3
24	0x23	35
25	0xe7	-25
26	0x01	1
27	0xf6	-10
28	0x1c	28
29	0xf8	-8
30	0xe4	-28
31	0x02	2
32	0x11	17
33	0xfc	-4
34	0x0b	11
35	0xd4	-44
36	0x16	22
37	0x08	8
38	0xf2	-14
39	0xf4	-12
40	0x10	16
41	0xff	-1
42	0xf5	-11
43	0x00	0
44	0x09	9
45	0x07	7
46	0x0f	15
47	0x13	19
48	0x0c	12
49	0xe4	-28
50	0x1b	27
51	0xea	-22
52	0xf4	-12
53	0x06	6
54	0xf4	-12
55	0x05	5
56	0xee	-18
57	0x14	20
58	0xa9	-87
59	0x05	5
60	0x00	0
61	0x14	20
62	0xf6	-10
63	0xf7	-9
64	0xe9	-23
65	0xf5	-11
66	0xf9	-7
67	0xe8	-24
68	0xf3	-13
69	0xfd	-3
70	0xf6	-10
71	0x05	5
72	0xf0	-16
73	0xb3	-77
74	0xda	-38
75	0xff	-1
76	0xf8	-8
77	0xea	-22
78	0xf7	-9
79	0x00	0
80	0x15	21
81	0x10	16
82	0x0b	11
83	0x0a	10
84	0xee	-18
85	0xd9	-39
86	0x01	1
87	0xfd	-3
88	0xed	-19
89	0xef	-17
90	0xf9	-7
91	0x23	35
92	0xca	-54
93	0x08	8
94	0xed	-19
95	0x17	23
96	0x03	3
97	0xf8	-8
98	0xf0	-16
99	0x08	8
100	0xf5	-11
101	0xdb	-37
102	0xdd	-35
103	0x00	0
104	0xdb	-37
105	0x01	1
106	0x08	8
107	0x06	6
108	0x03	3
109	0xd8	-40
110	0xf0	-16
111	0xe2	-30
112	0x0d	13
113	0xf8	-8
114	0x15	21
115	0x0d	13
116	0x18	24
117	0xe8	-24
118	0x0e	14
119	0x1a	26
120	0xec	-20
121	0x0c	12
122	0x24	36
123	0x18	24
124	0xfa	-6
125	0x22	34
126	0xf4	-12
127	0x81	-127
128	0xfb	-5
129	0x1c	28
130	0x1a	26
131	0xfe	-2
132	0xe9	-23
133	0xf9	-7
134	0xf3	-13
135	0x07	7
136	0x0a	10
137	0xfb	-5
138	0x19	25
139	0x03	3
140	0xfa	-6
141	0x16	22
142	0xfa	-6
143	0xf4	-12
144	0xf3	-13
145	0x1d	29
146	0xfc	-4
147	0x04	4
148	0xc9	-55
149	0x16	22
150	0xee	-18
151	0x23	35
152	0xf5	-11
153	0x0d	13
154	0xf1	-15
155	0x00	0
156	0xfe	-2
157	0x14	20
158	0xe3	-29
159	0xd9	-39
160	0xfa	-6
161	0xe9	-23
162	0x0a	10
163	0x12	18
164	0x1e	30
165	0x1a	26
166	0xe4	-28
167	0x12	18
168	0x00	0
169	0x01	1
170	0xf7	-9
171	0xf3	-13
172	0xf6	-10
173	0x02	2
174	0x1f	31
175	0x15	21
176	0xec	-20
177	0x01	1
178	0x12	18
179	0x29	41
180	0x09	9
181	0x00	0
182	0xfd	-3
183	0x03	3
184	0xf0	-16
185	0x1d	29
186	0x13	19
187	0xed	-19
188	0xf0	-16
189	0xf7	-9
190	0xfd	-3
191	0x0e	14
192	0x09	9
193	0x1d	29
194	0x14	20
195	0xe9	-23
196	0xe7	-25
197	0xf9	-7
198	0x0a	10
199	0x19	25
200	0x0c	12
201	0x15	21
202	0x07	7
203	0x19	25
204	0xfb	-5
205	0x1f	31
206	0xfd	-3
207	0xe8	-24
208	0x18	24
209	0x09	9
210	0x07	7
211	0x24	36
212	0xe7	-25
213	0xf2	-14
214	0x1d	29
215	0xec	-20
216	0x17	23
217	0xed	-19
218	0x01	1
219	0xf7	-9
220	0x03	3
221	0xe5	-27
222	0x16	22
223	0xe7	-25
224	0x09	9
225	0xea	-22
226	0x01	1
227	0xe0	-32
228	0x1b	27
229	0xd8	-40
230	0xce	-50
231	0xfd	-3
232	0xe6	-26
233	0x18	24
234	0x11	17
235	0x0a	10
236	0x14	20
237	0xe1	-31
238	0x07	7
239	0x11	17
240	0xe2	-30
241	0xef	-17
242	0xfd	-3
243	0xf3	-13
244	0x17	23
245	0x1c	28
246	0xfd	-3
247	0xe7	-25
248	0x08	8
249	0x0a	10
250	0xd9	-39
251	0xf1	-15
252	0xf3	-13
253	0x0c	12
254	0x05	5
255	0x0f	15

tfl.pseudo_qconst3 i1 [256, 3, 3, 64]
0	0xfa	-6
1	0x04	4
2	0x2a	42
3	0x10	16
4	0x2b	43
5	0xe8	-24
6	0xe0	-32
7	0xd0	-48
8	0xfa	-6
9	0xd6	-42
10	0x2f	47
11	0x0c	12
12	0xe9	-23
13	0x25	37
14	0xee	-18
15	0xd5	-43
16	0xf5	-11
17	0x1d	29
18	0x14	20
19	0x05	5
20	0xe1	-31
21	0xcb	-53
22	0xfc	-4
23	0x29	41
24	0x2b	43
25	0xe5	-27
26	0xcd	-51
27	0x1f	31
28	0x1d	29
29	0xce	-50
30	0xcb	-53
31	0xe7	-25
32	0xfa	-6
33	0xd2	-46
34	0x0f	15
35	0xfe	-2
36	0xf8	-8
37	0xde	-34
38	0xe5	-27
39	0xf9	-7
40	0xd6	-42
41	0xe4	-28
42	0xcb	-53
43	0xdb	-37
44	0xec	-20
45	0x0f	15
46	0x25	37
47	0xfb	-5
48	0x07	7
49	0xd9	-39
50	0x03	3
51	0x0a	10
52	0x00	0
53	0xdc	-36
54	0xc9	-55
55	0xfc	-4
56	0xff	-1
57	0x08	8
58	0x00	0
59	0x2c	44
60	0x1a	26
61	0x0b	11
62	0x20	32
63	0x04	4
64	0xf7	-9
65	0xe9	-23
66	0xd1	-47
67	0x21	33
68	0x16	22
69	0x05	5
70	0xc2	-62
71	0xf5	-11
72	0x1a	26
73	0x09	9
74	0x0a	10
75	0xdb	-37
76	0xf2	-14
77	0xfe	-2
78	0x1f	31
79	0xfe	-2
80	0x16	22
81	0xd1	-47
82	0xce	-50
83	0xdf	-33
84	0xef	-17
85	0xe1	-31
86	0xd1	-47
87	0xec	-20
88	0xe1	-31
89	0xd3	-45
90	0xe9	-23
91	0xe8	-24
92	0x0c	12
93	0x1a	26
94	0x04	4
95	0x10	16
96	0xde	-34
97	0x28	40
98	0xef	-17
99	0x1c	28
100	0xce	-50
101	0x14	20
102	0xd2	-46
103	0xe4	-28
104	0xd9	-39
105	0x08	8
106	0x0e	14
107	0xbf	-65
108	0x0e	14
109	0xdb	-37
110	0x2a	42
111	0xb9	-71
112	0x10	16
113	0xf2	-14
114	0xe0	-32
115	0x05	5
116	0xd8	-40
117	0xd4	-44
118	0x16	22
119	0x1f	31
120	0xec	-20
121	0xfd	-3
122	0x06	6
123	0x01	1
124	0xea	-22
125	0xef	-17
126	0xf0	-16
127	0xef	-17
128	0x2e	46
129	0x27	39
130	0xf4	-12
131	0xed	-19
132	0xfd	-3
133	0xc5	-59
134	0xc3	-61
135	0xdc	-36
136	0xd6	-42
137	0xdf	-33
138	0x29	41
139	0x22	34
140	0xef	-17
141	0xf3	-13
142	0xca	-54
143	0x17	23
144	0x26	38
145	0x1a	26
146	0x07	7
147	0xe0	-32
148	0x0b	11
149	0xf9	-7
150	0x2b	43
151	0xde	-34
152	0x2b	43
153	0x26	38
154	0xdf	-33
155	0xec	-20
156	0x12	18
157	0xf5	-11
158	0x0f	15
159	0x26	38
160	0x1a	26
161	0x2e	46
162	0x00	0
163	0xe4	-28
164	0xe1	-31
165	0x17	23
166	0xd6	-42
167	0x24	36
168	0xf4	-12
169	0xd3	-45
170	0xe3	-29
171	0x05	5
172	0x12	18
173	0xe0	-32
174	0x20	32
175	0x09	9
176	0xe0	-32
177	0xf9	-7
178	0xf9	-7
179	0x17	23
180	0xf7	-9
181	0xd6	-42
182	0xfa	-6
183	0x18	24
184	0xea	-22
185	0x22	34
186	0xd6	-42
187	0x1c	28
188	0x12	18
189	0x15	21
190	0xe0	-32
191	0xf0	-16
192	0xf4	-12
193	0xe1	-31
194	0xd0	-48
195	0x2c	44
196	0x1d	29
197	0xe3	-29
198	0xf9	-7
199	0xee	-18
200	0x19	25
201	0xe9	-23
202	0x25	37
203	0x19	25
204	0x06	6
205	0xde	-34
206	0xf8	-8
207	0x88	-120
208	0xb6	-74
209	0xa4	-92
210	0xc9	-55
211	0xde	-34
212	0xd4	-44
213	0xe5	-27
214	0x84	-124
215	0xb6	-74
216	0x1c	28
217	0xe3	-29
218	0xc5	-59
219	0xe3	-29
220	0xe0	-32
221	0x14	20
222	0xfa	-6
223	0x11	17
224	0xf3	-13
225	0xc0	-64
226	0xe1	-31
227	0xee	-18
228	0xef	-17
229	0x0e	14
230	0xac	-84
231	0x12	18
232	0xdc	-36
233	0x07	7
234	0x13	19
235	0x15	21
236	0x18	24
237	0xd8	-40
238	0x06	6
239	0xc5	-59
240	0xd9	-39
241	0xd0	-48
242	0xa8	-88
243	0xb3	-77
244	0x12	18
245	0x0c	12
246	0x18	24
247	0xb3	-77
248	0x1f	31
249	0xbb	-69
250	0x81	-127
251	0xed	-19
252	0xaa	-86
253	0xe1	-31
254	0xc3	-61
255	0x01	1

tfl.pseudo_qconst5 i1 [256, 1, 1, 64]
0	0x5c	92
1	0xfd	-3
2	0xc0	-64
3	0xff	-1
4	0xe4	-28
5	0x14	20
6	0xcb	-53
7	0xf0	-16
8	0x13	19
9	0x4b	75
10	0xe4	-28
11	0x64	100
12	0xeb	-21
13	0x29	41
14	0x25	37
15	0xcb	-53
16	0xc8	-56
17	0xd5	-43
18	0x3b	59
19	0xf8	-8
20	0xb5	-75
21	0x0e	14
22	0x2f	47
23	0xea	-22
24	0x07	7
25	0x23	35
26	0xe1	-31
27	0x30	48
28	0x4e	78
29	0x38	56
30	0x0b	11
31	0xd2	-46
32	0xac	-84
33	0xdf	-33
34	0x04	4
35	0x28	40
36	0xcb	-53
37	0x0d	13
38	0x38	56
39	0x2d	45
40	0x14	20
41	0x0a	10
42	0xe1	-31
43	0x45	69
44	0x28	40
45	0x06	6
46	0xd1	-47
47	0x4c	76
48	0x3d	61
49	0x1d	29
50	0xd7	-41
51	0x04	4
52	0x6a	106
53	0x3b	59
54	0x47	71
55	0x2c	44
56	0x51	81
57	0x21	33
58	0x06	6
59	0x07	7
60	0xea	-22
61	0x00	0
62	0x46	70
63	0x81	-127
64	0xd8	-40
65	0xe2	-30
66	0xea	-22
67	0x35	53
68	0x35	53
69	0x01	1
70	0x08	8
71	0x11	17
72	0xdf	-33
73	0xcb	-53
74	0x0c	12
75	0xd1	-47
76	0xbb	-69
77	0xea	-22
78	0x25	37
79	0xf8	-8
80	0xef	-17
81	0x1a	26
82	0x19	25
83	0xf3	-13
84	0x12	18
85	0xd0	-48
86	0x33	51
87	0xc1	-63
88	0x19	25
89	0xde	-34
90	0xe5	-27
91	0x0c	12
92	0x11	17
93	0x1b	27
94	0xe4	-28
95	0x13	19
96	0xd7	-41
97	0xbd	-67
98	0xea	-22
99	0x3c	60
100	0x06	6
101	0x17	23
102	0x81	-127
103	0xc2	-62
104	0xf2	-14
105	0x06	6
106	0x33	51
107	0x19	25
108	0x42	66
109	0xf1	-15
110	0x10	16
111	0x2e	46
112	0x26	38
113	0x34	52
114	0xee	-18
115	0x47	71
116	0xff	-1
117	0xc7	-57
118	0xd2	-46
119	0xc7	-57
120	0xce	-50
121	0xc8	-56
122	0x31	49
123	0xe0	-32
124	0x06	6
125	0xf5	-11
126	0xbe	-66
127	0x01	1
128	0x53	83
129	0xd6	-42
130	0xd4	-44
131	0x49	73
132	0x0f	15
133	0xa8	-88
134	0xf6	-10
135	0xc4	-60
136	0x10	16
137	0xa5	-91
138	0xbc	-68
139	0xbf	-65
140	0xb4	-76
141	0x30	48
142	0x94	-108
143	0xa5	-91
144	0xb2	-78
145	0xf9	-7
146	0x2c	44
147	0x4a	74
148	0x13	19
149	0xef	-17
150	0x39	57
151	0x17	23
152	0xfb	-5
153	0x1f	31
154	0x3f	63
155	0xca	-54
156	0xec	-20
157	0x94	-108
158	0x42	66
159	0xb4	-76
160	0xe5	-27
161	0x4c	76
162	0xe6	-26
163	0x94	-108
164	0xf2	-14
165	0xe1	-31
166	0xfd	-3
167	0x0a	10
168	0x20	32
169	0x65	101
170	0x39	57
171	0x01	1
172	0xf8	-8
173	0xd4	-44
174	0x3a	58
175	0xe7	-25
176	0xde	-34
177	0xe9	-23
178	0xda	-38
179	0x0c	12
180	0x10	16
181	0xd7	-41
182	0xd4	-44
183	0x15	21
184	0x23	35
185	0xf6	-10
186	0xdb	-37
187	0x28	40
188	0x0d	13
189	0xf9	-7
190	0x81	-127
191	0x32	50
192	0xfa	-6
193	0xb7	-73
194	0x5f	95
195	0x03	3
196	0x76	118
197	0xbf	-65
198	0xc7	-57
199	0xc2	-62
200	0xa8	-88
201	0xc6	-58
202	0x36	54
203	0x06	6
204	0xb5	-75
205	0x0f	15
206	0xf0	-16
207	0xa7	-89
208	0x45	69
209	0x37	55
210	0x3e	62
211	0x3b	59
212	0x3e	62
213	0x96	-106
214	0x1a	26
215	0x82	-126
216	0xfe	-2
217	0xbd	-67
218	0x51	81
219	0x98	-104
220	0x63	99
221	0x17	23
222	0x46	70
223	0x4e	78
224	0xc3	-61
225	0x61	97
226	0xfa	-6
227	0x27	39
228	0x24	36
229	0xbd	-67
230	0x94	-108
231	0x31	49
232	0xba	-70
233	0xbf	-65
234	0xdb	-37
235	0xae	-82
236	0x81	-127
237	0xa4	-92
238	0x54	84
239	0xfb	-5
240	0xd5	-43
241	0x18	24
242	0xea	-22
243	0xb0	-80
244	0x29	41
245	0xa6	-90
246	0xe9	-23
247	0x08	8
248	0x88	-120
249	0xfa	-6
250	0x13	19
251	0xb9	-71
252	0xb1	-79
253	0x46	70
254	0xe4	-28
255	0x81	-127

tfl.pseudo_qconst7 i1 [64, 1, 1, 512]
0	0x0a	10
1	0xd2	-46
2	0xde	-34
3	0xf7	-9
4	0xf5	-11
5	0xeb	-21
6	0xd8	-40
7	0x00	0
8	0xdf	-33
9	0xd6	-42
10	0xcc	-52
11	0x16	22
12	0xc8	-56
13	0x31	49
14	0xe7	-25
15	0x05	5
16	0x27	39
17	0x08	8
18	0x14	20
19	0xe4	-28
20	0x0c	12
21	0xde	-34
22	0x1c	28
23	0xd9	-39
24	0xe4	-28
25	0x14	20
26	0xeb	-21
27	0x27	39
28	0xdd	-35
29	0x17	23
30	0xc0	-64
31	0xf2	-14
32	0xd7	-41
33	0x17	23
34	0x29	41
35	0x17	23
36	0x27	39
37	0xd1	-47
38	0x30	48
39	0x09	9
40	0x0d	13
41	0x24	36
42	0xe2	-30
43	0x45	69
44	0xf2	-14
45	0x26	38
46	0xd6	-42
47	0x05	5
48	0x0c	12
49	0xbe	-66
50	0xeb	-21
51	0x1a	26
52	0xfa	-6
53	0x43	67
54	0xf2	-14
55	0xf7	-9
56	0xf2	-14
57	0x16	22
58	0x08	8
59	0x06	6
60	0x3e	62
61	0xff	-1
62	0xef	-17
63	0x06	6
64	0xff	-1
65	0xda	-38
66	0xff	-1
67	0xc7	-57
68	0x32	50
69	0x31	49
70	0xfd	-3
71	0x0c	12
72	0x1e	30
73	0xfb	-5
74	0xad	-83
75	0xe5	-27
76	0x0d	13
77	0xee	-18
78	0x09	9
79	0x04	4
80	0xc7	-57
81	0xfb	-5
82	0x0e	14
83	0x10	16
84	0x2e	46
85	0x21	33
86	0xcf	-49
87	0x02	2
88	0x4a	74
89	0x2f	47
90	0xea	-22
91	0xd9	-39
92	0x22	34
93	0xd4	-44
94	0xd3	-45
95	0xf3	-13
96	0x22	34
97	0xc0	-64
98	0xf2	-14
99	0xf4	-12
100	0xca	-54
101	0x12	18
102	0xe3	-29
103	0xcb	-53
104	0x54	84
105	0xc4	-60
106	0xe7	-25
107	0xe2	-30
108	0x32	50
109	0xfa	-6
110	0x07	7
111	0xe2	-30
112	0x12	18
113	0xce	-50
114	0x3e	62
115	0x0a	10
116	0x28	40
117	0x56	86
118	0xf7	-9
119	0xfe	-2
120	0xdf	-33
121	0x43	67
122	0xea	-22
123	0x1b	27
124	0xe9	-23
125	0xbf	-65
126	0xc3	-61
127	0x0c	12
128	0x01	1
129	0x05	5
130	0x05	5
131	0x04	4
132	0xff	-1
133	0x24	36
134	0x38	56
135	0x05	5
136	0xda	-38
137	0x11	17
138	0x11	17
139	0x10	16
140	0xe4	-28
141	0x0c	12
142	0x28	40
143	0xcf	-49
144	0x12	18
145	0xe7	-25
146	0x23	35
147	0x1c	28
148	0xd1	-47
149	0xcd	-51
150	0xfd	-3
151	0x39	57
152	0x0e	14
153	0x29	41
154	0x16	22
155	0x23	35
156	0x0b	11
157	0xa8	-88
158	0xe3	-29
159	0xde	-34
160	0x02	2
161	0xe5	-27
162	0x31	49
163	0x12	18
164	0xd6	-42
165	0xdb	-37
166	0xef	-17
167	0xda	-38
168	0x29	41
169	0x09	9
170	0xf2	-14
171	0xe4	-28
172	0x06	6
173	0xfc	-4
174	0xe5	-27
175	0x20	32
176	0x04	4
177	0xf2	-14
178	0x2d	45
179	0x1b	27
180	0x1e	30
181	0xd1	-47
182	0xfd	-3
183	0x00	0
184	0x1c	28
185	0xda	-38
186	0x14	20
187	0x15	21
188	0xde	-34
189	0xf7	-9
190	0xee	-18
191	0xc9	-55
192	0xd7	-41
193	0x22	34
194	0x28	40
195	0xf6	-10
196	0x48	72
197	0x02	2
198	0x0f	15
199	0xfc	-4
200	0xe5	-27
201	0x05	5
202	0x29	41
203	0xc2	-62
204	0xcb	-53
205	0x03	3
206	0x00	0
207	0xdd	-35
208	0xe1	-31
209	0x40	64
210	0xe7	-25
211	0xd3	-45
212	0x0f	15
213	0x0b	11
214	0xfd	-3
215	0xd4	-44
216	0x04	4
217	0x0b	11
218	0x16	22
219	0xc2	-62
220	0x23	35
221	0xf1	-15
222	0xbf	-65
223	0xf7	-9
224	0xf1	-15
225	0x30	48
226	0x07	7
227	0xfd	-3
228	0x48	72
229	0xd5	-43
230	0x11	17
231	0x43	67
232	0x28	40
233	0xeb	-21
234	0x48	72
235	0x1c	28
236	0xc5	-59
237	0xcc	-52
238	0xb1	-79
239	0x04	4
240	0x1c	28
241	0xe5	-27
242	0x24	36
243	0xf6	-10
244	0xec	-20
245	0xbf	-65
246	0xef	-17
247	0xf1	-15
248	0x0c	12
249	0x37	55
250	0xcf	-49
251	0x44	68
252	0x0b	11
253	0xeb	-21
254	0xfc	-4
255	0x19	25

tfl.pseudo_qconst9 i1 [256, 3, 3, 64]
0	0x28	40
1	0x78	120
2	0xe6	-26
3	0xf8	-8
4	0x4a	74
5	0x0d	13
6	0x28	40
7	0x22	34
8	0xee	-18
9	0xe4	-28
10	0x00	0
11	0xc5	-59
12	0xf6	-10
13	0xcb	-53
14	0xc9	-55
15	0x1e	30
16	0xd6	-42
17	0x19	25
18	0x18	24
19	0x19	25
20	0xf8	-8
21	0xf4	-12
22	0x07	7
23	0x21	33
24	0xdc	-36
25	0x0e	14
26	0x11	17
27	0x0b	11
28	0xd2	-46
29	0xc6	-58
30	0x28	40
31	0x59	89
32	0xd4	-44
33	0xa2	-94
34	0xf6	-10
35	0xdf	-33
36	0x1d	29
37	0x14	20
38	0xf7	-9
39	0xd9	-39
40	0x08	8
41	0xe4	-28
42	0xe8	-24
43	0xbf	-65
44	0xd8	-40
45	0xdf	-33
46	0xdc	-36
47	0x06	6
48	0xf4	-12
49	0x1b	27
50	0x04	4
51	0xff	-1
52	0xc1	-63
53	0xe8	-24
54	0x0e	14
55	0x1d	29
56	0x0b	11
57	0xe3	-29
58	0xf4	-12
59	0x0e	14
60	0x12	18
61	0xf7	-9
62	0xde	-34
63	0xe8	-24
64	0xf8	-8
65	0x26	38
66	0xbd	-67
67	0xde	-34
68	0x04	4
69	0x16	22
70	0x03	3
71	0x00	0
72	0x00	0
73	0xff	-1
74	0xdb	-37
75	0xd2	-46
76	0x1d	29
77	0x99	-103
78	0x0d	13
79	0x23	35
80	0xe0	-32
81	0xfb	-5
82	0x27	39
83	0xfd	-3
84	0x34	52
85	0xca	-54
86	0x27	39
87	0xe4	-28
88	0xf4	-12
89	0xfd	-3
90	0x25	37
91	0x25	37
92	0xe3	-29
93	0x25	37
94	0x17	23
95	0x1c	28
96	0x0a	10
97	0x27	39
98	0xc5	-59
99	0xee	-18
100	0x0c	12
101	0x1c	28
102	0xe8	-24
103	0xe2	-30
104	0x0f	15
105	0xef	-17
106	0xe2	-30
107	0xca	-54
108	0x97	-105
109	0x83	-125
110	0xe3	-29
111	0x12	18
112	0xed	-19
113	0xe8	-24
114	0x35	53
115	0x14	20
116	0x9d	-99
117	0xe3	-29
118	0xe6	-26
119	0xd2	-46
120	0x50	80
121	0xf4	-12
122	0x06	6
123	0xdf	-33
124	0xeb	-21
125	0x1e	30
126	0xf4	-12
127	0xdf	-33
128	0xaf	-81
129	0x38	56
130	0x05	5
131	0x0d	13
132	0xd9	-39
133	0x03	3
134	0xee	-18
135	0xbc	-68
136	0x01	1
137	0xdf	-33
138	0xd5	-43
139	0x0e	14
140	0xcb	-53
141	0xba	-70
142	0xb7	-73
143	0xcf	-49
144	0xef	-17
145	0xfb	-5
146	0x03	3
147	0xe7	-25
148	0x16	22
149	0x08	8
150	0xce	-50
151	0xf0	-16
152	0x16	22
153	0xf9	-7
154	0x19	25
155	0x0d	13
156	0xa5	-91
157	0x34	52
158	0xef	-17
159	0x00	0
160	0x1e	30
161	0x1b	27
162	0x3c	60
163	0xcf	-49
164	0xed	-19
165	0x1e	30
166	0xfc	-4
167	0x04	4
168	0xdd	-35
169	0xfd	-3
170	0x06	6
171	0x0d	13
172	0xd5	-43
173	0xeb	-21
174	0xec	-20
175	0xec	-20
176	0xe0	-32
177	0xce	-50
178	0xf5	-11
179	0xf8	-8
180	0xb3	-77
181	0xd8	-40
182	0x1e	30
183	0xde	-34
184	0x2e	46
185	0xe7	-25
186	0xff	-1
187	0x08	8
188	0xc4	-60
189	0xdd	-35
190	0x08	8
191	0xe6	-26
192	0xe7	-25
193	0xed	-19
194	0x11	17
195	0xfa	-6
196	0x02	2
197	0xe7	-25
198	0x14	20
199	0xf9	-7
200	0xf3	-13
201	0xd7	-41
202	0xef	-17
203	0x01	1
204	0x1a	26
205	0xd4	-44
206	0xda	-38
207	0xf6	-10
208	0x0d	13
209	0xe6	-26
210	0xf4	-12
211	0xd8	-40
212	0x1e	30
213	0xda	-38
214	0x07	7
215	0xe5	-27
216	0x0f	15
217	0xf5	-11
218	0x18	24
219	0x21	33
220	0xf9	-7
221	0x4d	77
222	0x1c	28
223	0x21	33
224	0x0d	13
225	0x2c	44
226	0x04	4
227	0xfc	-4
228	0x0c	12
229	0x0d	13
230	0x0e	14
231	0x0a	10
232	0x19	25
233	0xe5	-27
234	0xee	-18
235	0xe3	-29
236	0xc0	-64
237	0xf2	-14
238	0xdf	-33
239	0xfc	-4
240	0x15	21
241	0x10	16
242	0xea	-22
243	0xfc	-4
244	0xc9	-55
245	0xfb	-5
246	0x1d	29
247	0xe4	-28
248	0x27	39
249	0xf7	-9
250	0x0a	10
251	0xe3	-29
252	0xd0	-48
253	0xff	-1
254	0x0a	10
255	0xff	-1

tfl.pseudo_qconst11 i1 [256, 1, 1, 64]
0	0xc6	-58
1	0x08	8
2	0x4b	75
3	0xd1	-47
4	0x46	70
5	0x4c	76
6	0xd7	-41
7	0x00	0
8	0xff	-1
9	0x28	40
10	0xd4	-44
11	0x0a	10
12	0xf6	-10
13	0x55	85
14	0xf8	-8
15	0x02	2
16	0xce	-50
17	0x15	21
18	0x23	35
19	0x23	35
20	0xcf	-49
21	0x18	24
22	0xed	-19
23	0x05	5
24	0xc0	-64
25	0xad	-83
26	0xe6	-26
27	0xf4	-12
28	0xc7	-57
29	0x81	-127
30	0xc6	-58
31	0x19	25
32	0xd0	-48
33	0x03	3
34	0x0e	14
35	0x3e	62
36	0xfb	-5
37	0x01	1
38	0xe6	-26
39	0x06	6
40	0xce	-50
41	0x13	19
42	0xe7	-25
43	0xbc	-68
44	0x3a	58
45	0x1e	30
46	0xf1	-15
47	0xc1	-63
48	0xec	-20
49	0xdf	-33
50	0x00	0
51	0xc5	-59
52	0xed	-19
53	0x03	3
54	0xfa	-6
55	0x05	5
56	0xc4	-60
57	0x0c	12
58	0xe6	-26
59	0x19	25
60	0x01	1
61	0x30	48
62	0x29	41
63	0xcd	-51
64	0x81	-127
65	0xc6	-58
66	0xb3	-77
67	0x21	33
68	0xbd	-67
69	0x51	81
70	0x36	54
71	0x07	7
72	0xae	-82
73	0x3f	63
74	0x13	19
75	0xf1	-15
76	0x9b	-101
77	0x53	83
78	0x2e	46
79	0xd2	-46
80	0xd2	-46
81	0x11	17
82	0x1e	30
83	0x53	83
84	0xd9	-39
85	0xe6	-26
86	0xa3	-93
87	0xe1	-31
88	0x15	21
89	0xba	-70
90	0x03	3
91	0xa7	-89
92	0xa5	-91
93	0xb1	-79
94	0xc9	-55
95	0xcc	-52
96	0xaf	-81
97	0x35	53
98	0xef	-17
99	0x39	57
100	0xa6	-90
101	0x4a	74
102	0xd1	-47
103	0x14	20
104	0xe6	-26
105	0x28	40
106	0x17	23
107	0x4d	77
108	0xc4	-60
109	0x59	89
110	0xb8	-72
111	0xca	-54
112	0xf5	-11
113	0x4c	76
114	0x1c	28
115	0x37	55
116	0x1e	30
117	0x9d	-99
118	0xae	-82
119	0xd4	-44
120	0x0c	12
121	0xb8	-72
122	0xac	-84
123	0x19	25
124	0x3d	61
125	0xe6	-26
126	0xbf	-65
127	0x41	65
128	0x27	39
129	0xe7	-25
130	0x96	-106
131	0x00	0
132	0xc3	-61
133	0x21	33
134	0x51	81
135	0xad	-83
136	0x2d	45
137	0x63	99
138	0x1c	28
139	0xa2	-94
140	0x5b	91
141	0x16	22
142	0xc0	-64
143	0x5b	91
144	0x5f	95
145	0x07	7
146	0x00	0
147	0xc4	-60
148	0xd8	-40
149	0xda	-38
150	0x95	-107
151	0x2b	43
152	0x7a	122
153	0xee	-18
154	0x81	-127
155	0x2f	47
156	0x50	80
157	0xad	-83
158	0xc4	-60
159	0xf3	-13
160	0x0d	13
161	0x19	25
162	0xd7	-41
163	0xfd	-3
164	0x2b	43
165	0x28	40
166	0x5d	93
167	0x57	87
168	0x0f	15
169	0x41	65
170	0x61	97
171	0x7c	124
172	0xba	-70
173	0x33	51
174	0x56	86
175	0x01	1
176	0x18	24
177	0xd4	-44
178	0x2c	44
179	0x5a	90
180	0xa4	-92
181	0x85	-123
182	0xdb	-37
183	0x07	7
184	0xda	-38
185	0xbd	-67
186	0x6c	108
187	0x2d	45
188	0x93	-109
189	0xe0	-32
190	0xb0	-80
191	0x44	68
192	0x29	41
193	0xe6	-26
194	0xc2	-62
195	0xb4	-76
196	0x10	16
197	0x12	18
198	0x81	-127
199	0xfb	-5
200	0xe8	-24
201	0xd7	-41
202	0xc3	-61
203	0xf3	-13
204	0xe2	-30
205	0xbc	-68
206	0xc7	-57
207	0x53	83
208	0x16	22
209	0x02	2
210	0x0f	15
211	0xaf	-81
212	0x45	69
213	0xc9	-55
214	0xfb	-5
215	0x4d	77
216	0x26	38
217	0x20	32
218	0xff	-1
219	0xba	-70
220	0xf9	-7
221	0xc6	-58
222	0x9c	-100
223	0x0b	11
224	0x26	38
225	0xf1	-15
226	0x0c	12
227	0xe6	-26
228	0x97	-105
229	0x27	39
230	0xf7	-9
231	0xc0	-64
232	0x0f	15
233	0xc2	-62
234	0x1f	31
235	0xfd	-3
236	0x58	88
237	0xac	-84
238	0xb3	-77
239	0x1c	28
240	0xbf	-65
241	0xd3	-45
242	0xcb	-53
243	0xb7	-73
244	0x8a	-118
245	0xc7	-57
246	0x3e	62
247	0x1b	27
248	0x1d	29
249	0x0d	13
250	0xef	-17
251	0x2f	47
252	0xae	-82
253	0xcf	-49
254	0xb9	-71
255	0xbd	-67

tfl.pseudo_qconst13 i1 [64, 1, 1, 384]
0	0xbe	-66
1	0x10	16
2	0xf3	-13
3	0xea	-22
4	0x45	69
5	0xdc	-36
6	0xf6	-10
7	0x07	7
8	0xcc	-52
9	0xfc	-4
10	0xe2	-30
11	0x47	71
12	0x36	54
13	0x2e	46
14	0x5c	92
15	0xe2	-30
16	0xd9	-39
17	0x9f	-97
18	0x4e	78
19	0x26	38
20	0xcf	-49
21	0xbc	-68
22	0xce	-50
23	0x16	22
24	0x36	54
25	0x53	83
26	0xcb	-53
27	0xfa	-6
28	0x14	20
29	0x1f	31
30	0x24	36
31	0xc4	-60
32	0xfb	-5
33	0xb1	-79
34	0x9f	-97
35	0xd6	-42
36	0x50	80
37	0xf0	-16
38	0xeb	-21
39	0xb5	-75
40	0xd1	-47
41	0xaf	-81
42	0x14	20
43	0x58	88
44	0xe7	-25
45	0x49	73
46	0xdf	-33
47	0x05	5
48	0xf6	-10
49	0xb5	-75
50	0xa3	-93
51	0xd7	-41
52	0x36	54
53	0x55	85
54	0xd4	-44
55	0x04	4
56	0x4a	74
57	0x35	53
58	0xe0	-32
59	0x2a	42
60	0xeb	-21
61	0x47	71
62	0x4c	76
63	0x40	64
64	0xc1	-63
65	0x09	9
66	0x52	82
67	0x1c	28
68	0x19	25
69	0xa2	-94
70	0xd9	-39
71	0xfd	-3
72	0x00	0
73	0xfe	-2
74	0x1d	29
75	0x3c	60
76	0xb7	-73
77	0xf7	-9
78	0xb7	-73
79	0x0c	12
80	0xe5	-27
81	0x59	89
82	0xe0	-32
83	0xdd	-35
84	0xd7	-41
85	0x34	52
86	0x15	21
87	0xe2	-30
88	0x27	39
89	0xea	-22
90	0xcf	-49
91	0x0c	12
92	0xa8	-88
93	0xae	-82
94	0xba	-70
95	0x09	9
96	0x29	41
97	0xc7	-57
98	0x14	20
99	0xee	-18
100	0x0c	12
101	0x19	25
102	0x2d	45
103	0x16	22
104	0x26	38
105	0x4c	76
106	0xcc	-52
107	0xf6	-10
108	0xf9	-7
109	0xef	-17
110	0x15	21
111	0x81	-127
112	0xee	-18
113	0x1c	28
114	0x0c	12
115	0xd2	-46
116	0xa5	-91
117	0x4d	77
118	0x58	88
119	0xdc	-36
120	0x48	72
121	0xf9	-7
122	0x49	73
123	0x16	22
124	0xf3	-13
125	0xc8	-56
126	0x12	18
127	0x3d	61
128	0xca	-54
129	0xc8	-56
130	0x18	24
131	0x49	73
132	0xfa	-6
133	0x53	83
134	0x1c	28
135	0xdb	-37
136	0x1e	30
137	0xec	-20
138	0x98	-104
139	0x52	82
140	0xae	-82
141	0xc4	-60
142	0x19	25
143	0xe5	-27
144	0xfb	-5
145	0xd2	-46
146	0xa6	-90
147	0xeb	-21
148	0xfa	-6
149	0x5b	91
150	0xee	-18
151	0xa8	-88
152	0x4a	74
153	0x13	19
154	0x02	2
155	0x34	52
156	0xc5	-59
157	0x28	40
158	0xf6	-10
159	0xf9	-7
160	0xd1	-47
161	0x18	24
162	0x14	20
163	0x97	-105
164	0xd4	-44
165	0x4b	75
166	0xde	-34
167	0xc2	-62
168	0x29	41
169	0x26	38
170	0x9d	-99
171	0xcb	-53
172	0x3b	59
173	0xe3	-29
174	0xad	-83
175	0x0b	11
176	0xb8	-72
177	0x17	23
178	0xe0	-32
179	0xe1	-31
180	0x2e	46
181	0x15	21
182	0x19	25
183	0x22	34
184	0xaa	-86
185	0xc6	-58
186	0xa6	-90
187	0x19	25
188	0xa9	-87
189	0xd5	-43
190	0xf7	-9
191	0x0d	13
192	0x1b	27
193	0x02	2
194	0x30	48
195	0xec	-20
196	0xfe	-2
197	0xe5	-27
198	0x41	65
199	0x05	5
200	0xd7	-41
201	0x4f	79
202	0xde	-34
203	0xd3	-45
204	0xd9	-39
205	0xf9	-7
206	0x02	2
207	0x32	50
208	0x1b	27
209	0xb4	-76
210	0x35	53
211	0xe2	-30
212	0x04	4
213	0x3d	61
214	0xbd	-67
215	0xf0	-16
216	0x34	52
217	0xe5	-27
218	0x2b	43
219	0xc5	-59
220	0xba	-70
221	0xb6	-74
222	0x12	18
223	0x42	66
224	0xf3	-13
225	0x1b	27
226	0xdf	-33
227	0xbe	-66
228	0x07	7
229	0x0b	11
230	0x2f	47
231	0x43	67
232	0xd1	-47
233	0xf8	-8
234	0x39	57
235	0x27	39
236	0x49	73
237	0x42	66
238	0x42	66
239	0x5d	93
240	0x46	70
241	0x1a	26
242	0x01	1
243	0x49	73
244	0xda	-38
245	0xf3	-13
246	0xba	-70
247	0x08	8
248	0x44	68
249	0xaf	-81
250	0xff	-1
251	0xc3	-61
252	0xb8	-72
253	0x0e	14
254	0xda	-38
255	0x0d	13

tfl.pseudo_qconst15 i1 [192, 3, 3, 48]
0	0xda	-38
1	0xd2	-46
2	0xf0	-16
3	0x11	17
4	0x31	49
5	0xe0	-32
6	0xd4	-44
7	0xdd	-35
8	0x12	18
9	0xcd	-51
10	0x21	33
11	0x1b	27
12	0xe5	-27
13	0x09	9
14	0x26	38
15	0x1c	28
16	0xf1	-15
17	0xfc	-4
18	0x1e	30
19	0x10	16
20	0x07	7
21	0xbf	-65
22	0x11	17
23	0x18	24
24	0xe2	-30
25	0x1c	28
26	0x2a	42
27	0xde	-34
28	0xef	-17
29	0x17	23
30	0xfc	-4
31	0xcd	-51
32	0xfe	-2
33	0xf3	-13
34	0xe6	-26
35	0xf1	-15
36	0xf3	-13
37	0xce	-50
38	0xe0	-32
39	0xcc	-52
40	0xdb	-37
41	0x0d	13
42	0x07	7
43	0x02	2
44	0xef	-17
45	0xec	-20
46	0xfb	-5
47	0xf4	-12
48	0x25	37
49	0xc2	-62
50	0x01	1
51	0x31	49
52	0xef	-17
53	0xd0	-48
54	0xf1	-15
55	0x24	36
56	0x07	7
57	0x0f	15
58	0xf3	-13
59	0xee	-18
60	0x34	52
61	0xf8	-8
62	0xf0	-16
63	0xea	-22
64	0x17	23
65	0x0d	13
66	0x1a	26
67	0x14	20
68	0xe4	-28
69	0xfa	-6
70	0x11	17
71	0xea	-22
72	0x06	6
73	0x1c	28
74	0xd8	-40
75	0xe8	-24
76	0x48	72
77	0x1d	29
78	0x21	33
79	0xe3	-29
80	0x19	25
81	0x14	20
82	0x1e	30
83	0x03	3
84	0xff	-1
85	0xfc	-4
86	0x00	0
87	0x11	17
88	0x03	3
89	0xf2	-14
90	0xd2	-46
91	0x09	9
92	0xeb	-21
93	0xff	-1
94	0x13	19
95	0x07	7
96	0xf2	-14
97	0xe0	-32
98	0xe7	-25
99	0xf3	-13
100	0x2c	44
101	0xeb	-21
102	0xc8	-56
103	0x20	32
104	0xf0	-16
105	0xf4	-12
106	0xbc	-68
107	0xed	-19
108	0x1b	27
109	0xdb	-37
110	0xd0	-48
111	0xb6	-74
112	0xf9	-7
113	0x26	38
114	0x01	1
115	0xf3	-13
116	0xe0	-32
117	0xe6	-26
118	0xd2	-46
119	0xc6	-58
120	0xf5	-11
121	0xbc	-68
122	0xdd	-35
123	0xe4	-28
124	0x02	2
125	0x0d	13
126	0x10	16
127	0x2d	45
128	0xeb	-21
129	0xea	-22
130	0xeb	-21
131	0xef	-17
132	0xde	-34
133	0x0d	13
134	0x23	35
135	0xda	-38
136	0xf8	-8
137	0xfb	-5
138	0xed	-19
139	0x15	21
140	0xd9	-39
141	0xf1	-15
142	0xea	-22
143	0xc0	-64
144	0xcd	-51
145	0xff	-1
146	0xea	-22
147	0xd7	-41
148	0x0b	11
149	0x14	20
150	0x01	1
151	0xf7	-9
152	0xf5	-11
153	0xd7	-41
154	0xdf	-33
155	0xff	-1
156	0xbb	-69
157	0x28	40
158	0x08	8
159	0x10	16
160	0x05	5
161	0x2f	47
162	0x2a	42
163	0x20	32
164	0x17	23
165	0x0b	11
166	0xaa	-86
167	0x10	16
168	0xd4	-44
169	0xff	-1
170	0xd7	-41
171	0xef	-17
172	0x04	4
173	0x06	6
174	0xfa	-6
175	0xed	-19
176	0xfe	-2
177	0xe5	-27
178	0x20	32
179	0x19	25
180	0x2c	44
181	0x4f	79
182	0x23	35
183	0xce	-50
184	0x1a	26
185	0xf9	-7
186	0x53	83
187	0xf6	-10
188	0xb1	-79
189	0xfa	-6
190	0x0a	10
191	0xfc	-4
192	0x1d	29
193	0x1a	26
194	0xf2	-14
195	0xfc	-4
196	0xfd	-3
197	0x0b	11
198	0x21	33
199	0xf8	-8
200	0x21	33
201	0x1d	29
202	0x24	36
203	0x0a	10
204	0xf4	-12
205	0x0f	15
206	0x26	38
207	0xeb	-21
208	0x27	39
209	0xea	-22
210	0xce	-50
211	0xf3	-13
212	0x1a	26
213	0x06	6
214	0x2d	45
215	0xf7	-9
216	0x07	7
217	0x2b	43
218	0x0d	13
219	0xec	-20
220	0x0b	11
221	0x19	25
222	0x0e	14
223	0x13	19
224	0x17	23
225	0x29	41
226	0xb1	-79
227	0x10	16
228	0x30	48
229	0xff	-1
230	0xd7	-41
231	0x01	1
232	0xf0	-16
233	0x09	9
234	0xc6	-58
235	0x17	23
236	0x14	20
237	0x1a	26
238	0x07	7
239	0x0b	11
240	0x10	16
241	0xee	-18
242	0xfe	-2
243	0xe3	-29
244	0x20	32
245	0xfa	-6
246	0xdd	-35
247	0x0c	12
248	0x20	32
249	0x0d	13
250	0x26	38
251	0x21	33
252	0x35	53
253	0xdf	-33
254	0xfc	-4
255	0xe4	-28

tfl.pseudo_qconst17 i1 [192, 1, 1, 48]
0	0x30	48
1	0x34	52
2	0x36	54
3	0x39	57
4	0x73	115
5	0x81	-127
6	0xb4	-76
7	0x8e	-114
8	0xf7	-9
9	0xf5	-11
10	0xaf	-81
11	0xd6	-42
12	0x94	-108
13	0x9e	-98
14	0x8b	-117
15	0xef	-17
16	0x28	40
17	0x1a	26
18	0x0a	10
19	0xe6	-26
20	0xfc	-4
21	0x9b	-101
22	0x56	86
23	0x1f	31
24	0xb8	-72
25	0x31	49
26	0x8a	-118
27	0x2a	42
28	0x61	97
29	0xd1	-47
30	0x95	-107
31	0xc3	-61
32	0x2c	44
33	0xd4	-44
34	0x2b	43
35	0x1f	31
36	0x47	71
37	0x16	22
38	0xf0	-16
39	0xcf	-49
40	0xd8	-40
41	0xcf	-49
42	0x22	34
43	0xbc	-68
44	0xc7	-57
45	0x05	5
46	0x36	54
47	0x3f	63
48	0xa7	-89
49	0x9a	-102
50	0x56	86
51	0xe7	-25
52	0x3e	62
53	0x2b	43
54	0x67	103
55	0xcb	-53
56	0x0f	15
57	0xc4	-60
58	0x7a	122
59	0xc1	-63
60	0x1e	30
61	0x73	115
62	0x75	117
63	0xd5	-43
64	0x97	-105
65	0x22	34
66	0xf4	-12
67	0x2d	45
68	0x20	32
69	0x61	97
70	0x59	89
71	0x94	-108
72	0xfa	-6
73	0x41	65
74	0x61	97
75	0xf9	-7
76	0x4d	77
77	0xce	-50
78	0x0a	10
79	0xa6	-90
80	0x0d	13
81	0xf9	-7
82	0xb4	-76
83	0x04	4
84	0xdf	-33
85	0x54	84
86	0x8b	-117
87	0x52	82
88	0x60	96
89	0x7f	127
90	0xf4	-12
91	0xbc	-68
92	0xc8	-56
93	0x46	70
94	0xfb	-5
95	0xbf	-65
96	0xd5	-43
97	0xc7	-57
98	0xe7	-25
99	0x50	80
100	0x6e	110
101	0x6f	111
102	0x02	2
103	0x2e	46
104	0x41	65
105	0x12	18
106	0xfe	-2
107	0xe1	-31
108	0x1d	29
109	0x05	5
110	0x56	86
111	0x27	39
112	0x9f	-97
113	0xcf	-49
114	0xa6	-90
115	0x10	16
116	0xe6	-26
117	0xf9	-7
118	0xa7	-89
119	0x73	115
120	0x58	88
121	0x09	9
122	0x81	-127
123	0x08	8
124	0x65	101
125	0xae	-82
126	0x0e	14
127	0x9b	-101
128	0xe1	-31
129	0x4f	79
130	0x25	37
131	0x91	-111
132	0xab	-85
133	0x46	70
134	0x51	81
135	0xa4	-92
136	0xda	-38
137	0xd5	-43
138	0xcb	-53
139	0x6e	110
140	0xe9	-23
141	0x58	88
142	0x95	-107
143	0x57	87
144	0x45	69
145	0xc1	-63
146	0xce	-50
147	0xed	-19
148	0x57	87
149	0xf2	-14
150	0xc5	-59
151	0x59	89
152	0xe9	-23
153	0xeb	-21
154	0x38	56
155	0xcd	-51
156	0x2b	43
157	0x0b	11
158	0x4c	76
159	0xd7	-41
160	0xf3	-13
161	0x44	68
162	0xeb	-21
163	0xf1	-15
164	0x14	20
165	0x0d	13
166	0xc6	-58
167	0xed	-19
168	0x04	4
169	0xe6	-26
170	0xc9	-55
171	0xf7	-9
172	0x33	51
173	0xdc	-36
174	0xe4	-28
175	0xb3	-77
176	0x04	4
177	0xf2	-14
178	0x35	53
179	0x61	97
180	0xb1	-79
181	0x7f	127
182	0xef	-17
183	0x15	21
184	0x13	19
185	0xf2	-14
186	0xcb	-53
187	0x17	23
188	0xfd	-3
189	0xb7	-73
190	0xb8	-72
191	0xb4	-76
192	0xb6	-74
193	0xad	-83
194	0xb2	-78
195	0xc2	-62
196	0xeb	-21
197	0xfc	-4
198	0x3c	60
199	0xde	-34
200	0x2f	47
201	0xe8	-24
202	0x43	67
203	0xee	-18
204	0xc3	-61
205	0x70	112
206	0xfa	-6
207	0x12	18
208	0xd1	-47
209	0x37	55
210	0xa2	-94
211	0x48	72
212	0xb5	-75
213	0x58	88
214	0x25	37
215	0xae	-82
216	0xd0	-48
217	0xc6	-58
218	0xf9	-7
219	0x3f	63
220	0x05	5
221	0x2e	46
222	0x81	-127
223	0x63	99
224	0xd7	-41
225	0xc2	-62
226	0xf3	-13
227	0xb9	-71
228	0xd6	-42
229	0xa3	-93
230	0xf0	-16
231	0x11	17
232	0xc1	-63
233	0x4b	75
234	0x93	-109
235	0xce	-50
236	0x75	117
237	0xbe	-66
238	0xd9	-39
239	0x4a	74
240	0x5d	93
241	0x33	51
242	0xe4	-28
243	0x36	54
244	0xfb	-5
245	0xa1	-95
246	0x81	-127
247	0x9a	-102
248	0xa1	-95
249	0x3f	63
250	0x28	40
251	0xaa	-86
252	0xb1	-79
253	0x1d	29
254	0x4b	75
255	0xaa	-86

tfl.pseudo_qconst19 i1 [48, 1, 1, 384]
0	0xf2	-14
1	0xd1	-47
2	0xcf	-49
3	0x38	56
4	0x2d	45
5	0xda	-38
6	0x9d	-99
7	0xa8	-88
8	0x20	32
9	0xd3	-45
10	0xf9	-7
11	0x10	16
12	0x4c	76
13	0x3b	59
14	0x4d	77
15	0x96	-106
16	0xde	-34
17	0xe2	-30
18	0x04	4
19	0xb5	-75
20	0x1e	30
21	0x31	49
22	0xca	-54
23	0x06	6
24	0xf9	-7
25	0x1c	28
26	0x25	37
27	0x01	1
28	0x10	16
29	0xbe	-66
30	0xe8	-24
31	0xba	-70
32	0x50	80
33	0xd0	-48
34	0x58	88
35	0xa7	-89
36	0xec	-20
37	0x26	38
38	0xf1	-15
39	0x12	18
40	0x02	2
41	0x20	32
42	0x5a	90
43	0xd0	-48
44	0x16	22
45	0xdf	-33
46	0x2a	42
47	0x3d	61
48	0x5d	93
49	0xa5	-91
50	0x06	6
51	0xbd	-67
52	0xb6	-74
53	0xb5	-75
54	0x9f	-97
55	0xa0	-96
56	0x13	19
57	0xf2	-14
58	0x11	17
59	0x3f	63
60	0x95	-107
61	0x8a	-118
62	0x9e	-98
63	0x01	1
64	0xfd	-3
65	0x1e	30
66	0xcb	-53
67	0xc3	-61
68	0x3b	59
69	0xd2	-46
70	0x20	32
71	0x4c	76
72	0x01	1
73	0xf3	-13
74	0x10	16
75	0x41	65
76	0xe5	-27
77	0xd9	-39
78	0x13	19
79	0x1e	30
80	0x14	20
81	0xb0	-80
82	0x3f	63
83	0x4f	79
84	0xe0	-32
85	0x14	20
86	0x2d	45
87	0x35	53
88	0x2b	43
89	0x4f	79
90	0xd9	-39
91	0xf5	-11
92	0xa7	-89
93	0x2c	44
94	0xe8	-24
95	0xfb	-5
96	0x17	23
97	0xd4	-44
98	0x81	-127
99	0x8f	-113
100	0xa8	-88
101	0xe7	-25
102	0x42	66
103	0x34	52
104	0x33	51
105	0xbe	-66
106	0x9c	-100
107	0xb8	-72
108	0xc4	-60
109	0xbe	-66
110	0xf8	-8
111	0xbf	-65
112	0x39	57
113	0x14	20
114	0xaf	-81
115	0x1a	26
116	0xb4	-76
117	0x33	51
118	0x02	2
119	0x3a	58
120	0xeb	-21
121	0xf4	-12
122	0xe5	-27
123	0x20	32
124	0xe6	-26
125	0x90	-112
126	0xcf	-49
127	0xf4	-12
128	0xb8	-72
129	0x82	-126
130	0x48	72
131	0x36	54
132	0xf1	-15
133	0xbb	-69
134	0xbe	-66
135	0xc2	-62
136	0x3f	63
137	0xd3	-45
138	0xd3	-45
139	0x4e	78
140	0xfe	-2
141	0x4b	75
142	0x2c	44
143	0xa0	-96
144	0x1d	29
145	0x2d	45
146	0xaf	-81
147	0xd0	-48
148	0xd5	-43
149	0x28	40
150	0xb0	-80
151	0xe2	-30
152	0xc3	-61
153	0x28	40
154	0xa2	-94
155	0x4b	75
156	0xb3	-77
157	0xea	-22
158	0xa4	-92
159	0x14	20
160	0x9c	-100
161	0x18	24
162	0x8f	-113
163	0x82	-126
164	0x48	72
165	0x45	69
166	0xd6	-42
167	0x22	34
168	0xba	-70
169	0xcd	-51
170	0x36	54
171	0x55	85
172	0x37	55
173	0xea	-22
174	0x97	-105
175	0x1d	29
176	0xec	-20
177	0x31	49
178	0x9c	-100
179	0x18	24
180	0xb6	-74
181	0xbd	-67
182	0x46	70
183	0x04	4
184	0xb7	-73
185	0xc2	-62
186	0x0c	12
187	0xef	-17
188	0xdd	-35
189	0x27	39
190	0x33	51
191	0xa7	-89
192	0xc5	-59
193	0x26	38
194	0x16	22
195	0x0f	15
196	0xfb	-5
197	0xad	-83
198	0x00	0
199	0x98	-104
200	0xcc	-52
201	0xdf	-33
202	0xff	-1
203	0x0c	12
204	0xea	-22
205	0xee	-18
206	0x30	48
207	0xd8	-40
208	0xc5	-59
209	0x24	36
210	0xd3	-45
211	0x5b	91
212	0x8c	-116
213	0x28	40
214	0x12	18
215	0x43	67
216	0xf2	-14
217	0x04	4
218	0x36	54
219	0xe8	-24
220	0xb5	-75
221	0x18	24
222	0xb2	-78
223	0x11	17
224	0xd6	-42
225	0xec	-20
226	0x2f	47
227	0xd7	-41
228	0x1c	28
229	0x2b	43
230	0x13	19
231	0xe6	-26
232	0xa6	-90
233	0xd9	-39
234	0xd9	-39
235	0xd4	-44
236	0x19	25
237	0x69	105
238	0x0b	11
239	0xe5	-27
240	0x14	20
241	0x37	55
242	0x1b	27
243	0x58	88
244	0xa5	-91
245	0xe7	-25
246	0xb8	-72
247	0xa9	-87
248	0x58	88
249	0x29	41
250	0x2b	43
251	0x47	71
252	0xa5	-91
253	0xeb	-21
254	0x9b	-101
255	0xc4	-60

tfl.pseudo_qconst21 i1 [192, 3, 3, 48]
0	0x2a	42
1	0xe8	-24
2	0xff	-1
3	0x02	2
4	0xee	-18
5	0xe5	-27
6	0x02	2
7	0x11	17
8	0xe8	-24
9	0x05	5
10	0xf1	-15
11	0x0a	10
12	0x13	19
13	0xe9	-23
14	0x0a	10
15	0xf5	-11
16	0xf4	-12
17	0x03	3
18	0xfd	-3
19	0xf4	-12
20	0x0b	11
21	0x1c	28
22	0x14	20
23	0x20	32
24	0xfb	-5
25	0x17	23
26	0x15	21
27	0xe5	-27
28	0xe6	-26
29	0xed	-19
30	0xe2	-30
31	0x04	4
32	0xe4	-28
33	0x06	6
34	0x00	0
35	0x06	6
36	0xfc	-4
37	0x03	3
38	0x11	17
39	0xf0	-16
40	0x17	23
41	0xef	-17
42	0xfa	-6
43	0x0c	12
44	0x1a	26
45	0xe7	-25
46	0x0c	12
47	0xf6	-10
48	0xeb	-21
49	0xde	-34
50	0x07	7
51	0xfa	-6
52	0x1d	29
53	0xfd	-3
54	0x17	23
55	0x1a	26
56	0xda	-38
57	0xbc	-68
58	0x0e	14
59	0xfa	-6
60	0xea	-22
61	0xe0	-32
62	0xfb	-5
63	0xe3	-29
64	0xe2	-30
65	0xec	-20
66	0xe6	-26
67	0xe3	-29
68	0x1a	26
69	0x04	4
70	0xf0	-16
71	0xed	-19
72	0xb9	-71
73	0x11	17
74	0x0c	12
75	0xf1	-15
76	0x1d	29
77	0x07	7
78	0x12	18
79	0xfc	-4
80	0x0d	13
81	0x10	16
82	0xe4	-28
83	0x0f	15
84	0xe6	-26
85	0xed	-19
86	0x10	16
87	0xcd	-51
88	0x13	19
89	0x17	23
90	0x00	0
91	0x0d	13
92	0x01	1
93	0xfd	-3
94	0xe7	-25
95	0xf1	-15
96	0x02	2
97	0xeb	-21
98	0xea	-22
99	0xfb	-5
100	0xeb	-21
101	0x15	21
102	0xff	-1
103	0xfc	-4
104	0xe2	-30
105	0xb9	-71
106	0x17	23
107	0xf7	-9
108	0x0b	11
109	0xdb	-37
110	0x07	7
111	0xfb	-5
112	0xfa	-6
113	0x01	1
114	0x0a	10
115	0xf5	-11
116	0x04	4
117	0x0a	10
118	0x15	21
119	0xef	-17
120	0xdc	-36
121	0x16	22
122	0x1d	29
123	0x0d	13
124	0x08	8
125	0x1a	26
126	0xf5	-11
127	0xf2	-14
128	0x08	8
129	0xeb	-21
130	0xe7	-25
131	0x0c	12
132	0xf5	-11
133	0xed	-19
134	0xeb	-21
135	0xf4	-12
136	0xef	-17
137	0x12	18
138	0x11	17
139	0x14	20
140	0xf5	-11
141	0xd8	-40
142	0x1f	31
143	0xf3	-13
144	0xd4	-44
145	0x1e	30
146	0xed	-19
147	0x11	17
148	0xf9	-7
149	0xb8	-72
150	0xfa	-6
151	0xf0	-16
152	0x1e	30
153	0xf2	-14
154	0x14	20
155	0x1e	30
156	0xea	-22
157	0xeb	-21
158	0xe2	-30
159	0xfb	-5
160	0xfb	-5
161	0x01	1
162	0x01	1
163	0xec	-20
164	0xf2	-14
165	0xa9	-87
166	0xfb	-5
167	0xe8	-24
168	0x0b	11
169	0xf8	-8
170	0x29	41
171	0xfe	-2
172	0xe8	-24
173	0x1c	28
174	0x13	19
175	0xd9	-39
176	0x01	1
177	0x28	40
178	0x0f	15
179	0x09	9
180	0x04	4
181	0xff	-1
182	0xb6	-74
183	0xf0	-16
184	0x16	22
185	0xe9	-23
186	0xe5	-27
187	0xe1	-31
188	0xeb	-21
189	0xd9	-39
190	0x19	25
191	0x0c	12
192	0xe2	-30
193	0x0c	12
194	0x06	6
195	0xe1	-31
196	0x0a	10
197	0x17	23
198	0x0c	12
199	0x09	9
200	0x05	5
201	0xfc	-4
202	0xf8	-8
203	0x08	8
204	0x1e	30
205	0x05	5
206	0xd7	-41
207	0xdc	-36
208	0x24	36
209	0x13	19
210	0xfa	-6
211	0x27	39
212	0x0f	15
213	0xe5	-27
214	0x17	23
215	0xf5	-11
216	0x05	5
217	0x0a	10
218	0xfb	-5
219	0x0c	12
220	0xe5	-27
221	0x11	17
222	0xe3	-29
223	0xf7	-9
224	0x10	16
225	0xf2	-14
226	0x07	7
227	0x00	0
228	0x07	7
229	0xfd	-3
230	0xec	-20
231	0x0c	12
232	0xe7	-25
233	0xfb	-5
234	0xef	-17
235	0x0b	11
236	0x1a	26
237	0xd0	-48
238	0xe6	-26
239	0xfb	-5
240	0xc2	-62
241	0xdf	-33
242	0x10	16
243	0xe4	-28
244	0x25	37
245	0x32	50
246	0x12	18
247	0x0f	15
248	0xfa	-6
249	0xe0	-32
250	0xe6	-26
251	0x15	21
252	0x2f	47
253	0xed	-19
254	0xe5	-27
255	0xe5	-27

tfl.pseudo_qconst23 i1 [192, 1, 1, 48]
0	0x1f	31
1	0x0d	13
2	0xb5	-75
3	0x20	32
4	0x0e	14
5	0x95	-107
6	0xbd	-67
7	0x0a	10
8	0x44	68
9	0x6c	108
10	0x5a	90
11	0xfa	-6
12	0x0d	13
13	0x07	7
14	0xca	-54
15	0x3a	58
16	0xf4	-12
17	0xb5	-75
18	0xe4	-28
19	0x14	20
20	0x23	35
21	0x07	7
22	0x40	64
23	0x18	24
24	0x2b	43
25	0x47	71
26	0x61	97
27	0xb6	-74
28	0x46	70
29	0xa2	-94
30	0xcc	-52
31	0x49	73
32	0xb2	-78
33	0xa8	-88
34	0x24	36
35	0xb7	-73
36	0x73	115
37	0xa9	-87
38	0x48	72
39	0xde	-34
40	0xcb	-53
41	0xe4	-28
42	0x7f	127
43	0xde	-34
44	0x56	86
45	0x38	56
46	0x0b	11
47	0xcc	-52
48	0x03	3
49	0x7e	126
50	0x4a	74
51	0xb8	-72
52	0x1e	30
53	0x63	99
54	0x5c	92
55	0xf2	-14
56	0x9a	-102
57	0x94	-108
58	0x55	85
59	0xbd	-67
60	0xc4	-60
61	0xf0	-16
62	0xe3	-29
63	0xdb	-37
64	0x7a	122
65	0x5b	91
66	0x9b	-101
67	0x61	97
68	0x38	56
69	0xb0	-80
70	0xce	-50
71	0x00	0
72	0xbe	-66
73	0x1c	28
74	0x3a	58
75	0x14	20
76	0xee	-18
77	0x25	37
78	0x3a	58
79	0x5f	95
80	0xf3	-13
81	0x69	105
82	0x86	-122
83	0xc7	-57
84	0x3e	62
85	0x96	-106
86	0x5a	90
87	0xd0	-48
88	0x5e	94
89	0xa6	-90
90	0x96	-106
91	0x60	96
92	0x7f	127
93	0x17	23
94	0xa6	-90
95	0x96	-106
96	0x91	-111
97	0x82	-126
98	0x75	117
99	0x03	3
100	0x36	54
101	0x11	17
102	0x4a	74
103	0x9f	-97
104	0x16	22
105	0xc1	-63
106	0xb5	-75
107	0x61	97
108	0xbf	-65
109	0x5f	95
110	0xfa	-6
111	0x25	37
112	0xfe	-2
113	0x8f	-113
114	0xa0	-96
115	0xfb	-5
116	0x5e	94
117	0x06	6
118	0xaf	-81
119	0xe6	-26
120	0x3d	61
121	0x57	87
122	0xc7	-57
123	0x54	84
124	0xd2	-46
125	0x2f	47
126	0x37	55
127	0xbf	-65
128	0xdd	-35
129	0xae	-82
130	0xb4	-76
131	0x42	66
132	0x02	2
133	0x7f	127
134	0x09	9
135	0xfc	-4
136	0x26	38
137	0x76	118
138	0xc1	-63
139	0xfc	-4
140	0xc5	-59
141	0x90	-112
142	0xfc	-4
143	0xfd	-3
144	0x4f	79
145	0x4d	77
146	0x9a	-102
147	0x06	6
148	0x36	54
149	0xf0	-16
150	0x09	9
151	0x99	-103
152	0x95	-107
153	0x99	-103
154	0xec	-20
155	0x13	19
156	0xb6	-74
157	0xa8	-88
158	0x3b	59
159	0xfd	-3
160	0x39	57
161	0x7b	123
162	0x3c	60
163	0xbd	-67
164	0xc9	-55
165	0x94	-108
166	0x65	101
167	0xc6	-58
168	0x57	87
169	0x8c	-116
170	0xad	-83
171	0xf0	-16
172	0x51	81
173	0x19	25
174	0x34	52
175	0x4d	77
176	0x39	57
177	0x46	70
178	0xd4	-44
179	0x48	72
180	0xed	-19
181	0xa8	-88
182	0x81	-127
183	0xef	-17
184	0x26	38
185	0x20	32
186	0xd0	-48
187	0x6f	111
188	0x02	2
189	0x00	0
190	0x5d	93
191	0x00	0
192	0xb9	-71
193	0xdf	-33
194	0xd6	-42
195	0x39	57
196	0xf8	-8
197	0x3b	59
198	0x31	49
199	0x4d	77
200	0xd8	-40
201	0x59	89
202	0x5d	93
203	0xd3	-45
204	0xdf	-33
205	0x12	18
206	0x51	81
207	0xda	-38
208	0x41	65
209	0xff	-1
210	0x60	96
211	0x64	100
212	0xc0	-64
213	0xe8	-24
214	0xd1	-47
215	0x13	19
216	0x55	85
217	0xcf	-49
218	0x19	25
219	0xe9	-23
220	0x5c	92
221	0x4e	78
222	0xfe	-2
223	0x4a	74
224	0xdc	-36
225	0x38	56
226	0xeb	-21
227	0xaf	-81
228	0x6a	106
229	0x48	72
230	0xe2	-30
231	0x81	-127
232	0x48	72
233	0xa9	-87
234	0x2c	44
235	0xbc	-68
236	0x0f	15
237	0x34	52
238	0x23	35
239	0xb6	-74
240	0x25	37
241	0xb3	-77
242	0x46	70
243	0x59	89
244	0xd5	-43
245	0xc0	-64
246	0xec	-20
247	0x51	81
248	0x29	41
249	0xc3	-61
250	0x7f	127
251	0x4b	75
252	0x93	-109
253	0x3e	62
254	0x1d	29
255	0x55	85

tfl.pseudo_qconst25 i1 [48, 1, 1, 256]
0	0x17	23
1	0x58	88
2	0x1e	30
3	0xdd	-35
4	0x44	68
5	0xf5	-11
6	0xd3	-45
7	0x59	89
8	0x3a	58
9	0x37	55
10	0xb7	-73
11	0x67	103
12	0x49	73
13	0x39	57
14	0xc1	-63
15	0xe3	-29
16	0x09	9
17	0x41	65
18	0xf1	-15
19	0x0c	12
20	0x57	87
21	0xd3	-45
22	0x07	7
23	0xbb	-69
24	0x40	64
25	0x2a	42
26	0x57	87
27	0x3d	61
28	0xc9	-55
29	0x4d	77
30	0xd7	-41
31	0x03	3
32	0xf8	-8
33	0x3f	63
34	0xf8	-8
35	0x12	18
36	0xc1	-63
37	0x24	36
38	0xfb	-5
39	0xf9	-7
40	0xdf	-33
41	0xe1	-31
42	0x07	7
43	0xd0	-48
44	0x27	39
45	0xf4	-12
46	0xc8	-56
47	0x10	16
48	0xcb	-53
49	0xfd	-3
50	0xce	-50
51	0x27	39
52	0xb9	-71
53	0xb7	-73
54	0xc6	-58
55	0xe9	-23
56	0x1b	27
57	0x2c	44
58	0x71	113
59	0xa0	-96
60	0xaf	-81
61	0xc5	-59
62	0xe3	-29
63	0x1d	29
64	0xd5	-43
65	0x32	50
66	0x00	0
67	0xde	-34
68	0x0a	10
69	0x2c	44
70	0xb3	-77
71	0x28	40
72	0xe6	-26
73	0x34	52
74	0x22	34
75	0x2b	43
76	0x1d	29
77	0xea	-22
78	0xcb	-53
79	0x0a	10
80	0x4e	78
81	0x2d	45
82	0xce	-50
83	0xf5	-11
84	0x03	3
85	0x42	66
86	0xf5	-11
87	0x09	9
88	0x2b	43
89	0x19	25
90	0x33	51
91	0x2e	46
92	0x32	50
93	0xf8	-8
94	0x59	89
95	0x45	69
96	0xbc	-68
97	0x5f	95
98	0x4c	76
99	0xed	-19
100	0x59	89
101	0xbe	-66
102	0x04	4
103	0x0f	15
104	0xed	-19
105	0xd5	-43
106	0x78	120
107	0x32	50
108	0x0f	15
109	0x3d	61
110	0x28	40
111	0x14	20
112	0xf6	-10
113	0x59	89
114	0xe2	-30
115	0xe7	-25
116	0x30	48
117	0x19	25
118	0xf7	-9
119	0x21	33
120	0x26	38
121	0x29	41
122	0xcf	-49
123	0x46	70
124	0x58	88
125	0x0c	12
126	0x16	22
127	0xfb	-5
128	0x40	64
129	0xd5	-43
130	0xc5	-59
131	0x58	88
132	0x2c	44
133	0xd0	-48
134	0xe1	-31
135	0x0e	14
136	0xfe	-2
137	0x0e	14
138	0xd9	-39
139	0x36	54
140	0x05	5
141	0xca	-54
142	0x05	5
143	0xd0	-48
144	0xfe	-2
145	0xed	-19
146	0x16	22
147	0xe5	-27
148	0xc9	-55
149	0x0b	11
150	0xdc	-36
151	0xc3	-61
152	0xb6	-74
153	0x24	36
154	0x7b	123
155	0xd9	-39
156	0x52	82
157	0x9d	-99
158	0x29	41
159	0xff	-1
160	0xe6	-26
161	0x0b	11
162	0x55	85
163	0x93	-109
164	0x81	-127
165	0xd6	-42
166	0x24	36
167	0xa5	-91
168	0xed	-19
169	0x0a	10
170	0xbb	-69
171	0xfe	-2
172	0xf6	-10
173	0xa5	-91
174	0x1f	31
175	0x90	-112
176	0x1c	28
177	0x6b	107
178	0xc3	-61
179	0xcd	-51
180	0xd1	-47
181	0xbc	-68
182	0x11	17
183	0x1f	31
184	0xe3	-29
185	0xca	-54
186	0x02	2
187	0xcf	-49
188	0x0b	11
189	0xe4	-28
190	0xd2	-46
191	0xe0	-32
192	0xea	-22
193	0x07	7
194	0x16	22
195	0xed	-19
196	0x1a	26
197	0x5e	94
198	0xd5	-43
199	0xdf	-33
200	0x15	21
201	0xeb	-21
202	0xbc	-68
203	0xf4	-12
204	0xbd	-67
205	0xe5	-27
206	0xe4	-28
207	0xc9	-55
208	0xfe	-2
209	0x37	55
210	0xf6	-10
211	0xad	-83
212	0x2c	44
213	0xf8	-8
214	0xe3	-29
215	0xdf	-33
216	0x11	17
217	0x28	40
218	0xd6	-42
219	0xdd	-35
220	0x48	72
221	0xf7	-9
222	0x1f	31
223	0xce	-50
224	0x41	65
225	0xc8	-56
226	0xdf	-33
227	0xed	-19
228	0x38	56
229	0xb4	-76
230	0x15	21
231	0xe6	-26
232	0x1f	31
233	0xac	-84
234	0x1a	26
235	0xdf	-33
236	0x2b	43
237	0xf7	-9
238	0x51	81
239	0x22	34
240	0xc9	-55
241	0xef	-17
242	0x4a	74
243	0x14	20
244	0x10	16
245	0x2f	47
246	0xfc	-4
247	0x07	7
248	0xa1	-95
249	0xb5	-75
250	0xb1	-79
251	0x0d	13
252	0xf1	-15
253	0xee	-18
254	0xe0	-32
255	0xd6	-42

tfl.pseudo_qconst27 i1 [128, 3, 3, 32]
0	0x04	4
1	0xcc	-52
2	0x0d	13
3	0x11	17
4	0xe6	-26
5	0x0f	15
6	0x1b	27
7	0xf5	-11
8	0x18	24
9	0x0d	13
10	0xfa	-6
11	0xe5	-27
12	0xec	-20
13	0x25	37
14	0xd2	-46
15	0xce	-50
16	0x34	52
17	0x2c	44
18	0xcb	-53
19	0xea	-22
20	0xd3	-45
21	0x0f	15
22	0xd1	-47
23	0x10	16
24	0xe8	-24
25	0xca	-54
26	0x10	16
27	0xec	-20
28	0x2f	47
29	0x11	17
30	0xd8	-40
31	0x08	8
32	0xcc	-52
33	0xde	-34
34	0xf2	-14
35	0x10	16
36	0x02	2
37	0x0d	13
38	0xe6	-26
39	0x0a	10
40	0x1d	29
41	0xcb	-53
42	0xcf	-49
43	0xc4	-60
44	0xd9	-39
45	0x27	39
46	0x1a	26
47	0x0b	11
48	0x06	6
49	0x43	67
50	0xd6	-42
51	0xee	-18
52	0xd3	-45
53	0xff	-1
54	0xf3	-13
55	0x10	16
56	0xec	-20
57	0xfa	-6
58	0xfa	-6
59	0xff	-1
60	0x65	101
61	0xd2	-46
62	0x0a	10
63	0x00	0
64	0xb8	-72
65	0xf1	-15
66	0xca	-54
67	0xe2	-30
68	0xfb	-5
69	0xe6	-26
70	0xea	-22
71	0x16	22
72	0xf1	-15
73	0xe1	-31
74	0xd2	-46
75	0xf1	-15
76	0xec	-20
77	0x1a	26
78	0x14	20
79	0x20	32
80	0x01	1
81	0xd4	-44
82	0xe8	-24
83	0xf4	-12
84	0xfa	-6
85	0xd0	-48
86	0xf0	-16
87	0xe0	-32
88	0x0c	12
89	0x0c	12
90	0xba	-70
91	0x02	2
92	0x13	19
93	0xf7	-9
94	0x06	6
95	0x09	9
96	0x02	2
97	0xef	-17
98	0xdb	-37
99	0x02	2
100	0xea	-22
101	0x02	2
102	0xfa	-6
103	0xf7	-9
104	0xc5	-59
105	0xf4	-12
106	0x1f	31
107	0xae	-82
108	0x17	23
109	0xf7	-9
110	0xe0	-32
111	0xe0	-32
112	0xe7	-25
113	0x23	35
114	0x25	37
115	0xc9	-55
116	0x26	38
117	0xff	-1
118	0xf5	-11
119	0x35	53
120	0x46	70
121	0x16	22
122	0x2d	45
123	0xff	-1
124	0xcb	-53
125	0x1d	29
126	0x13	19
127	0xb1	-79
128	0xdf	-33
129	0xe6	-26
130	0xf7	-9
131	0x13	19
132	0x0c	12
133	0x0c	12
134	0x43	67
135	0xe1	-31
136	0x12	18
137	0x1f	31
138	0x1d	29
139	0xfd	-3
140	0x1c	28
141	0x1d	29
142	0xfd	-3
143	0x16	22
144	0x09	9
145	0xd3	-45
146	0xef	-17
147	0xfb	-5
148	0xfc	-4
149	0xfc	-4
150	0xf5	-11
151	0xde	-34
152	0xe3	-29
153	0xed	-19
154	0x10	16
155	0xf8	-8
156	0x1d	29
157	0xe0	-32
158	0xff	-1
159	0xe4	-28
160	0xea	-22
161	0xe4	-28
162	0xcc	-52
163	0x2e	46
164	0xfe	-2
165	0xd7	-41
166	0x0a	10
167	0xe8	-24
168	0xfd	-3
169	0xd3	-45
170	0x1e	30
171	0xf9	-7
172	0xf5	-11
173	0xdd	-35
174	0x18	24
175	0xd5	-43
176	0x09	9
177	0x9c	-100
178	0x05	5
179	0xda	-38
180	0x0f	15
181	0xe4	-28
182	0xef	-17
183	0x01	1
184	0xd0	-48
185	0x0b	11
186	0xd0	-48
187	0xb3	-77
188	0xdb	-37
189	0xe7	-25
190	0xbf	-65
191	0x17	23
192	0xfd	-3
193	0xe6	-26
194	0xe8	-24
195	0xfe	-2
196	0xc2	-62
197	0x10	16
198	0x81	-127
199	0xc6	-58
200	0xe7	-25
201	0xda	-38
202	0xe4	-28
203	0xce	-50
204	0x01	1
205	0x25	37
206	0xc9	-55
207	0xd3	-45
208	0x19	25
209	0x09	9
210	0xd7	-41
211	0xf3	-13
212	0x02	2
213	0x26	38
214	0xe5	-27
215	0x01	1
216	0x15	21
217	0xc5	-59
218	0x0c	12
219	0xd8	-40
220	0x2f	47
221	0xf2	-14
222	0xe2	-30
223	0xf0	-16
224	0xd0	-48
225	0xef	-17
226	0xd5	-43
227	0x01	1
228	0xe6	-26
229	0xc7	-57
230	0xfa	-6
231	0xfd	-3
232	0x14	20
233	0xf4	-12
234	0xdf	-33
235	0xc1	-63
236	0xef	-17
237	0x20	32
238	0x10	16
239	0xf7	-9
240	0x25	37
241	0x11	17
242	0xea	-22
243	0x3a	58
244	0xcc	-52
245	0x05	5
246	0x04	4
247	0xcf	-49
248	0xf6	-10
249	0x36	54
250	0x0f	15
251	0x17	23
252	0x33	51
253	0xdb	-37
254	0x05	5
255	0xdb	-37

tfl.pseudo_qconst29 i1 [128, 1, 1, 32]
0	0xd5	-43
1	0x57	87
2	0xfa	-6
3	0xef	-17
4	0xce	-50
5	0x2c	44
6	0xcc	-52
7	0x11	17
8	0x30	48
9	0x85	-123
10	0xde	-34
11	0xa5	-91
12	0x52	82
13	0x05	5
14	0x07	7
15	0xd5	-43
16	0xff	-1
17	0xdc	-36
18	0xb3	-77
19	0x81	-127
20	0x0a	10
21	0x3b	59
22	0x50	80
23	0x52	82
24	0x10	16
25	0xa7	-89
26	0x02	2
27	0xbc	-68
28	0xc2	-62
29	0x3f	63
30	0xac	-84
31	0x2d	45
32	0x9e	-98
33	0x88	-120
34	0x09	9
35	0xdb	-37
36	0x0f	15
37	0x10	16
38	0xec	-20
39	0xdd	-35
40	0xed	-19
41	0xf5	-11
42	0x34	52
43	0xcb	-53
44	0x23	35
45	0xee	-18
46	0xbc	-68
47	0x38	56
48	0x78	120
49	0xcc	-52
50	0xcb	-53
51	0xb7	-73
52	0xa7	-89
53	0xaa	-86
54	0x60	96
55	0x93	-109
56	0x29	41
57	0xf0	-16
58	0xf2	-14
59	0x81	-127
60	0x13	19
61	0xc6	-58
62	0x07	7
63	0x97	-105
64	0x13	19
65	0x55	85
66	0xf6	-10
67	0x47	71
68	0x2f	47
69	0xa9	-87
70	0x89	-119
71	0xb2	-78
72	0x93	-109
73	0xd7	-41
74	0xc7	-57
75	0xfc	-4
76	0xa4	-92
77	0xd3	-45
78	0x0d	13
79	0x15	21
80	0x9f	-97
81	0x95	-107
82	0xfb	-5
83	0x2e	46
84	0xc7	-57
85	0x03	3
86	0x3e	62
87	0x20	32
88	0x42	66
89	0xe0	-32
90	0x81	-127
91	0x2a	42
92	0x05	5
93	0xf3	-13
94	0xa1	-95
95	0x1d	29
96	0xf0	-16
97	0x4f	79
98	0x1e	30
99	0x46	70
100	0x40	64
101	0x0e	14
102	0x4b	75
103	0x3e	62
104	0xf3	-13
105	0x2a	42
106	0x16	22
107	0x21	33
108	0x3c	60
109	0x0f	15
110	0x31	49
111	0xef	-17
112	0x2e	46
113	0xbf	-65
114	0xf1	-15
115	0xeb	-21
116	0x0c	12
117	0x81	-127
118	0xd3	-45
119	0xe2	-30
120	0xd6	-42
121	0x34	52
122	0xb0	-80
123	0xf7	-9
124	0x29	41
125	0x46	70
126	0x2f	47
127	0xfd	-3
128	0xdf	-33
129	0xc9	-55
130	0x2c	44
131	0xcd	-51
132	0xbb	-69
133	0xc3	-61
134	0x1e	30
135	0xb4	-76
136	0xbc	-68
137	0xab	-85
138	0xd0	-48
139	0x1f	31
140	0xb8	-72
141	0x43	67
142	0x76	118
143	0xe3	-29
144	0xe8	-24
145	0x48	72
146	0x07	7
147	0xdc	-36
148	0xdc	-36
149	0x81	-127
150	0x49	73
151	0xb8	-72
152	0x0e	14
153	0x9b	-101
154	0x41	65
155	0xcc	-52
156	0x10	16
157	0xe1	-31
158	0x65	101
159	0xca	-54
160	0xe6	-26
161	0x0b	11
162	0x39	57
163	0xd2	-46
164	0x34	52
165	0xaf	-81
166	0x03	3
167	0xf3	-13
168	0xda	-38
169	0xf5	-11
170	0x54	84
171	0xec	-20
172	0x10	16
173	0xff	-1
174	0x1b	27
175	0x0b	11
176	0xe0	-32
177	0xb9	-71
178	0xfc	-4
179	0x32	50
180	0x20	32
181	0x18	24
182	0x1c	28
183	0xeb	-21
184	0x24	36
185	0xe2	-30
186	0xbb	-69
187	0xc8	-56
188	0x81	-127
189	0x3c	60
190	0xc8	-56
191	0xbf	-65
192	0xd7	-41
193	0x0a	10
194	0xe9	-23
195	0xbc	-68
196	0xc4	-60
197	0xe6	-26
198	0xcf	-49
199	0x27	39
200	0x4e	78
201	0x36	54
202	0xc8	-56
203	0x79	121
204	0x34	52
205	0xf6	-10
206	0xa5	-91
207	0x93	-109
208	0x1d	29
209	0x81	-127
210	0x77	119
211	0xc7	-57
212	0x46	70
213	0x94	-108
214	0xec	-20
215	0xb6	-74
216	0xf9	-7
217	0xfd	-3
218	0x98	-104
219	0xa8	-88
220	0xc6	-58
221	0x4b	75
222	0x20	32
223	0xd8	-40
224	0x58	88
225	0x81	-127
226	0x16	22
227	0xee	-18
228	0xac	-84
229	0x1a	26
230	0xd5	-43
231	0xfa	-6
232	0xfb	-5
233	0xe0	-32
234	0x56	86
235	0xb6	-74
236	0x51	81
237	0x00	0
238	0x36	54
239	0xc4	-60
240	0x89	-119
241	0x27	39
242	0x4b	75
243	0x55	85
244	0xff	-1
245	0xca	-54
246	0xcb	-53
247	0x67	103
248	0xc7	-57
249	0xb2	-78
250	0xf7	-9
251	0x89	-119
252	0xde	-34
253	0xbe	-66
254	0xe8	-24
255	0xc4	-60

tfl.pseudo_qconst31 i1 [32, 1, 1, 256]
0	0x2e	46
1	0xb9	-71
2	0x2d	45
3	0xfc	-4
4	0xee	-18
5	0xb7	-73
6	0x74	116
7	0x45	69
8	0xec	-20
9	0x21	33
10	0x4e	78
11	0x05	5
12	0x30	48
13	0x34	52
14	0xd7	-41
15	0x1b	27
16	0x27	39
17	0xd9	-39
18	0x07	7
19	0x18	24
20	0x2b	43
21	0xe0	-32
22	0xa5	-91
23	0xe0	-32
24	0x35	53
25	0x0e	14
26	0x1f	31
27	0xff	-1
28	0xe6	-26
29	0xb0	-80
30	0x3e	62
31	0x0c	12
32	0x01	1
33	0x43	67
34	0x1b	27
35	0x27	39
36	0x13	19
37	0x28	40
38	0x33	51
39	0xe7	-25
40	0x0c	12
41	0xff	-1
42	0x22	34
43	0x10	16
44	0x28	40
45	0xe1	-31
46	0x0e	14
47	0x1f	31
48	0x59	89
49	0xf1	-15
50	0x0d	13
51	0x20	32
52	0xdd	-35
53	0xc5	-59
54	0x41	65
55	0x2d	45
56	0x49	73
57	0x33	51
58	0x55	85
59	0xe0	-32
60	0xe8	-24
61	0x45	69
62	0x18	24
63	0xc8	-56
64	0xb6	-74
65	0x08	8
66	0x19	25
67	0x2e	46
68	0x3f	63
69	0xbf	-65
70	0xd2	-46
71	0x3c	60
72	0xc2	-62
73	0x1a	26
74	0xc9	-55
75	0x81	-127
76	0x4c	76
77	0xb7	-73
78	0x38	56
79	0xef	-17
80	0xfc	-4
81	0x30	48
82	0xaa	-86
83	0x14	20
84	0xcb	-53
85	0xdb	-37
86	0xef	-17
87	0x29	41
88	0xbe	-66
89	0xd5	-43
90	0x4e	78
91	0xc6	-58
92	0x4a	74
93	0x1a	26
94	0x46	70
95	0xec	-20
96	0xa9	-87
97	0x46	70
98	0x39	57
99	0xe9	-23
100	0x26	38
101	0x33	51
102	0x2c	44
103	0xf9	-7
104	0xf9	-7
105	0xa7	-89
106	0xb4	-76
107	0xce	-50
108	0x4a	74
109	0xe1	-31
110	0xc4	-60
111	0x3b	59
112	0xb8	-72
113	0x38	56
114	0x2a	42
115	0xd2	-46
116	0x45	69
117	0xca	-54
118	0xe0	-32
119	0x31	49
120	0xd4	-44
121	0xf0	-16
122	0x37	55
123	0xe8	-24
124	0x1e	30
125	0x03	3
126	0xbf	-65
127	0x16	22
128	0xd8	-40
129	0xf7	-9
130	0xa6	-90
131	0x9d	-99
132	0x49	73
133	0xcd	-51
134	0x4e	78
135	0x3b	59
136	0xcc	-52
137	0x17	23
138	0xb1	-79
139	0xcd	-51
140	0x3d	61
141	0xd3	-45
142	0x13	19
143	0xdd	-35
144	0x1a	26
145	0x20	32
146	0x14	20
147	0x10	16
148	0x3a	58
149	0x67	103
150	0xd9	-39
151	0x01	1
152	0xc7	-57
153	0xfd	-3
154	0x3b	59
155	0xe3	-29
156	0x2d	45
157	0xd3	-45
158	0x56	86
159	0xb7	-73
160	0x98	-104
161	0xef	-17
162	0xa6	-90
163	0x1f	31
164	0xcb	-53
165	0x07	7
166	0xe7	-25
167	0x59	89
168	0xdc	-36
169	0x5a	90
170	0x95	-107
171	0x3a	58
172	0x26	38
173	0xb4	-76
174	0xf6	-10
175	0x2d	45
176	0x48	72
177	0x06	6
178	0x13	19
179	0x22	34
180	0xb2	-78
181	0xf5	-11
182	0xad	-83
183	0xed	-19
184	0xf6	-10
185	0x61	97
186	0x0b	11
187	0xcf	-49
188	0xb6	-74
189	0xee	-18
190	0xea	-22
191	0xfd	-3
192	0x19	25
193	0xb1	-79
194	0x47	71
195	0x07	7
196	0x2d	45
197	0xea	-22
198	0xbf	-65
199	0x36	54
200	0x37	55
201	0xb8	-72
202	0xe5	-27
203	0x06	6
204	0xfe	-2
205	0xac	-84
206	0xb7	-73
207	0x55	85
208	0x00	0
209	0x31	49
210	0xb8	-72
211	0x0d	13
212	0x0a	10
213	0x1e	30
214	0x40	64
215	0x37	55
216	0x36	54
217	0x07	7
218	0x0f	15
219	0x4d	77
220	0xe5	-27
221	0x38	56
222	0xcb	-53
223	0xd9	-39
224	0x44	68
225	0x38	56
226	0xc8	-56
227	0x03	3
228	0x40	64
229	0xb8	-72
230	0xe3	-29
231	0x16	22
232	0x26	38
233	0x34	52
234	0xfa	-6
235	0x57	87
236	0xe4	-28
237	0xa1	-95
238	0xbf	-65
239	0x55	85
240	0x04	4
241	0x1a	26
242	0x09	9
243	0xf8	-8
244	0xd0	-48
245	0x30	48
246	0xb4	-76
247	0x52	82
248	0x29	41
249	0xdf	-33
250	0x0f	15
251	0xec	-20
252	0x08	8
253	0xbc	-68
254	0x0a	10
255	0x2b	43
